checkpoints/Archive/audio_classifier_original.pt (torch, 381085 bytes, 86 tensors)

conv1.weight f4 [8, 1, 5, 5]
000000 ad b8 59 3e 2f ed 8c 3d 25 67 94 bd b3 7f a4 3c
       0.21261854 0.06881177 -0.07246236 0.020080423
000010 08 3b a7 bd 27 d4 a3 be 52 d4 b7 be 26 5e f2 be
       -0.08165556 -0.31997797 -0.35904175 -0.47337455
000020 cc 20 c0 be de d3 a9 be 01 f0 bd bd 01 0b 8f 3e
       -0.37525022 -0.33169454 -0.09274293 0.27938083
000030 0d ea a4 3e df 8a ae 3d 42 45 96 be bc b4 36 3f
       0.32209817 0.08522581 -0.29349715 0.7136953
000040 97 de 3e 3e c5 f5 69 be 6b f7 45 be 7a 8a 15 3f
       0.18639599 -0.2284766 -0.19332664 0.58414423
000050 44 72 94 bd 23 bb 50 bd 7c b6 c8 bd 70 6b 53 be
       -0.07248357 -0.050959717 -0.09800431 -0.20646453
000060 31 13 c9 be 6f 76 90 be 9b 9f ad 3d cc 0a 95 3d
       -0.39272454 -0.28215358 0.08477708 0.0727745
000070 7f 20 07 3c 80 e2 be 3e 6c 9e 5e 3e 26 5f 15 3d
       0.008247494 0.3728218 0.2174012 0.036467694
000080 9e dc fd 3e a0 58 5f 3f 29 65 06 3f cb cf 2e 3c
       0.4958238 0.87244606 0.5249811 0.010669659
000090 8a f2 a2 bc 0e 17 86 bd 9d 79 84 be bb 12 b1 3e
       -0.019891042 -0.06547366 -0.25874034 0.34584603
0000a0 76 74 66 be 60 a1 3a be 61 a3 5e be 4b 84 0d 3d
       -0.22505364 -0.18225622 -0.21742012 0.034549993
0000b0 55 96 f0 3b b4 0f 0c be 49 00 2a 3e 70 83 98 be
       0.0073421397 -0.13677865 0.16601671 -0.2978778
0000c0 9e 7d 10 bf 6d 4d 38 bf a0 26 ff 3d 1a 55 a7 bd
       -0.56441677 -0.7199314 0.12458539 -0.08170529
0000d0 12 d9 12 be 2a c0 83 bc b7 f7 ee bd 82 1e 1d 3d
       -0.14340618 -0.016082842 -0.116683416 0.038359173
0000e0 86 ae 5a 3d 45 ca 93 3e 77 f9 a0 3d 44 9f 1b 3e
       0.053389095 0.28865257 0.07860082 0.15197474
0000f0 7c 88 73 be 80 00 40 be 5b 3c 5d be e5 3b 74 be
       -0.23782533 -0.1875019 -0.21605055 -0.23850973
000100 f3 d1 50 be b8 dd 5f 3d e9 a0 9a bd d1 56 e8 bd
       -0.2039259 0.054654807 -0.075502224 -0.11344684
000110 e7 99 00 be 87 73 23 bc d3 e4 8d 3e c7 a7 e8 3e
       -0.12558709 -0.009976274 0.27713642 0.45440504
000120 07 f1 86 3e 83 3b f7 3e 2f de ca 3e 5f 0c 2b be
       0.26355764 0.4828759 0.39622638 -0.16703938
000130 d1 72 0f be a0 18 e2 bd bc 40 10 bb 9f bf 93 3e
       -0.14008643 -0.11039853 -0.002201124 0.28857133
000140 9e 26 81 bd ce a3 52 be ca c4 2b be bc 20 3c be
       -0.06306194 -0.20570299 -0.16774288 -0.18371862
000150 ba e4 b7 bd 3e 48 51 be 9b dd eb bc db 32 f1 3d
       -0.08979173 -0.20437714 -0.028792193 0.11777278
000160 2e a9 dc bc 26 0c a8 3e f8 2b 9f 3d 8b b1 01 3f
       -0.02693614 0.3282177 0.07772058 0.50661534
000170 8c 44 86 3e e9 1c f3 3e 99 7e 16 3f 05 cf 13 3d
       0.26224172 0.47482994 0.5878692 0.0360861
000180 9f 5e 12 3d b5 6f cc bd ac f4 5d 3c da 3a f9 bd
       0.03573477 -0.09982244 0.013547104 -0.12169428
000190 bd 1a ad 3d 4a 5b 60 be 39 f3 a7 be 8e 0a 25 3e
       0.084523655 -0.21909824 -0.32802752 0.16117308
0001a0 10 64 76 3d b1 a1 63 3d 8d 4f dd be 70 97 44 bc
       0.06015402 0.055574123 -0.43224755 -0.011998996
0001b0 96 6b 3e 3e 1a ef f3 bd b0 55 03 3e b7 fe 85 3e
       0.18595728 -0.119108394 0.12825656 0.26170895
0001c0 3e 36 99 3a 70 04 af be f6 f7 0c 3d c9 63 9d bd
       0.0011689139 -0.34183073 0.03441616 -0.07685048
0001d0 81 62 25 be 52 2a 7c be a6 2c 4b be ed 98 93 be
       -0.16150858 -0.24625519 -0.19841251 -0.2882761
0001e0 ca ad 36 be b4 70 5c bf 15 20 5b be 1d fb f1 3d
       -0.17839733 -0.8610947 -0.21398957 0.11815474
0001f0 fd 4a c6 3e 3b 6b 67 be b2 08 03 bf 15 1f 02 be
       0.38729087 -0.22599499 -0.51185143 -0.1270717
000200 3f 17 58 be d3 10 03 be 8e bf 00 3e 28 da b6 3e
       -0.21102618 -0.12799387 0.12573072 0.35713315
000210 9d 1e 05 bd 7c 61 89 3d ef bf 73 bd 6f c9 f4 bd
       -0.0324999 0.06708047 -0.059509214 -0.11952483
000220 ca 92 94 3e 7e 28 25 bd 44 c2 85 3e c9 24 a5 3e
       0.2901824 -0.04032182 0.26124775 0.32254627
000230 de f6 74 3f c4 f2 0b 3e 0b 36 df 3e 4f d1 82 3e
       0.9568919 0.13666826 0.4359592 0.25550315
000240 54 80 8d 3c 73 0a a6 3c ac 98 ad 3c 03 86 bc bd
       0.017273106 0.020268654 0.021190964 -0.09205248
000250 49 36 da bd bc 67 68 bd 03 7f 71 3f 32 2d cb 3e
       -0.10654885 -0.056739554 0.9433443 0.3968292
000260 de 79 ca 3e 7e 99 21 3f 9c 82 b7 3d 69 ad 6e 3d
       0.39546102 0.63124835 0.08960459 0.058270846
000270 4b c6 bb 3d bb bd 38 3e dd f3 cc bd 25 19 c3 be
       0.09168681 0.18041126 -0.10007451 -0.3810512
000280 f5 dc 81 3e 76 1c cc 3b a9 ec 6c 3d cc c2 a3 3d
       0.2536389 0.0062289787 0.057842884 0.07996139
000290 96 3a 16 be 5b 3e 2f be ac 14 b8 bd dd 5a 4e be
       -0.14670786 -0.1711363 -0.08988318 -0.20151849
0002a0 77 14 ed 3d c0 9e 87 bd 7b c6 52 be 5b f3 b8 3d
       0.11576169 -0.06622076 -0.20583527 0.09030791
0002b0 51 5c 39 3c 2b f7 0c bd 81 76 c4 bd f4 cf c8 bd
       0.011313514 -0.034415405 -0.09592915 -0.09805289
0002c0 9d 7a 72 bd d8 66 64 3e 8f bd d1 3e a9 91 8d 3e
       -0.059198964 0.22304857 0.40964934 0.27650192
0002d0 0d cc 93 bd 6f 25 1c bd c6 3d d7 be a3 49 d5 bd
       -0.07216654 -0.038121637 -0.42039317 -0.10414436
0002e0 cb 4f 09 bf 95 47 b0 be 3f c0 70 be 67 0c 2f be
       -0.5363738 -0.34429613 -0.23510836 -0.17094575
0002f0 ad db 0e bf d6 d1 b3 be 68 6e 2d 3e 52 5e 79 be
       -0.5580395 -0.3512103 0.16936648 -0.24352387
000300 57 c9 18 3e 28 c5 33 be 3a 82 62 3e b3 da 4c 3e
       0.14920555 -0.17555678 0.2211999 0.20005302
000310 11 95 9e 3e b7 1f 7f 3e 42 b4 de 3d f6 75 02 3e
       0.30973104 0.24914442 0.10874225 0.12740311

conv1.bias f4 [8]
000000 64 4c 4a 3e e4 03 15 bd 4f ce 94 3d 8f 26 64 bd
       0.19755703 -0.036380664 0.07265913 -0.055700835
000010 bf 8e 4c bd e9 4e 01 3e 43 87 0d 3c d8 c1 a1 3d
       -0.04994082 0.12627758 0.008638206 0.07898301

bn1.weight f4 [8]
000000 9f aa 82 3f c0 9f 8f 3f 89 02 5d 3f a4 a3 96 3f
       1.020832 1.1220627 0.86331993 1.1768689
000010 06 83 87 3f 47 ea 78 3f 90 6a 54 3f 32 6c 88 3f
       1.058686 0.9723248 0.829751 1.0658019

bn1.bias f4 [8]
000000 9b 81 32 3e 7c de f9 be 79 3c 9d be a0 8e 1a 3c
       0.17432253 -0.48802555 -0.307102 0.0094334185
000010 26 45 0a bc 93 5c 04 3d 79 eb 5a 3c f9 fe 05 bc
       -0.008439338 0.03231485 0.013361805 -0.008178466

bn1.running_mean f4 [8]
000000 bd b9 53 3e 62 0a 97 bc af fe 38 3d 70 47 73 bd
       0.20676322 -0.018437568 0.04516476 -0.0593943
000010 c1 f1 2d bd 6a 05 f0 3d 2a e1 0c 3d ec 76 86 3d
       -0.042466883 0.11719783 0.03439442 0.06565651

bn1.running_var f4 [8]
000000 66 f9 b8 3f 75 2e ec 3f 36 ef c6 3e 85 4b db 3f
       1.445111 1.8451678 0.38854378 1.7132422
000010 af 3a 68 40 e7 21 1d 40 88 d8 81 40 86 0d 87 3f
       3.6285818 2.4551942 4.057682 1.0551002

conv2.weight f4 [16, 8, 3, 3]
000000 bd 76 df bd e3 be ad 3d 73 87 81 be 0f 87 14 3c
       -0.109113194 0.084836744 -0.25298652 0.009065404
000010 63 b0 5b 3e 8c d5 ba bd d2 29 96 be 91 85 73 3d
       0.21454005 -0.09122762 -0.2932878 0.05945355
000020 87 54 14 3e 4d 22 4a be 5f d3 f6 be 9e dd c3 be
       0.1448537 -0.19739647 -0.48208138 -0.38255018
000030 52 b4 3d 3d fe 95 2f be 18 c4 23 be 4e 0f 9c 3d
       0.046314545 -0.17147061 -0.15992773 0.07620107
000040 e6 c4 65 bc 1a f2 f4 be a0 20 1e be 6c 98 d4 bb
       -0.014023995 -0.4784096 -0.15442133 -0.0064878967
000050 dc 60 4c 3e 14 99 2e be 8a 83 48 be a6 96 b3 bd
       0.19958824 -0.17050582 -0.19581428 -0.08768968
000060 68 61 92 be 24 03 93 be 59 44 c1 3e e4 38 bb 3e
       -0.2858994 -0.28713334 0.37747458 0.36566842
000070 3e 30 b9 3c c6 94 07 be d4 5c 65 3d 87 ee e1 3c
       0.022606011 -0.13240346 0.05599673 0.027579559
000080 8a 1f c8 bd 7b 26 20 bd 18 d5 02 3e 17 15 33 be
       -0.097716406 -0.039099198 0.12776601 -0.17488514
000090 b9 ec 95 bd 6c 78 81 3e 16 58 24 bc 92 d3 63 be
       -0.07320542 0.25287187 -0.010030767 -0.22248676
0000a0 11 22 d4 bd 4f f9 0a bd eb 86 a6 bd 5f d2 a7 3d
       -0.1035806 -0.033929165 -0.08131202 0.08194422
0000b0 5e 69 f7 bd 6e 6b a4 bd a2 a9 91 3e f5 36 c8 3e
       -0.12080644 -0.08028303 0.28449732 0.3910443
0000c0 65 0d cc bd 14 f1 60 bc 09 4d 27 3d 5f 6b 84 be
       -0.09963492 -0.0137293525 0.04084495 -0.25863168
0000d0 7a 5c c4 3c dc aa d8 bd 97 33 6d be b1 2b 3d 3c
       0.023969878 -0.10579464 -0.23164211 0.011546061
0000e0 2b a9 55 be 06 0c 98 3d fc 6c 0d 3e 70 2c cb bd
       -0.20865314 0.07424168 0.13811105 -0.09920585
0000f0 9f 62 1d 3e d8 85 3e bd 85 23 2a 3e 64 57 87 3e
       0.15369652 -0.046514362 0.16615112 0.2643386
000100 49 42 1d bd 27 fd b6 3a 54 98 a8 3e c3 36 15 be
       -0.038393293 0.0013960943 0.32928717 -0.14571671
000110 af 2f 70 be ff 50 ba 3d ec ee df be d2 70 2a be
       -0.2345569 0.0909748 -0.4373697 -0.166446
000120 3c 5d 97 3d 54 1d 70 3e 42 cc 54 3e 97 4d 04 be
       0.0739083 0.23448688 0.20781043 -0.12920223
000130 2d e3 8d 3e 18 96 bb 3c 8a 77 1c 3e a3 e1 c0 3e
       0.27712384 0.022898719 0.15279976 0.37672147
000140 68 47 10 be 04 e3 bd bc 68 f5 3c 3e 90 24 a7 3d
       -0.1408974 -0.023179539 0.1845299 0.081612706
000150 79 cd c6 bd c0 e6 db 3d 63 36 21 3e 3e 18 07 3e
       -0.097071595 0.107373714 0.15743403 0.13192841
000160 0e 3a 69 be f0 17 72 be 54 a3 94 bd ff a8 8c be
       -0.22776052 -0.23641944 -0.07257715 -0.27472684
000170 2c 4c ae bd 32 7d 0f be a6 9c 94 3d 7b 24 c2 3d
       -0.085106224 -0.14012602 0.07256441 0.09479614
000180 74 7c 55 bd 65 84 f3 3d 92 39 3f 3e 5f 9d 8f 3a
       -0.05212064 0.11890487 0.18674305 0.0010956934
000190 a9 8d 02 3e e6 8e 5f 3e 9d 28 01 3d 65 7e 31 3e
       0.12749352 0.21831855 0.031532872 0.17333372
0001a0 9a e2 bb bd 24 47 b9 3e ac 59 5f bd 26 ae a6 bd
       -0.0917408 0.36187088 -0.054528877 -0.08138685
0001b0 f0 96 36 be 6c 65 2c bc d3 67 e8 bd 15 e4 74 be
       -0.17831016 -0.010522228 -0.11347928 -0.23915131
0001c0 b6 9e 4f 3e f2 53 d5 3d 5a 9e 14 be 6b 5a 52 3c
       0.20275387 0.10416402 -0.14513531 0.01283894
0001d0 79 8b 84 3e 77 13 9c be aa f2 92 3e d2 e2 8c be
       0.2588766 -0.304836 0.28700763 -0.275168
0001e0 b5 81 81 3d 7f 0a 23 be 37 bf 7b bd c1 3e d7 3e
       0.06323568 -0.15921973 -0.061461654 0.42040065
0001f0 ce 7a 03 be 79 5b 42 3d ce af 47 be 4c 3e e1 bb
       -0.12839815 0.047450516 -0.19500658 -0.0068738814
000200 ca dd 20 be 2b f7 72 be bf 06 0a be c4 8c 3e be
       -0.15709606 -0.237271 -0.13479136 -0.18608385
000210 bb f3 c6 be 3f 70 43 be 24 05 84 bc 44 23 8e be
       -0.38857827 -0.19085787 -0.016115732 -0.2776128
000220 97 f8 a6 3e 3f 0a 5e 3e 05 c5 79 3e 13 11 0f bc
       0.32611534 0.21683596 0.24391563 -0.008732098
000230 1d cc e1 bc b7 27 f9 3d 6e 04 11 3e e7 a7 bb bd
       -0.02756315 0.12165778 0.14161846 -0.09162884
000240 2b 68 bc be b4 3c fd 3c e4 a4 d1 3d e9 a9 bb bd
       -0.36798224 0.030912735 0.102365285 -0.09163267
000250 2a 37 79 3e de ec fa 3d d6 89 73 3d a0 d2 e1 3d
       0.2433745 0.1225221 0.059457622 0.11026502
000260 6f 61 8e bd fe 6b 84 be 88 f2 2e 3e f6 2c ab 3d
       -0.06952178 -0.25863642 0.17084706 0.08358185
000270 c2 2f 4a 3d 44 75 25 be 04 bb 00 bf 8f 39 cf bd
       0.04936195 -0.16158015 -0.50285363 -0.101184
000280 69 ef be be 97 74 09 3d 43 d6 19 3e af 8f 8c bc
       -0.3729203 0.033558454 0.1502314 -0.017158357
000290 58 1a a7 bd ed 62 9d bd 2e 7d a2 bd 52 bb 35 3e
       -0.081593215 -0.07684884 -0.079340324 0.17747238
0002a0 83 af b7 3d b7 68 ca bc e0 97 a5 be 8f 6b fe 3d
       0.08969023 -0.024708135 -0.32342434 0.12422859
0002b0 49 46 c8 3c 59 7d 40 3e 60 9d c8 be 2a 7e 4c 3e
       0.024447577 0.18797816 -0.39182568 0.19970003
0002c0 8f 3f 2d 3e 6a c3 a7 bd 94 fb e9 3d 23 22 2b 3e
       0.16918777 -0.08191569 0.11424938 0.16712241
0002d0 10 11 56 3d e0 8d bb bd c8 98 c7 bd 3d 81 8b bd
       0.052262366 -0.0915792 -0.097459376 -0.068117596
0002e0 f7 b2 85 be 9e 1c 5b 3e 14 da ce bc 0f 49 6b be
       -0.26113102 0.21397635 -0.025250472 -0.22977088
0002f0 ca e7 6b be e4 25 70 bd f0 89 f9 bd 91 7c e0 be
       -0.2303764 -0.058629885 -0.121845126 -0.43845037
000300 94 ba bd 3d ee e6 fa 3d db 14 8c bd cd 30 ab bd
       0.092641026 0.122510776 -0.06839915 -0.083589174
000310 7c c3 e3 3a 1e d8 54 3d ac 16 8e bd 93 a4 ab bd
       0.0017376984 0.051963918 -0.06937918 -0.083809994
000320 bc f3 cb bc ce fe ed bc 44 b3 4d bd e7 29 8e 3d
       -0.024896495 -0.029052164 -0.05021979 0.06941586
000330 f9 9c 3d be ca 92 46 be 42 23 fa 3c 09 07 01 be
       -0.18516912 -0.19391933 0.03053439 -0.1260034
000340 2d ab 8b be 2d 02 3d bc ee f3 8e be 1b f0 f3 3d
       -0.27279034 -0.011536163 -0.2792048 0.11911031
000350 20 74 16 be 7d 1c 6e bd d2 e0 7f bd 49 56 b0 3d
       -0.14692736 -0.058132637 -0.062470265 0.086102076
000360 e7 8a 4b 3e d9 d7 b5 3c 92 31 f7 bd e2 ae 38 be
       0.19877206 0.02219765 -0.12070002 -0.18035462
000370 fc e4 13 3c 99 39 f8 bd 14 86 b7 bd 17 fe e3 3e
       0.009026762 -0.12120361 -0.0896112 0.44529793
000380 1e ab 99 3e 93 91 b6 bd 12 9d 99 bd e6 0d c1 bd
       0.30013365 -0.08914485 -0.07500662 -0.09426479
000390 db 9f 25 be a8 12 af be 08 f0 32 be 83 ae dd bd
       -0.16174261 -0.3419392 -0.17474377 -0.10824301
0003a0 6a 89 97 be 8b 41 ab be e1 61 f9 bd 55 54 f1 3d
       -0.29597026 -0.33448443 -0.12176872 0.11783663
0003b0 b7 71 e8 3c 50 cb e7 bd e7 ff 0f be c3 75 36 3e
       0.028374536 -0.11318076 -0.14062463 0.1781836
0003c0 03 8c e7 3d f7 85 ba 3e e3 2c a2 3e b0 78 0a 3e
       0.11306002 0.36430332 0.3167487 0.13522601
0003d0 82 5b d2 3c 4c b2 94 bd b8 fc e6 3d d9 7d 3e 3e
       0.0256784 -0.0726057 0.11278671 0.18602695
0003e0 f8 be 8f 3d 6d a5 e5 3d c9 ce 80 3e df a8 98 3e
       0.07018846 0.11213193 0.25157765 0.29816338
0003f0 fa 55 55 3d d3 91 da 3d 20 70 38 3d 0b a5 ad 3e
       0.052083947 0.10672345 0.045028806 0.3391498

conv2.bias f4 [16]
000000 f6 8a e3 3c be fa fa 3c 06 c7 00 3d 93 45 08 bd
       0.027776223 0.030637141 0.031439804 -0.033269476
000010 b7 bb 05 be ce 3a 48 be eb 7f 99 3c 7a bc 67 3e
       -0.13059889 -0.19553682 0.018737754 0.22630492
000020 0f 07 08 3c e2 8c 8f bd 44 f7 56 be ff 5f 9c 3c
       0.008302464 -0.07009293 -0.20992762 0.019088743
000030 c0 9f 55 3d 48 e6 45 bd 90 5f de 3c a4 a3 0d be
       0.052154303 -0.048315316 0.027145177 -0.13831955

bn2.weight f4 [16]
000000 c3 97 5d 3f e6 5b 8a 3f c4 86 83 3f 7f 24 8f 3f
       0.86559695 1.0809295 1.0275502 1.1183013
000010 2b 45 50 3f 6d f4 91 3f 3b 1e 78 3f a0 12 98 3f
       0.8135554 1.1402718 0.9692113 1.1880684
000020 f3 0f 85 3f 4e 08 71 3f 81 90 89 3f 3c 65 4c 3f
       1.0395492 0.94153297 1.0747224 0.7984197
000030 0c ae 48 3f e7 1d 92 3f 0d 2e 95 3f 57 84 87 3f
       0.78390574 1.1415375 1.1654679 1.0587262

bn2.bias f4 [16]
000000 8c 2d 1a be f3 8f 39 be 6c de 54 be 28 51 7c bd
       -0.15056437 -0.18121319 -0.20787972 -0.061600834
000010 a2 53 be 3c e9 74 d5 bd db 26 c1 be d2 40 f9 bd
       0.023233239 -0.104226895 -0.37724957 -0.121705666
000020 63 a3 08 bf 65 0c 8d bd dc d6 b5 bd c7 39 94 be
       -0.5337431 -0.0688713 -0.08878872 -0.2895033
000030 98 f0 8c bb 7e d9 0c be 94 7e 4e bd a7 70 b1 bd
       -0.004301142 -0.13754842 -0.050413683 -0.08664065

bn2.running_mean f4 [16]
000000 be 71 9c be bd a5 94 3e 50 ee 89 be 3f 85 bf 3e
       -0.30555528 0.29032698 -0.2693963 0.37406346
000010 29 97 82 be d6 75 9a be 7c 70 6a bf 34 98 6d 3d
       -0.2550595 -0.30168027 -0.9157789 0.05800648
000020 99 a6 1b 3f 05 8f 51 be 7f a8 c5 be 53 b0 e8 be
       0.6080108 -0.20464714 -0.38605115 -0.45447025
000030 87 ed 06 3f 44 73 8c be 80 2c a3 be dc b9 fd 3e
       0.5270619 -0.2743169 -0.31869888 0.49555862

bn2.running_var f4 [16]
000000 11 0d d3 3f 0c 81 90 3f 51 0e a5 3f a7 9d ed 3f
       1.6488363 1.1289382 1.2894994 1.8563737
000010 68 ba fd 3e 1d 56 1d 3f 17 bb ba 3f b5 05 d0 3f
       0.4955628 0.61459523 1.4588345 1.6251742
000020 79 65 4e 3f a0 9d db 3f 5f c7 de 3f 2d 48 02 3f
       0.80623585 1.7157478 1.7404593 0.5089138
000030 e6 40 d7 40 66 87 8e 40 0b b9 6c 40 e1 e5 03 40
       6.726672 4.454028 3.6987941 2.0609057

conv3.weight f4 [32, 16, 3, 3]
000000 ec d2 d8 be a5 01 b3 be 96 53 49 be d1 45 67 be
       -0.4234842 -0.34962192 -0.19660792 -0.22585227
000010 50 af ba bd 9e 6a d2 bd d6 ea 6a 3e 72 01 fd 3d
       -0.091154695 -0.10274242 0.22941145 0.12353791
000020 9d 0e 86 3b a6 c7 c5 3d d9 ad 47 3d a4 e5 a8 3d
       0.0040910975 0.096572205 0.04874978 0.082469255
000030 b3 f0 23 be 0f a1 69 be a9 9a 31 3d 95 9f 46 be
       -0.16009788 -0.22815345 0.043360386 -0.19396813
000040 e9 60 4f be 0e 07 7b be 76 1b 21 3d ca 8d 0d bc
       -0.20251812 -0.2451441 0.03933283 -0.008639762
000050 45 01 0f be 85 d8 d8 3c 4a 22 e7 bd d4 cb f1 3d
       -0.13965328 0.026470432 -0.11285837 0.11806455
000060 e2 4e 95 3d bf 79 10 3e 98 8e 09 be 94 b6 7d 3e
       0.07290436 0.14108942 -0.13433301 0.2477668
000070 e4 e2 71 3e d3 9c d9 3b eb 01 38 be 61 ab 25 be
       0.23621708 0.0066410094 -0.17969482 -0.16178657
000080 d4 7f 98 3d 3a 4e 60 3d b7 7e e5 3d 3d 66 88 3d
       0.07446256 0.054762103 0.112058096 0.066601254
000090 99 e0 ea bd a2 55 fa 3c 08 cd 11 3e 0e 2e 25 3e
       -0.1146862 0.030558411 0.1423837 0.1613085
0000a0 0f e3 f5 3d 69 24 90 3d de 30 03 be 5b 29 3b be
       0.120061986 0.07038195 -0.1281161 -0.18277495
0000b0 94 6b ac bd ec de 56 be 29 f8 eb bd a4 1b 21 be
       -0.084189564 -0.20983475 -0.11521942 -0.157332
0000c0 13 1a 3f be 40 c0 a7 bd 87 6d b2 be f3 b1 f1 bd
       -0.1866229 -0.08190966 -0.34849188 -0.11801519
0000d0 27 3b ab bc 64 01 02 3e b9 59 84 bc 49 a9 da bd
       -0.02090223 0.12695843 -0.016156064 -0.1067682
0000e0 22 43 7a bd 70 2d 4c 3d 67 6e 16 3e ea 07 86 3e
       -0.06109918 0.04984802 0.14690553 0.26177913
0000f0 60 43 c2 3d f3 a0 00 3e 44 1d 90 3c 69 84 20 be
       0.09485507 0.12561397 0.01759208 -0.1567551
000100 fa 1a ed be 5f f7 bc be bb 82 ac bd 10 03 4c bd
       -0.46309644 -0.3690748 -0.08423372 -0.049807608
000110 2b 57 73 bc e2 62 03 be f4 e3 73 be a7 87 51 be
       -0.014852325 -0.1283069 -0.23817426 -0.20461904
000120 90 0f 4f 3e ef 30 17 3e 97 06 d6 3d ef 10 a3 3e
       0.2022078 0.1476476 0.10450476 0.31848857
000130 18 24 30 3d 6d eb 3c 3d 40 c1 3b be 94 e1 0c 3d
       0.04300317 0.046122957 -0.18335438 0.034394816
000140 5d 18 81 bc d5 fd 58 bc 90 69 5e bc 92 bc 15 3c
       -0.015758688 -0.013244112 -0.013574973 0.009139197
000150 f7 da 66 be ba a1 e4 be 28 d6 bc be 08 ff ad 3d
       -0.22544466 -0.44654638 -0.36882138 0.08495909
000160 9d b6 29 3e 12 95 45 3e 28 14 6a be 5c 8f ab bd
       0.16573568 0.19295147 -0.22859251 -0.08376953
000170 05 40 14 be 04 c7 6e be e6 31 ea bd 6f f6 48 bd
       -0.14477547 -0.23318106 -0.114352986 -0.049063142
000180 f0 e5 63 3d 95 aa 3e bd d6 8c b3 bd 86 09 e2 bb
       0.055639207 -0.0465494 -0.08767097 -0.006898108
000190 8f b6 dc 3d 8f 8f 3d 3d 93 1e 88 bd 32 f9 8f be
       0.10777008 0.046279486 -0.066464566 -0.28119808
0001a0 86 d0 7a be 13 e9 b6 be 30 a7 e3 bd 04 3a 1f 3d
       -0.24493608 -0.35724697 -0.11115873 0.038873687
0001b0 75 73 bc 3d 41 5f a0 3d f0 3e ba 3d 46 b5 26 3e
       0.09201709 0.07830668 0.090940356 0.16280088
0001c0 62 d2 0b be ca c4 f1 bd 36 a8 96 bd e8 09 3a 3c
       -0.13654473 -0.11805113 -0.073563024 0.011354901
0001d0 80 39 9f 3d 74 cd 13 be a7 57 a0 3d 55 37 74 3e
       0.07774639 -0.14433843 0.07829218 0.23849232
0001e0 e5 8d 22 3e 89 64 41 3d 50 f3 69 be 6e 39 34 bd
       0.15874441 0.04721502 -0.22846723 -0.04400008
0001f0 23 cc 2d be e8 ad 40 be 46 cb 7d 3d 62 92 db bd
       -0.16972403 -0.1881634 0.061961435 -0.1072128
000200 01 ff 4e 3e d0 ae c6 3d 9d 77 40 be 31 54 23 bd
       0.20214464 0.097013116 -0.18795629 -0.039875213
000210 70 e3 b8 be 73 bb 0a bd d9 eb 8c be fd 71 96 3d
       -0.3611102 -0.03387017 -0.27523687 0.0734596
000220 5a a8 5b bd 69 a1 20 3e 6e 9b 3a bd d7 c9 8a bd
       -0.05362735 0.15686573 -0.045558386 -0.06776779
000230 8c 34 3b bc c0 85 b1 bd db f5 bf bd 61 55 13 3d
       -0.011426102 -0.08668089 -0.09373065 0.035970096
000240 66 21 6e bc 4e cb e2 3d ae cc dd 3b 1f f5 f3 bd
       -0.01453433 0.110739335 0.0067687845 -0.119119875
000250 be f2 37 be 94 39 08 be bd 4e a3 3d 90 8e e0 3d
       -0.17963693 -0.13303214 0.079740025 0.10964692
000260 b2 ed 14 bc 61 01 b3 3d ed c2 17 3e a1 65 fa 3d
       -0.009089874 0.087404974 0.14820452 0.122264154
000270 6b f4 95 3c db 9a 3b 3b 2b b2 c6 bc 4f bf e6 3d
       0.018305024 0.0028626237 -0.024254879 0.11266958
000280 3c 52 51 be f7 da 48 bd 16 2e d0 3d 60 a5 32 bc
       -0.20441526 -0.049036946 0.1016504 -0.010903686
000290 fb 42 48 3d 45 10 09 bd 41 d1 67 3d 12 af c0 3c
       0.048892003 -0.03346278 0.056596044 0.02352098
0002a0 71 b0 82 3c 3e d4 c6 3d 50 c8 0d 3e c2 af 52 bd
       0.015953274 0.09708451 0.13845944 -0.051437147
0002b0 31 e9 a4 3d 30 fd c9 3c 65 d5 b9 3d 80 9e 80 bc
       0.0805229 0.024656862 0.09073905 -0.015700579
0002c0 ea f7 82 3c 7c 10 6b be e4 be 80 be eb d9 17 be
       0.015987355 -0.22955507 -0.25145638 -0.14829223
0002d0 52 ad 4b be 5e 1f 1f be 47 91 d5 bd fc 62 ea bd
       -0.19890335 -0.1553931 -0.104281 -0.11444661
0002e0 57 bf b4 bd 6c dc 28 3e 82 b7 4b be 0c b1 9c be
       -0.08825558 0.16490334 -0.19894221 -0.30603826
0002f0 5a d9 38 be 5b 5d ac bc 62 fa cc bc 9a 38 06 3c
       -0.18051663 -0.02104061 -0.025021736 0.008192206
000300 64 17 3b 3c bb a9 f8 bd 5e f7 08 bd 51 19 3b ba
       0.011419151 -0.121417485 -0.033439033 -0.00071372563
000310 15 21 45 be f9 d6 8f bb 83 46 8f 3d 8a b6 18 3e
       -0.19250901 -0.0043896404 0.06995871 0.14913383
000320 13 1a 40 3e 9f e9 44 be 13 4c c6 bc 14 91 3f be
       0.18759947 -0.19229744 -0.024206197 -0.18707687
000330 3a 43 cf 3d a3 46 17 3e b8 a6 38 3e b0 8f 5c 3c
       0.10120244 0.1477304 0.18032348 0.013461992
000340 27 06 d7 bd 67 0f 00 bd b9 8d 39 be 77 d8 c7 be
       -0.1049922 -0.03126469 -0.18120469 -0.39032337
000350 0b 0e 6d be 23 2f 04 be ed 26 6a be 4b a2 18 be
       -0.23149888 -0.12908606 -0.22866412 -0.1490566
000360 6c b4 8c 3e 19 8a 52 3e 81 23 7d 3e da 16 81 be
       0.274814 0.20560493 0.24720575 -0.25212747
000370 2c d6 84 be ff 2a f4 bd c8 73 20 3e 59 02 e0 3d
       -0.2594465 -0.11922263 0.15669167 0.10937948
000380 10 77 e3 3d e0 4a bd 3d a3 c1 17 3e a6 88 61 3d
       0.11106694 0.09242797 0.1481996 0.05506196
000390 89 5a 0f bd 2c 4e 6b 3e 37 5f bb 3d 35 7d b6 bd
       -0.03499845 0.22979039 0.0914902 -0.089106
0003a0 58 9f 35 3e 41 50 1b 3e bf 24 5c be e3 23 cc bd
       0.17736566 0.15167333 -0.21498393 -0.09967782
0003b0 b3 9a bc bd 0d 50 49 3d c9 35 d5 3d 42 95 4b 3e
       -0.09209194 0.049148608 0.10410649 0.19881156
0003c0 08 9d 47 be 59 5a 6e be 91 9a 36 be 37 8e ec 3d
       -0.19493496 -0.23276652 -0.178324 0.11550563
0003d0 46 6b cf 3c 11 14 48 3d 41 2c 9d bd f2 93 9f 3d
       0.025319707 0.04884726 -0.076744564 0.0779189
0003e0 50 13 57 3e 7d bc 87 bd 5b 67 df 3b 86 19 c5 3d
       0.21003461 -0.06627748 0.006817741 0.09624009
0003f0 eb 00 68 be 86 9e ac bd 6a 53 d1 bd e1 ed ad bc
       -0.226566 -0.084286734 -0.10220988 -0.021231594

conv3.bias f4 [32]
000000 60 69 05 bc 08 ec 13 39 81 b4 1b 3e 2b a3 93 3c
       -0.008142799 0.00014106941 0.15205576 0.01802214
000010 d1 83 b0 3c d8 17 f2 3d f6 b5 6c bd e1 81 33 3d
       0.02154723 0.11820954 -0.05779072 0.043825034
000020 ea 5f 02 3d 53 26 8e bd 48 d9 c5 3c a5 0e 37 be
       0.031829752 -0.069409035 0.02415146 -0.1787668
000030 e7 84 85 3d be f5 ad bd 1b 3e 99 bd 61 c8 ee bd
       0.0651949 -0.08494137 -0.07482549 -0.11659313
000040 df cb 03 3c 59 ff c1 bb 50 2a 52 bc 99 03 13 3e
       0.008044212 -0.0059203324 -0.012827471 0.14356841
000050 75 08 f1 bc 55 e8 9e bd bd a0 0d be 3a be 12 bd
       -0.029422978 -0.077591576 -0.13830848 -0.035825945
000060 49 7d fc bd 10 9a 9a bd 4b 09 bf bc ff 62 d0 3d
       -0.12328584 -0.07548916 -0.02331986 0.10175132
000070 eb 3a 87 bc 1d 4a 0c bd 20 94 19 3d 41 34 1c 3d
       -0.016507586 -0.034250367 0.03749478 0.03813577

bn3.weight f4 [32]
000000 8b 15 9a 3f ac 54 a7 3f 91 4e 45 3f 40 f8 79 3f
       1.2037824 1.3072715 0.7707301 0.97644424
000010 d4 d6 5c 3f ce 45 da 3e 4f c0 a2 3f 38 18 79 3f
       0.862653 0.42631382 1.2714938 0.9730258
000020 13 d9 a1 3f 04 25 a2 3f 95 e2 80 3f 08 d5 85 3f
       1.2644371 1.2667546 1.0069147 1.0455637
000030 2f 47 8b 3f 9d 10 94 3f d1 b7 34 3f ff 78 1c 3f
       1.0881099 1.156757 0.7059298 0.61122125
000040 9d 36 a4 3f f5 b0 16 3f 89 60 1b 3f 5f 2c 38 3f
       1.2829167 0.58863765 0.60694176 0.71942705
000050 32 2f 9a 3f 96 0b a2 3f d1 bc 3b 3f fa ea a8 3f
       1.2045653 1.2659786 0.73334986 1.3196709
000060 3e 0d 5e 3f 21 e7 97 3f 64 8a 99 3f 4c 3f 8f 3f
       0.86738956 1.186741 1.1995358 1.1191192
000070 db 28 64 3f cf 00 90 3f 3b 36 93 3f 07 9d b4 3f
       0.8912484 1.1250247 1.1500925 1.4110421

bn3.bias f4 [32]
000000 25 2d 0c be 81 aa 30 be ad aa f2 bd 08 12 58 be
       -0.13689096 -0.17252542 -0.1184896 -0.21100628
000010 5a 2f 99 bd cf f6 f8 be 9f 97 37 be 45 9a 66 be
       -0.07479735 -0.486258 -0.17928933 -0.22519787
000020 1d 7b 80 3e 58 a2 9b be 2d c3 e8 3c 28 f6 00 bc
       0.25093928 -0.30397296 0.02841338 -0.007871188
000030 f3 89 be 3d a2 03 05 be f1 b5 6e be 82 8b 8c bd
       0.093036555 -0.12989667 -0.23311593 -0.068625465
000040 76 87 27 be c7 49 ac be 7a d0 a0 be bc 4a 0b be
       -0.16360268 -0.33650038 -0.31409055 -0.13602728
000050 28 95 17 3c f8 4a 17 be 51 68 ee bd 45 e1 29 be
       0.00925187 -0.14774692 -0.116409905 -0.1658984
000060 e4 75 18 be bf 56 e0 bd 79 9f fa bd 52 bc 24 bd
       -0.14888722 -0.109540455 -0.12237448 -0.04021866
000070 fd 58 ed b8 7f 8d c3 3d dd 72 56 3e 17 62 60 bd
       -0.00011317616 0.095484726 0.20942254 -0.054781046

bn3.running_mean f4 [32]
000000 09 26 9e be 7e 0e 7d be a8 f1 ab bc 59 43 46 bd
       -0.30888394 -0.2471256 -0.020989254 -0.04840407
000010 94 9a 19 bd 57 e8 c1 3e 7d 15 8b be 4c e4 80 be
       -0.037500933 0.37872574 -0.27164832 -0.25174177
000020 77 8f 89 be 9e de b3 be 3a 6f 37 be 07 d7 cc be
       -0.26867267 -0.3513078 -0.17913523 -0.40007803
000030 b4 0d 3d be 84 b4 9d be 54 50 7f bd 4b bd 5d be
       -0.18462259 -0.30801785 -0.062332466 -0.21654241
000040 08 59 3f be ef 7a 97 bd d6 e5 a7 bd 69 f2 9a bc
       -0.18686306 -0.073964946 -0.081981346 -0.018914418
000050 0c 32 c1 be c4 5f 9d be 21 b8 a6 be af 9a 8b be
       -0.37733495 -0.30737126 -0.32562354 -0.27266452
000060 74 d5 bd be f0 2c e2 be 8f 31 9a be 06 fc 7b be
       -0.37076914 -0.4417491 -0.30115935 -0.24607858
000070 ba db 92 be 77 a0 9a be f9 0b ac be 6f 29 bb be
       -0.28683263 -0.3020055 -0.33602884 -0.3655505

bn3.running_var f4 [32]
000000 bd 9d 5f 40 a8 82 e4 3f 50 ae 1c 3f 6e 4f 56 3f
       3.4940026 1.7852373 0.6120348 0.8371495
000010 cf 92 fc 3f f3 d9 0a 40 4d b1 22 40 05 03 de 3f
       1.9732302 2.1695526 2.5420716 1.7344671
000020 d0 9e 9b 40 75 05 47 40 8f 51 1e 40 34 c8 c1 3f
       4.8631363 3.109708 2.473728 1.5139222
000030 3f 2c ca 40 69 5a f3 3f 75 ed 51 3f 94 28 19 3f
       6.317901 1.9011966 0.82002956 0.5982754
000040 c6 1b 6c 40 aa 5c 0a 3f a8 28 95 3f b4 15 a1 3f
       3.6891952 0.54047644 1.1653032 1.2584748
000050 f1 47 79 40 9f 67 0a 40 1e 88 c2 3f 6a 6a a3 3f
       3.895016 2.1625745 1.519779 1.276685
000060 1d 96 72 3f 55 66 5e 40 b8 43 1f 40 7d 1a f6 3f
       0.94760305 3.4749959 2.4885082 1.9226834
000070 e1 46 c7 3f 9f 6c 0d 40 bd 2a 04 40 0d 98 be 40
       1.5568506 2.2097547 2.0651085 5.956061

conv4.weight f4 [64, 32, 3, 3]
000000 f6 8c f5 bd 7f 1c 6d be c7 87 8d be 5f 84 78 be
       -0.11989777 -0.23155402 -0.27642652 -0.24269246
000010 63 13 95 be 49 c3 3b be c4 15 e2 bd b7 95 52 be
       -0.29116353 -0.18336214 -0.11039308 -0.20564924
000020 a8 a6 30 be 64 ba c0 bd 16 28 19 be cf f3 2e be
       -0.17251074 -0.09410551 -0.14956698 -0.17085193
000030 ac b1 96 3d 8f 33 cd 3d 11 8c 81 3d e9 cf 38 3c
       0.07358107 0.100196 0.06325544 0.011280038
000040 cb 84 7b bc 98 8d 8e bc d9 48 72 3e 48 b2 5e 3e
       -0.0153514845 -0.017401502 0.23660602 0.21747696
000050 0d 89 45 3e 01 3b bf 3d 4a d3 eb 3d fb e9 b2 3d
       0.19290562 0.09337426 0.115149096 0.087360345
000060 80 69 ed 3d f0 1c 0a 3e ad 14 39 3e fe 81 a4 bd
       0.11592388 0.13487601 0.18074293 -0.080326065
000070 bc 4a 98 bd 7a 6e 99 bd d4 6c fa bd e7 c1 13 be
       -0.074361295 -0.07491775 -0.122277886 -0.14429437
000080 0c 21 9e bd d2 1e 78 3d a4 41 07 bc f6 b0 1c 3d
       -0.07721147 0.060576268 -0.008255396 0.0382547
000090 15 87 3c bd a9 7b 06 be 3b 3d e3 bd 3e bb 54 3a
       -0.04602726 -0.1313311 -0.11095663 0.00081150595
0000a0 c9 4d 1e bd 43 49 e3 bb f5 79 e2 bd 7f 52 3d be
       -0.0386484 -0.0069362237 -0.11058418 -0.18488501
0000b0 79 7f 96 be c6 8d c5 bc 85 d7 f0 bd 87 f8 c7 bc
       -0.2939413 -0.024115454 -0.11759857 -0.0244105
0000c0 1e 05 89 3d 0e 95 98 3d 8a 45 46 3d fc 6e 7d bd
       0.06690429 0.07450305 0.04840616 -0.06187342
0000d0 c9 1a da 3c 73 7f 3d 3d 0a 01 2d 3e 8c 0e 8f 3e
       0.0266241 0.046264123 0.16894928 0.27940786
0000e0 f0 6d 0b 3e e9 c9 ca 3d b9 93 0f 3e 43 a7 ed 3d
       0.13616157 0.099017926 0.14021195 0.11604168
0000f0 91 bd a3 3e 1d 39 c0 3e 58 9a ab 3e 23 37 c0 bd
       0.31980565 0.37543574 0.33516192 -0.093855165
000100 5d 5c 27 be 3f 8e 9e bd 8b db 77 bd b9 ee 4c bc
       -0.16343828 -0.07741975 -0.060512107 -0.012508088
000110 ee 94 96 bd 65 80 ea bd f2 53 a3 bd 91 6a a5 bd
       -0.07352625 -0.114502706 -0.07974996 -0.080769666
000120 00 58 0c 3c d9 e2 9f bd ed 2c ab bc 30 af 25 3b
       0.008565903 -0.0780694 -0.020895446 0.0025281422
000130 d4 96 66 be 6f dd 5c be 77 4b 99 ba 3b 33 cd bd
       -0.22518474 -0.21568845 -0.0011695464 -0.10019537
000140 cc 79 04 be ce 67 ac 3d e7 b4 98 bc 19 e8 f5 3b
       -0.12937087 0.08418237 -0.018640948 0.007504475
000150 19 19 07 3d 60 4e d3 bc b2 4a 52 3c 9c 5d 0c 3e
       0.03298292 -0.025794208 0.012835192 0.13707584
000160 ed c7 c4 3d ef 6d bc 3d 38 21 17 bd 20 b6 1f be
       0.09608445 0.09200656 -0.036896914 -0.15596819
000170 07 cf 8c bd 47 81 90 bc 26 5b 3e bd 5d 5b 29 bd
       -0.06875425 -0.01763977 -0.046473645 -0.041346896
000180 b7 23 9b bd d9 db 12 be 58 1e 15 bd 64 fd 17 be
       -0.075751714 -0.14341678 -0.03640589 -0.14842755
000190 c5 9b 00 be 18 80 bb bd 0b c1 5d 3e a6 c0 5c 3e
       -0.12559421 -0.09155291 0.21655671 0.21557865
0001a0 fd 4f 5d 3e 28 bd 89 bd 3e 5f 24 bd 80 5c 3f bd
       0.21612544 -0.06725532 -0.040129893 -0.046719074
0001b0 03 e7 70 3d d2 c2 cb 3d 47 3f 31 3e e4 26 83 3d
       0.05881406 0.099492684 0.17309295 0.06403902
0001c0 f6 22 ab 3d 0a 08 10 3e 38 6e 8b bb 76 55 76 3d
       0.08356278 0.14065567 -0.0042550825 0.060140096
0001d0 7c e1 50 3d 65 f8 10 3e 9f 45 a0 3d f3 c7 9a 3d
       0.05099629 0.14157255 0.07825779 0.075576685
0001e0 58 8d 7e 3d 8e 0d 39 3e 01 eb 38 3e 9d be 92 3d
       0.062146515 0.18071577 0.18058397 0.07165263
0001f0 45 b4 90 3d 07 79 0a 3e dc 92 d8 bd 13 9e 1f be
       0.07065634 0.13522731 -0.10574886 -0.15587644
000200 0f 10 a6 bd 67 6a 99 bd 6a b5 12 bd 28 a9 2d bd
       -0.08108532 -0.07490998 -0.03581754 -0.042397648
000210 cd 94 86 be b9 0f 6c be d2 0d 5a be 4b 87 c9 3c
       -0.262854 -0.23052873 -0.21294335 0.024600646
000220 f3 ea 3a bd 1b e9 72 3c 8e f8 25 3e a0 0a 61 3e
       -0.04563422 0.0148260845 0.16208097 0.2197671
000230 49 88 02 3e 58 f3 57 3d e8 00 65 3d 54 1c 7a 3d
       0.12747301 0.052722305 0.055909067 0.061062172
000240 55 f0 bb 3d 08 a8 9c 3d 9b c0 23 3e 2a 43 ad bd
       0.09176699 0.07649237 0.15991442 -0.08460076
000250 7f eb b1 bd d6 71 1e be 6d 60 1e 3e 15 b7 b4 3d
       -0.086874954 -0.15473112 0.15466471 0.088239826
000260 17 21 f8 3d 15 32 a1 3e 16 21 9b 3e fc e9 9a 3e
       0.121156864 0.31483522 0.3029868 0.3025664
000270 68 a5 92 bc 72 c4 f1 3b b3 dc a0 3d ee 8b 0e 3e
       -0.017901137 0.0073781544 0.07854595 0.13920566
000280 a8 d1 a9 3e eb 6a 4c 3e 15 07 6b 3d a3 31 b9 3d
       0.33167768 0.19962661 0.0573798 0.090426706
000290 42 07 89 3d c8 08 20 be b4 b8 a8 bd 8d 5f 2f 3d
       0.066908374 -0.1562835 -0.08238354 0.042815734
0002a0 10 71 4c bb 69 cc 9d bc ce 63 e1 3b 3b 1e 62 3d
       -0.003119532 -0.01926251 0.0068783527 0.05520461
0002b0 27 c2 d5 bd de ab 45 3d 1e 20 9c 3d de 02 bb 3d
       -0.10437422 0.04825961 0.07623313 0.09131406
0002c0 e8 c2 f4 3d 00 41 19 3d 97 fa 40 bd f1 4e 03 3d
       0.11951238 0.037415504 -0.04711398 0.032057706
0002d0 7a 26 e5 3d 78 d3 d4 3d e6 c1 4a 3d fa d0 83 3d
       0.111889794 0.10391897 0.049501322 0.064363435
0002e0 b0 23 62 3c 3a 1d 39 3d 7c 98 9b 3d f5 41 38 3d
       0.013802454 0.04519389 0.075974435 0.044984777
0002f0 17 23 d5 3b f5 c0 6d 3e a1 97 9d 3e e6 95 83 3e
       0.006504427 0.23218139 0.30779746 0.257003
000300 47 80 33 3d 9d 84 20 3d eb be 2f 3d 09 eb 84 3e
       0.043823507 0.03918897 0.042906683 0.25960568
000310 0c 02 bf 3e 0b 74 9a 3e 82 9b d5 bd ce 1c 1e bd
       0.3730625 0.3016666 -0.104300514 -0.03860169
000320 a5 44 e4 bd 9c 5f 98 3d b8 7a 56 3d 6e fb a2 3d
       -0.111459054 0.07440111 0.052363127 0.07958113
000330 06 ba c8 bd 78 03 75 bd 28 c0 c9 bd aa 20 4d be
       -0.09801106 -0.05981776 -0.09851104 -0.20031992
000340 5b 58 2e be 0c 75 30 be b4 03 0b 3c 88 d5 5e bc
       -0.17025892 -0.1723215 0.00848477 -0.0136007145
000350 9d 7d 12 bd 07 38 6f be fc 22 82 be 50 ba 3b be
       -0.035764325 -0.23361216 -0.25417316 -0.18332791
000360 9b 52 e3 bd 03 0a 83 bd 48 5a 07 bd fa bd 43 bd
       -0.1109974 -0.06398394 -0.033045083 -0.047788598
000370 35 5b a1 bd 0f 79 cb bd ad 0b 13 be 20 b9 31 be
       -0.078787245 -0.099351995 -0.14359923 -0.17355776
000380 91 56 3f be 44 28 2a be 02 a2 d1 bd 41 06 56 bd
       -0.18685366 -0.16616923 -0.10235979 -0.052252058
000390 2c b5 36 3d da 59 f7 3d 74 98 02 3d 79 34 34 be
       0.044606373 0.12077685 0.031883672 -0.17598142
0003a0 f2 22 2b be 5a 7e 30 be 98 5e 4d bd ab cf db bd
       -0.1671255 -0.172357 -0.05013904 -0.10732969
0003b0 dc 01 19 bd 08 36 09 3e 17 b0 68 3e 3d c0 38 3e
       -0.03735529 0.13399518 0.22723423 0.18042083
0003c0 3d dd 96 bd 5f d7 99 bd de ee cd bd 3e 44 cc bc
       -0.073664166 -0.07511782 -0.10055326 -0.024934884
0003d0 3f bb a8 bd 2a 5a 71 bd 95 dd 9a bd af 49 0e be
       -0.08238839 -0.058923878 -0.07561795 -0.13895296
0003e0 21 9a 82 be 0c 9a 8c bc d6 ef 98 bd 2c 6e 18 be
       -0.25508216 -0.017163299 -0.0746762 -0.14885777
0003f0 77 17 0d 3e 47 22 85 3d 75 9c 40 3d 44 88 09 be
       0.13778482 0.065006785 0.04702421 -0.13430887

conv4.bias f4 [64]
000000 43 19 45 3d 40 1a 8a bc 8d 02 7d bd 1b f9 c5 3d
       0.048119795 -0.01685822 -0.06177001 0.09666654
000010 99 08 e6 3c 1a 3f 87 3d 7e a4 ac 3c fa 28 3b bd
       0.028080272 0.066038325 0.02107453 -0.045693375
000020 4e 7a bd 3c 17 56 ff bb d2 cc f9 bd 6b a1 d9 3c
       0.023129608 -0.007792245 -0.121972695 0.026566228
000030 ff 05 a7 bd b2 2b 04 be 17 7b 0b 3c 84 6b 13 3d
       -0.081554405 -0.12907293 0.008513234 0.035991207
000040 55 3a 10 be b8 54 8f bc 69 bf 8e 3d 59 0d ca bd
       -0.14084752 -0.017496452 0.06970102 -0.09865827
000050 ef d6 0e be 82 1b 0f 3e 36 88 a9 bc 08 2f 11 be
       -0.13949178 0.13975337 -0.020694833 -0.14178097
000060 63 4f 69 be 90 99 bf 3c d7 9c b9 bd df 59 cb 3d
       -0.2278419 0.023388654 -0.09063118 0.09929251
000070 b7 55 90 bc ac 5f b3 bc 69 1d fd 3c 6d 12 0a 3e
       -0.017618997 -0.021896206 0.030897813 0.13483591
000080 f3 48 32 bd 0b 2b 68 3d 4c c7 06 3d 1d da 9f bd
       -0.0435266 0.056681674 0.032904908 -0.07805274
000090 63 f4 f2 3c 39 3c be 3c 90 d4 92 3c 1d 96 d7 bd
       0.029657548 0.023222076 0.017923623 -0.10526679
0000a0 17 b0 0d be 1c 14 24 be 13 a0 25 bd dd ca 9b 3b
       -0.13836704 -0.16023296 -0.04043586 0.004754408
0000b0 ea de c0 3c be 65 4e 3d a3 cf c9 3c f9 c8 ab 3a
       0.023543794 0.050389998 0.024635142 0.0013106159
0000c0 3c e2 4c be 12 7b 1d bd 33 ea 47 bd 37 65 b8 bc
       -0.20008177 -0.038447447 -0.048807334 -0.0225092
0000d0 75 79 c8 bc ed a8 40 3e 44 73 91 3d 3b 67 19 be
       -0.024471978 0.1881444 0.07102063 -0.14980786
0000e0 ab 95 ca bd d8 dc 4a bd 07 cb 83 bc ca ac 9d 3d
       -0.09891828 -0.04952702 -0.016088022 0.076989725
0000f0 54 6d d7 bc 45 7e 72 3d 28 e2 8a 3b f2 df 88 3c
       -0.026297249 0.05920245 0.0042383857 0.016708348

bn4.weight f4 [64]
000000 c5 14 51 40 2c e1 71 40 99 4d 6e 40 d9 90 4f 40
       3.2668927 3.7793684 3.7234862 3.2432158
000010 45 31 8c 40 bb b7 78 40 8d 90 70 40 50 00 4d 40
       4.3810143 3.886214 3.7588227 3.203144
000020 91 49 85 40 ab 9d 51 40 5c 13 95 40 b6 1f 5d 40
       4.1652303 3.2752483 4.658613 3.4550605
000030 fe 44 59 40 3a f7 98 40 75 0f 55 40 a7 8d 74 40
       3.394836 4.780179 3.3290684 3.8211458
000040 f3 15 84 40 a6 a3 8b 40 3b 99 51 40 30 9e 7e 40
       4.1276793 4.3637266 3.2749774 3.978405
000050 1c f7 88 40 83 1b 71 40 a9 ec 71 40 94 27 84 40
       4.2801647 3.7673042 3.7800696 4.1298313
000060 a5 c6 8a 40 10 d5 7f 40 59 5b 90 40 6e 4d 91 40
       4.3367486 3.9973793 4.511151 4.540702
000070 88 4d 87 40 6d 3f 5d 40 f3 4c 47 40 99 1e 84 40
       4.2282143 3.4569962 3.1140716 4.128735
000080 42 f9 74 40 6a 1f 7a 40 12 39 8f 40 6e 30 65 40
       3.8277135 3.9081674 4.4757166 3.581081
000090 99 83 7a 40 61 1c 83 40 6b 20 99 40 e5 0e 53 40
       3.914282 4.097214 4.7852073 3.297784
0000a0 b0 84 52 40 84 63 84 40 ba eb 7b 40 69 10 89 40
       3.2893486 4.137148 3.9362626 4.283253
0000b0 98 2b 8b 40 41 ce 5d 40 41 89 88 40 06 a6 80 40
       4.3490715 3.4657137 4.2667546 4.0202665
0000c0 aa e0 8e 40 1c 6d 61 40 f7 9a 6f 40 3d fb 85 40
       4.464925 3.5222845 3.7438333 4.1869187
0000d0 96 39 91 40 35 7a 58 40 bf 2d 48 40 62 d1 90 40
       4.5382795 3.382459 3.1277921 4.5255594
0000e0 fe e7 54 40 ba b5 8b 40 a7 2a 66 40 16 e8 66 40
       3.3266597 4.3659334 3.5963533 3.6079154
0000f0 1a 21 84 40 0c 31 87 40 6c 1e 7e 40 2f 33 74 40
       4.1290407 4.224737 3.9706068 3.815624

bn4.bias f4 [64]
000000 1c 46 98 3e 12 21 ab bd 3e bb 08 be c4 55 76 3e
       0.2974099 -0.08355917 -0.13352677 0.24056154
000010 b7 d3 53 be d9 97 a3 3d 13 4a 75 3d 43 2c a6 3e
       -0.20686232 0.07987947 0.059885096 0.32455644
000020 1c 95 03 3d ef 89 2f 3e f0 2a 57 be 97 75 df 3b
       0.032124624 0.17142461 -0.21012473 0.0068194377
000030 da 1b 1e 3e d0 6a 6c be 76 ab 2b 3e 3a 0f f0 bd
       0.15440312 -0.2308762 0.16764626 -0.11721654
000040 0e 29 19 3e 26 8b 97 3b ca 37 d5 3d 36 5e d8 bd
       0.14957067 0.004624742 0.104110315 -0.10564844
000050 22 1b 39 bc 5c 3d 07 3e c5 c3 75 bc 06 f7 c8 bc
       -0.011297973 0.13207 -0.015000288 -0.024531852
000060 25 e1 0d bd c0 93 10 3d f2 74 5a be 95 46 c5 bd
       -0.034638543 0.035297155 -0.21333674 -0.09632603
000070 ea 39 bb 3c bd b9 72 3e 75 a2 82 3e dc 68 4a 3e
       0.022854764 0.23703666 0.2551457 0.19766563
000080 99 17 a1 3c 8d 5e 99 bd de cb 37 bd 05 60 2c 3d
       0.019664573 -0.07488737 -0.044872157 0.04208376
000090 2a 0b 2c 3e 63 58 d5 bd 86 cc 6a bd 76 34 2a 3e
       0.16801134 -0.10417249 -0.057323955 0.16621575
0000a0 56 f2 b0 3e 1e 8c 04 3e c7 dd 03 3d c8 3a f8 bd
       0.34559888 0.12944075 0.032193925 -0.12120587
0000b0 5e 00 6f bd 5a ce 15 3d 48 fe 7d bc 4a 80 8d 3d
       -0.05834996 0.036573745 -0.01550252 0.06909235
0000c0 83 52 89 bc 4c a9 a8 3e c9 b2 ca 3d 29 c2 3a 3e
       -0.016762977 0.32941663 0.09897382 0.18238129
0000d0 56 08 51 bd b0 c7 95 3d 23 5c 9c 3e f1 80 0a be
       -0.05103334 0.07313478 0.30539045 -0.1352575
0000e0 3a e8 eb 3e 0d 8b e6 3d 36 5f b9 3d d7 35 67 3d
       0.46075612 0.112569906 0.09051363 0.05644783
0000f0 f6 ca a0 3c 5c e2 e2 bd 33 af b0 3d 27 58 d1 3d
       0.01962803 -0.11078331 0.086271666 0.10221892

bn4.running_mean f4 [64]
000000 62 fe 45 bf 53 3c de be 3b 5e de 3c d2 b2 80 3e
       -0.7734128 -0.434054 0.027144542 0.2513643
000010 a2 8b 9b 3e d9 52 b5 bd 0a f6 2c be 51 aa 46 bf
       0.3037997 -0.088536926 -0.16890731 -0.7760363
000020 86 2a df 3e 86 60 25 3f f7 40 9e bd 57 0c dc be
       0.4358713 0.6460041 -0.07727235 -0.42978165
000030 82 8f 9a bd de 55 20 3e 08 1a 20 bf 44 5f 99 be
       -0.07546903 0.15657756 -0.6253972 -0.29955494
000040 21 ee 05 3d 51 d1 e1 be 95 d0 da 3d 51 14 94 be
       0.0326978 -0.44105008 0.10684315 -0.2892175
000050 ab 9f bf 3e 56 a4 aa 3e 64 24 3b bf 77 ac d2 3e
       0.37426504 0.33328503 -0.731024 0.41147205
000060 54 21 c3 3e 7a 6e d1 be d0 83 86 3e 56 41 90 3d
       0.38111365 -0.409046 0.2627244 0.07043712
000070 33 af c9 bc 28 8f 80 be 28 7c 00 bf e2 24 46 3f
       -0.024619674 -0.2510922 -0.5018945 0.7740003
000080 c3 68 86 be 1b ad a6 3c 7b bf 04 be 8c ab c4 bd
       -0.26251802 0.020346215 -0.12963669 -0.096030325
000090 f4 9b 32 3f 9d 24 86 3e eb 20 a6 3e 24 e9 4c bf
       0.69769216 0.2619981 0.3244699 -0.80043244
0000a0 57 f8 08 bf 70 2f 42 3e 53 40 e7 be 30 f0 99 3d
       -0.53503937 0.18963408 -0.45166263 0.07516515
0000b0 0b fb 1d 3f 81 ce 6a bd 0d c6 f4 3e 39 16 0a be
       0.61711186 -0.057325844 0.4780735 -0.1348504
0000c0 7d cb 13 bf b8 47 e3 be f8 d7 29 3e 03 16 69 3e
       -0.57732373 -0.44390655 0.16586292 0.22762303
0000d0 96 8c b7 3e ea 74 23 3f 42 1d bf bd 8e d1 66 3e
       0.35849446 0.6385027 -0.09331752 0.22540876
0000e0 60 11 b7 bf fb 51 12 be 3f 78 b9 bc f3 13 7f 3e
       -1.4302177 -0.14289086 -0.022640346 0.24909954
0000f0 cc 0d be be 94 6c 38 3e 6f a1 95 3d cd ff d7 be
       -0.371199 0.1801017 0.07306182 -0.42187348

bn4.running_var f4 [64]
000000 e5 1e 3d 3e 06 2d 33 3e d3 ed 5b 3e e5 7b 4f 3e
       0.18468817 0.17497644 0.21477441 0.20262106
000010 f4 a6 8e 3e 47 86 6f 3e 35 78 0e 3e 8a 04 7b 3e
       0.2786175 0.23391066 0.13913043 0.2451345
000020 eb ab 73 3e 61 17 74 3e 9b 29 7a 3e 99 5c 30 3e
       0.2379605 0.23837043 0.24429934 0.17222823
000030 1f 28 83 3e 34 cd 72 3e 7b d2 8e 3e 2e ef 94 3e
       0.25616547 0.23711091 0.2789496 0.2908873
000040 3e 4e 81 3e e0 0b 67 3e fd bc 23 3e 70 f7 91 3e
       0.25255007 0.22563124 0.15990062 0.28509092
000050 b7 63 68 3e 24 29 45 3e 6c 15 53 3e 2c b6 7a 3e
       0.22694288 0.19253975 0.2061364 0.24483556
000060 6c 04 37 3e 8e 70 46 3e bd 4d 8b 3e df dc 79 3e
       0.1787278 0.19378874 0.27207747 0.24400662
000070 43 8b 6c 3e 2e 75 3c 3e 27 7c 5b 3e 50 e9 60 3e
       0.23099999 0.18404076 0.21434079 0.21964002
000080 6c 77 9f 3e 23 48 96 3e e6 03 7f 3e bd fa 8e 3e
       0.311458 0.2935191 0.24903831 0.27925673
000090 38 e7 88 3e 6d 69 4d 3e 6d ad ae 3e 89 0b 67 3e
       0.26738906 0.20059748 0.34116688 0.22562994
0000a0 4c 38 2f 3e 18 ab 7b 3e 38 9b 55 3e 62 d7 a1 3e
       0.1711132 0.24576986 0.20859993 0.31609637
0000b0 36 62 62 3e 87 00 7b 3e e9 b3 c4 3e f9 5e 59 3e
       0.22107777 0.2451192 0.3841851 0.21227635
0000c0 55 65 65 3e f7 36 29 3e c6 46 51 3e dd b9 b5 3e
       0.22401936 0.16524874 0.20437154 0.35493365
0000d0 a4 ee 9a 3e 9c da 1d 3e 62 f0 26 3e ba 9a 47 3e
       0.30260193 0.15415424 0.16302636 0.19492617
0000e0 59 44 2e 3e 55 d2 71 3e d2 e4 57 3e a4 15 41 3e
       0.1701826 0.23615392 0.21083382 0.18855911
0000f0 85 93 8b 3e 4e 9a 66 3e d2 3f 5d 3e cb 11 52 3e
       0.27260986 0.225198 0.21606377 0.205146

lin.weight f4 [36, 64]
000000 75 7a 69 3e 6f 19 ad be c9 a9 ca bc 7b a2 4e bf
       0.2280062 -0.33808467 -0.024739163 -0.80716676
000010 96 52 41 bf c8 1f 88 bf b1 0e 4d bf 22 07 c6 3d
       -0.7551664 -1.0634699 -0.8010054 0.09669329
000020 f0 5b 86 3e 67 28 7d be fa 35 38 3f 34 55 0f 3f
       0.26242018 -0.24722444 0.7195736 0.55989385
000030 16 ee 0d 3f bd 3a 7b bf fb 54 d9 3e c2 04 fa be
       0.55441415 -0.981365 0.42447647 -0.48831755
000040 a0 79 b8 3e 9a 63 b6 3e a0 02 85 be 74 84 ab bd
       0.36030293 0.35622865 -0.25978565 -0.08374873
000050 21 55 91 3e 9c 21 94 bf e1 60 a8 bf c9 d2 a0 be
       0.2838526 -1.1572757 -1.3154565 -0.31410816
000060 ac c9 82 3e de 13 a5 bf fc 44 bb be 2d 36 07 bf
       0.25544488 -1.2896688 -0.36576068 -0.5281704
000070 82 8b 22 be ff a1 00 3e 9e aa c1 3e 34 48 0a bf
       -0.1587353 0.12561797 0.37825483 -0.54016423
000080 6d 29 a6 bb 14 29 01 3f 4c ba a0 bf 24 9a 90 3e
       -0.0050708563 0.50453305 -1.2556853 0.282426
000090 12 96 35 3f bb 73 a2 be 64 f6 8b be 05 45 db 3e
       0.70932114 -0.3172892 -0.2733642 0.42826095
0000a0 bf 12 6d 3e 29 6b c7 3e 88 4d 02 be 0b 0e 36 be
       0.23151682 0.38948944 -0.12724888 -0.17778794
0000b0 67 2b 91 bd ba 10 1d 3f d9 68 e3 be 6c 60 ad 3e
       -0.070883565 0.6135365 -0.4441593 0.33862627
0000c0 4a 4c 05 bf fc 02 58 3e cd ab 98 bd 99 71 a5 bf
       -0.5206953 0.21094888 -0.074546434 -1.2925292
0000d0 16 e5 9e 3e 99 1c f2 3e 88 13 53 bf dd 0a 6d 3e
       0.31034154 0.47287443 -0.8245168 0.23148675
0000e0 ac 6a ac bd 7b 39 26 bf dc 1b 4e bb b1 93 23 3f
       -0.084187835 -0.6493146 -0.003144971 0.63897234
0000f0 9d 3d df 3e 1a e2 90 bf 89 ed 94 3e 9a 12 74 be
       0.43601695 -1.1319001 0.29087475 -0.23835221
000100 14 fb 80 be 96 24 22 bf e9 84 06 3f ff 65 2f 3e
       -0.25191557 -0.63337076 0.52546555 0.17128752
000110 1c 08 40 3f b2 19 fb 3e b8 92 f2 3d 0d 29 2b bf
       0.75012374 0.4904304 0.11844391 -0.66859514
000120 39 11 c6 bd 92 8b 5f be 26 85 55 bf da 69 68 bc
       -0.09671254 -0.21830586 -0.83406293 -0.014185393
000130 f4 59 1e bf c3 38 82 3e 1a e5 8c bf 05 9c e4 3e
       -0.6185601 0.2543393 -1.1007416 0.44650283
000140 c7 e9 e3 3d 4e 6a 9a 3e 7e 39 be 3a cb 6b 98 3e
       0.11128574 0.3015923 0.0014512984 0.2976974
000150 d0 a4 54 bf 37 eb 2c 3e 5a 07 cc bd e4 aa 18 3d
       -0.83063984 0.16886602 -0.0996234 0.03727235
000160 20 6d 21 3f c8 f1 7c be 96 af 25 bf 6b a1 25 bf
       0.63057137 -0.24701607 -0.6472105 -0.6469943
000170 3e 02 a9 3e c4 90 ad be 78 27 aa bf 14 ab 1a be
       0.33009523 -0.3389951 -1.3293295 -0.15104324
000180 fc a8 99 3e 07 90 6c bf 9f 5e 91 3e 28 b5 9d bf
       0.30011737 -0.9240727 0.28392503 -1.232091
000190 72 bd 5b 3e 82 36 4e be c9 41 fd 3e c4 9a f2 bc
       0.21458986 -0.2013798 0.49464253 -0.029614814
0001a0 c4 56 b1 bf c7 b0 91 be 61 e3 e1 bd 14 14 a3 3e
       -1.3854604 -0.28455183 -0.11029697 0.31851256
0001b0 68 2f 92 3e 0f 2b 2a be 3d ba 41 3e 0b ca 7f bf
       0.28551793 -0.16617988 0.189187 -0.9991767
0001c0 0a 10 2c 3e 01 22 b8 bf 82 e5 03 3f 3f e6 59 3e
       0.16802993 -1.4385377 0.51522076 0.21279238
0001d0 18 48 3a bf e8 7b 02 3e b4 71 39 3e 11 0b b2 3e
       -0.72766256 0.12742579 0.1810978 0.34774068
0001e0 21 d4 7b bf 72 d5 26 3f d7 c8 ac bf dc d0 c8 3e
       -0.9837056 0.6516944 -1.3498791 0.39221847
0001f0 6c 2f b3 be 7d 97 58 be 7e 55 34 3f 03 e7 03 bc
       -0.34997118 -0.21151538 0.7044295 -0.008050683
000200 74 51 51 bf 18 18 63 be 31 0b 5a 3f 57 d1 dc 3e
       -0.8176491 -0.2217716 0.85173327 0.43128464
000210 c0 9f df 3e 30 23 ae 3e 18 84 07 3f cf 5b 39 be
       0.43676567 0.3401122 0.52935934 -0.18101428
000220 54 51 21 bf 17 59 07 bf 1c a6 03 be 2e 91 f1 be
       -0.6301472 -0.52870315 -0.12856334 -0.47181076
000230 fc 54 fd 3d a2 24 e4 be b4 7a 81 bf c4 a0 6d bf
       0.12369725 -0.445592 -1.0115571 -0.92823434
000240 39 e0 a4 be 9d 32 35 3f f2 39 01 be 98 c3 bb 3e
       -0.32202318 0.70780355 -0.1261976 0.36672664
000250 74 ba 43 bf e1 c4 52 3e a1 bc a8 3e cb 78 30 3f
       -0.7645638 0.20582916 0.32956412 0.68934315
000260 8a c7 05 3f ee 0c 85 3d 48 3f f7 bf c6 79 8e 3d
       0.522576 0.06496607 -1.9316187 0.0695682
000270 d4 83 1b be c2 2d b0 be e1 8d 37 bf 15 ef f4 be
       -0.15187007 -0.3440991 -0.71700865 -0.47838655
000280 5c 58 f1 be 57 31 a4 bf c8 1c 59 3f cf f8 4f bf
       -0.47137725 -1.2827557 0.8480954 -0.81239027
000290 eb 10 c1 3e 4d bf fe 3e c6 a8 2a bf e5 70 10 bd
       0.3770822 0.49755326 -0.6666378 -0.035263915
0002a0 71 e7 b1 be a6 f7 76 3e dc bb a0 bf b0 72 03 3f
       -0.34746888 0.24117908 -1.255733 0.51346874
0002b0 c9 b3 78 bf 03 c5 88 bf 10 b2 2e bf 39 31 9e bf
       -0.9714933 -1.0685123 -0.6824045 -1.2358772
0002c0 5f 1d 92 3e 3a e5 72 be 22 11 10 3d 4a 68 a2 bc
       0.28538033 -0.23720255 0.03517259 -0.01982512
0002d0 3b 77 18 bf 77 4a dd be 6c 9b b4 3e f4 bf 5c 3f
       -0.5955693 -0.43220875 0.35274827 0.862304
0002e0 4b 21 d1 bd 46 93 ba be 43 90 80 bf eb bb ec 3e
       -0.10211428 -0.36440486 -1.0044025 0.4623712
0002f0 a8 5c 69 bf 8e fa 69 3c 7b 97 0f 3f b7 65 d1 bc
       -0.9115701 0.014280928 0.56090516 -0.025561197
000300 1a 80 ee 3e 88 17 a8 3e b7 5f 95 3e 81 2c 06 3f
       0.4658211 0.32830453 0.29174587 0.5241166
000310 ab 49 c3 be 39 42 50 3e 8b fb e8 3e 66 2b 0f 3e
       -0.38142142 0.20337762 0.45504412 0.13981399
000320 d1 be d4 3e 3c f8 49 be 3f e2 57 3f 57 17 d3 be
       0.4155183 -0.197236 0.843296 -0.41228744
000330 f7 e5 63 bc 87 5d 29 bf f1 ce 84 be b4 5c 51 bf
       -0.013909808 -0.66158336 -0.25939134 -0.8178208
000340 a5 3f 41 bf e6 b3 37 3f 0b 13 74 3d f6 bb 4a 3f
       -0.7548774 0.7175888 0.059588473 0.79193056
000350 cb 67 39 bf 98 2a f4 3e 1b 8b d5 3e fb 44 db 3e
       -0.72424 0.47688746 0.41707692 0.42826065
000360 1d 97 a0 be 70 ba d9 3e da 9e cb bf d2 ed 16 3f
       -0.3136529 0.42525053 -1.5907853 0.58956635
000370 b2 a3 ef 3d 0a 2e 9b be b5 11 a1 3d 7f fc 7c bf
       0.11701144 -0.30308563 0.078647055 -0.9882278
000380 4a e6 a5 be e9 10 c8 bf e8 5b 34 be 7f 24 cd be
       -0.3240226 -1.563016 -0.17613184 -0.40066907
000390 ad a0 bd 39 4e ae a3 3d 7d 4a e9 be 7c 01 82 be
       0.00036168602 0.0799223 -0.45564643 -0.25391757
0003a0 ed c9 1b 3e 9c 79 25 3e ef 99 3c bf 8c 20 2a 3e
       0.15213747 0.16159672 -0.73672384 0.16613978
0003b0 0e 47 fa be d8 70 89 bf 4a 4b d5 bf 3d 29 30 be
       -0.48882335 -1.0737562 -1.6663601 -0.17203231
0003c0 a2 7a c3 3e 71 de 13 be a5 51 56 3d 5e 4b a3 bf
       0.381795 -0.14440323 0.052323956 -1.2757375
0003d0 18 6f f9 be 23 ee f1 3e 07 95 f6 bd ca a8 48 be
       -0.4871757 0.47251996 -0.120401435 -0.19595638
0003e0 17 f2 3c 3d f2 1a b3 be 2b 63 7c bf ea 3e 00 bf
       0.046129312 -0.34981495 -0.9858882 -0.50096
0003f0 9f 61 b6 bf d0 49 fa bd 79 a3 2b 3d 97 1f fb 3d
       -1.4248542 -0.1222111 0.041903947 0.12261885
