checkpoints/Archive/audio_classifier_200_mel_spec.pt (torch, 364573 bytes, 86 tensors)

conv1.weight f4 [8, 1, 5, 5]
00000000: 18e2 3abd c8eb eb3c eece b5be 37ad 07bc
00000010: 0a13 9dbe 24fc b6be cca4 06bf 7301 4cbe
00000020: c23f 753e 2dd8 b93d 7b5c d8bc fe5a ebbe
00000030: 2448 89be 6417 0bbc 0a0e d0bd 5b1e 4cbe
00000040: 1a0a 283e a4cd b93e 0b6c 64be 8d55 11bf
00000050: b52d 60bc 0457 523d 1df2 99be 64e3 3bbd
00000060: 8a45 5fbe 76c6 68bd 7908 adbd 6eb7 00be
00000070: 4de3 d63e 320b 0dbe 4369 963d be7e 7f3e
00000080: 45aa 8abd d431 a1be eace 333f 6e21 20bd
00000090: 4768 8d3d 82b4 b53e 878c a53e 0998 e0be
000000a0: 2b08 e43e 5a6e c23e 231c 843e a4ca 91be
000000b0: ada8 263e e385 153f 61e1 e63e ab4e 873e
000000c0: d4bc c83d c1e8 cbbe 195c d23e aa1e 3d3e
000000d0: 082d 4d3e 0e01 fdbd 5166 9f3e faa7 53be
000000e0: 7744 563e 5a0e 963e 3dd0 003e 43e3 b63c
000000f0: a65c 3cbe c75c e5be 355a c1be 62b7 19bd
00000100: ebbe 38be 1946 bdbd d689 5bbe 67a4 05be
00000110: cfb8 13bd 0154 d5bc c242 013e bd99 ae3e
00000120: f9ab 123d 7494 193e d76c 55be 8f7d 70be
00000130: 6a67 093e 44cd 81bd 1d2c debe b332 a8bd
00000140: 2a1b dd3d 5be0 73be b85f 4dbe 43bf 7ebd
00000150: d043 fa3d c9f2 173d 2a8c d7be 3586 f6bd
00000160: 2575 07be bb00 693e dcf8 403d 4ec3 ce3e
00000170: 5fdb da3e 8431 3f3f d154 2dbd c4b8 c93e
00000180: 9475 e03e 6f20 863e 3072 683e 9df5 153d
00000190: 54a7 6b3d 0936 d5bd 8642 e8be fd22 91bc
000001a0: 0da1 833d f5cb f33e 641f 5c3e b3fb bb3e
000001b0: 06f3 1ebe af33 9cbe 4757 623e d6b3 193d
000001c0: 8ff2 d3be b206 b9bc 3bbf 54be 6472 99bc
000001d0: 503c 1e3d 1a1d 123d 8298 45be 1bd5 acbe
000001e0: e11c 24be 5b06 0b3e b40e 163e f771 22bd
000001f0: 70ef dbbc 2d36 9d3e b46f b6bd 9dbb a9bb
00000200: 2d46 143e b63d c23c f944 a0be 5476 653e
00000210: e5e2 de3e 3c54 19bd b734 57be a9d7 bebd
00000220: 3067 5dbe 614e 06bf be6b a8be b6d4 743d
00000230: baaf e13d b05b 623e 7052 273b 5ca2 1b3d
00000240: 2809 2dbe 133e 39be ae75 67be c22a 5fbd
00000250: 2035 3ebe 2110 09be 052e fc3e 2789 c8bb
00000260: c854 f13e 969d 8e3e 3136 b6be 5923 3c3e
00000270: bfed 843e 0986 1e3e 5cc6 d8bd cd38 94be
00000280: 912d cfbd 2fd3 2dbe 0414 6ebe 6bde c8be
00000290: 0524 43bf 1704 99be 2732 8cbd 44ee b2be
000002a0: 3c64 44be edc3 93bd 71cf 0a3e 1769 7cbe
000002b0: 094c 4dbe e8a1 c83d 2a57 2a3d 116a 903e
000002c0: 0511 ca3d 7653 cd3e 3eba 35be 1dac 26bc
000002d0: 692f 203f 014a bbbe 9528 f3be a01f ae3a
000002e0: e967 d33d af38 903d de4c b13b b663 cfbd
000002f0: fb05 fdbc fdb4 583e c3fc 1dbf 3f80 21be
00000300: 232e c93e 3187 9bbd 238b af3e 9122 13bf
00000310: 1e19 53be 73a9 99bd 8a0e 67be ecad 843d
-0.045625776 0.028798953 -0.35509437 -0.008281044 -0.30678588 -0.35739243 -0.5259521 -0.19922428
0.23950103 0.090744354 -0.026411286 -0.4596786 -0.2681285 -0.0084894635 -0.10158928 -0.19933455
0.16410103 0.36289704 -0.2230684 -0.56771165 -0.013682772 0.051352516 -0.3006753 -0.045871153
-0.21803871 -0.056829892 -0.08448882 -0.12569973 0.41970292 -0.13773802 0.07344296 0.24950692
-0.067707576 -0.31483328 0.702376 -0.03909438 0.06904655 0.3548928 0.32333776 -0.43865994
0.44537482 0.37974817 0.25802717 -0.28474915 0.16275282 0.5840742 0.45093825 0.26427206
0.09801641 -0.39826015 0.4108589 0.18468729 0.2003671 -0.12353717 0.3113275 -0.20669547
0.20924555 0.29307824 0.12579437 0.022325164 -0.18394718 -0.44797346 -0.37764135 -0.037528403
-0.1804158 -0.09241886 -0.21439299 -0.13050996 -0.03606492 -0.026041033 0.12623122 0.34101668
0.035808537 0.14998037 -0.208423 -0.23485397 0.13418356 -0.063379794 -0.4339303 -0.08212795
0.10796197 -0.23816054 -0.20056045 -0.06219412 0.122199655 0.037096772 -0.42099124 -0.12037317
-0.13228281 0.22754185 0.04711233 0.4038338 0.42745492 0.7468493 -0.042317215 0.39398777
0.43839705 0.2619662 0.22699809 0.03661119 0.057532623 -0.10410697 -0.45363253 -0.017716879
0.064272024 0.47616544 0.2149635 0.3671547 -0.15522394 -0.3050818 0.22103606 0.03752502
-0.41395995 -0.0225862 -0.20776074 -0.018731304 0.038631737 0.035672285 -0.19296458 -0.33756337
-0.16026641 0.13576643 0.14654046 -0.039659467 -0.026847571 0.30705395 -0.089080244 -0.005179836
0.14479895 0.023711067 -0.31302622 0.2240842 0.43532482 -0.037433848 -0.21016203 -0.09318478
-0.21621394 -0.52463347 -0.328947 0.05977317 0.11019845 0.22105289 0.0025531314 0.037996635
-0.16898024 -0.18090086 -0.22603485 -0.054484136 -0.18574953 -0.13385059 0.4925386 -0.0061198655
0.47134995 0.27854604 -0.3558822 0.18372859 0.25962636 0.15480818 -0.10584709 -0.28949586
-0.10116113 -0.16975091 -0.23249823 -0.3923219 -0.76226836 -0.29885933 -0.06845503 -0.34947407
-0.19178861 -0.07215104 0.13555695 -0.24649464 -0.20048536 0.09796506 0.041587032 0.28205922
0.098665275 0.40102738 -0.17746827 -0.010172871 0.6257234 -0.36579898 -0.474919 0.0013284571
0.10322554 0.070420615 0.0054107746 -0.1012644 -0.03088664 0.21162792 -0.6171381 -0.15771578
0.39293012 -0.07594145 0.3428584 -0.5747462 -0.2061505 -0.07503023 -0.2256414 0.064784855

conv1.bias f4 [8]
00000000: 0f7e b9b9 5b57 883d 7b22 75bc dec0 153d
00000010: 8c80 bbbd 910a dbbc 9283 a5bd 1e8a f03c
-0.0003537987 0.06657287 -0.014961834 0.036560886 -0.09155378 -0.026738437 -0.08081736 0.029362734

bn1.weight f4 [8]
00000000: 858d 893f 334d 773f b84a 8e3f b4f8 963f
00000010: 8ff0 5a3f ff33 8e3f 642b 6d3f 4f27 313f
1.0746313 0.9660217 1.1116552 1.1794648 0.85523313 1.1109618 0.92644334 0.69200605

bn1.bias f4 [8]
00000000: aa30 213e 82f1 9d3d 2d0e 063e 5810 04be
00000010: e7d3 22bd 3efe cd3d f9d3 80bc 7a63 99bd
0.1574122 0.077120796 0.13091345 -0.1289686 -0.039752867 0.100582585 -0.015726076 -0.07489677

bn1.running_mean f4 [8]
00000000: 5c32 9bbb 3e73 333d 6a79 c1bc 080a 4cbd
00000010: fa4c b7bd 269a 1cbc fb81 52bd c474 913d
-0.004736228 0.043811075 -0.023617465 -0.049814254 -0.08950229 -0.009558236 -0.05139349 0.071023494

bn1.running_var f4 [8]
00000000: 98be f040 51ea c140 33f3 023f af32 1f40
00000010: 7041 4e3f 3ae2 a53f 9707 6f40 2b1a 023f
7.523266 6.059853 0.5115234 2.4874685 0.805686 1.2959664 3.7348382 0.5082118

conv2.weight f4 [16, 8, 3, 3]
00000000: a9d4 303c 947c 9bbb f131 2c3e e3b1 1abe
00000010: bd56 6ebe 50e9 1ebe 1b54 543e 756f 10be
00000020: fbff 19be cd44 a23e 607d 783e 1ff5 883e
00000030: f99d 0f3c 2c81 acbd 3813 c13d 311c 053e
00000040: be8b 1a3e d469 52bd f165 e4be 0455 8ebe
00000050: 2b09 813c 0698 e7bb 8c7e e5bd 8bcf 6f3c
00000060: 63c8 38be 74c1 643e 9cc3 0fbe 38e3 723e
00000070: bf35 ac3e a7db 4dbd 7aa3 5dbe e10b 9abe
00000080: ba90 553d 5d6c 35be 911e fdbc 679c cdbd
00000090: 51f6 6dbe 489b 82be 3be3 32bd 87d4 ef3d
000000a0: 704d a03d 26dd 433e 25a8 313e 4858 583d
000000b0: 4be9 4ebe c504 333d 295c 8ebe 82f4 d43d
000000c0: a25b b03d 1e3f 2ebd b272 efbd b2fe cb3d
000000d0: cdc9 36be 1c6f b4bd 47eb a63d 6b97 953d
000000e0: 9986 4e3d 68a5 8e3e 254c d4bc b087 13be
000000f0: 68ba 66bc 04ac a7bd 35ed 2e3e 2878 ea3a
00000100: d284 be3d 7679 b93e 4a51 0d3e a3bc 90be
00000110: 0851 36be a2f7 87bd 2949 c83e 4475 6ebd
00000120: d6a1 9dbd 53db e2bd 3072 9fbe b0ab 4e3d
00000130: 9adb cebe 6fca c33c 03e4 703d b490 943d
00000140: e603 cbbd bad5 58be 57c7 423e 2027 97be
00000150: e85c 093e cab3 4bbe f867 fdbd 3681 083c
00000160: 8ba5 b73e ca3a 9c3d 476c 883d 3132 ebbb
00000170: ef36 e23d 2b7a 70be 9a6a 14bd 8da6 84bd
00000180: a7a2 74be 1ed0 51bc b998 c93d 6686 b23d
00000190: 5d38 d0be 44ba 673d fc9b 41bd 8ad5 8d3e
000001a0: dd52 46bc 4db5 2abe 6c47 343d e856 7bbc
000001b0: 71a0 ff3d 53fe 183e c3e9 41bd 33b7 c63d
000001c0: f4da 863c ba31 cc3d 1d43 823d df52 efbd
000001d0: 86af 633e bafa 883d 4ca8 b4bd ad06 13bd
000001e0: 94ba ff3d eddb 9c3d 2d6c a6be f77a 0bbe
000001f0: e285 c7be c942 98be ced2 5e3e fb4c 63bd
00000200: eba8 d83c 9e63 4a3d b752 fc3d 5839 543d
00000210: 682f 6abe da34 c8bd 7dc9 0cbe 4ee1 d9bd
00000220: e887 e33c cfab 17bd d14f dcbd c50e f83d
00000230: 0268 8cbd 4607 0e3e f94f 7f3e e922 3fbd
00000240: 56dd b2be d090 dfbe 8f19 033d e69b 0c3e
00000250: c59b 603e 9f32 ce3d 0a18 aa3e dc16 0abd
00000260: e789 403d 2451 92bc 3246 9abe 98d9 85be
00000270: 08ae fd3c 3686 49bd b4e5 f7bc def5 debe
00000280: 8f17 4e3d 8998 a43d bf8d 173c 99b3 32be
00000290: 0cf5 59be 3644 3bbe 140e 2f3e a06f 813e
000002a0: 9c6a 4cbd c1bf 853e 8d3e a4bd 0da4 fb3c
000002b0: 9859 12bd c321 0fbe 5945 e43d 8ed4 69be
000002c0: a363 9d3d ba34 39be c6d9 27bd ae88 31be
000002d0: 7a87 823e b970 173e 0ca8 9d3e 10b1 d13b
000002e0: 57c7 18bd f037 243d 926b 89bd 201c ac3d
000002f0: 0e7c 333d 888d 553d bdde 10be 07fe 40be
00000300: 028a 493e 1d2b a43d 3034 ae3d 6736 123e
00000310: 72db 983d 8902 a13d e41b 813e 08fb e4bb
00000320: 100c 803e a9d0 383e ef2a 633e c7c0 babe
00000330: 62af 8fbe cb8d a8be 4fbb b73e 80c2 ba3d
00000340: 9143 cf3d 8bba ed3d 1143 113e af5d 343e
00000350: 11d7 39be b3b9 09bd 320c e7bd 9f78 00be
00000360: 8b52 77be 8c68 6dbd 2390 483e 76f1 38be
00000370: 8a37 563e 504a 373e 86ce 95be f91d f3bd
00000380: 08c2 3abe 8048 96bb ef25 a5bd 17da 493d
00000390: 30b8 89bd 5374 b23d db16 ab3d 2438 9b3e
000003a0: 0d1a 183d fbaf a43d 118f 623e c512 68bd
000003b0: 44b9 58be b364 a8be 79a4 2e3d cb35 63bd
000003c0: eb90 783d 898c ab3e 85a7 583e 13c6 1bbe
000003d0: d0e6 8a3e 8c03 093e ee60 f43c 4003 a5be
000003e0: 4067 d0be 7e3d 273e 15fd 343d a8a2 51bd
000003f0: 51a0 95bd 8fb7 23be e532 2aba f4d7 d6bc
0.01079289 -0.0047450755 0.16815926 -0.15106921 -0.23275276 -0.15518689 0.20735209 -0.14105017
-0.15039055 0.31693116 0.24266577 0.26749513 0.008765691 -0.08423075 0.09427494 0.12999035
0.1509237 -0.051370457 -0.44609025 -0.27799237 0.015751442 -0.007067683 -0.112057775 0.014636884
-0.18045191 0.22339422 -0.14039463 0.2371949 0.33634755 -0.050258305 -0.21644393 -0.30087188
0.052139975 -0.17717119 -0.030898364 -0.10039597 -0.23238494 -0.25509095 -0.043673735 0.11710458
0.0782727 0.1912733 0.17349298 0.052818567 -0.20206182 0.04370572 -0.27804688 0.10398199
0.086112276 -0.042540662 -0.11691798 0.09960689 -0.17850418 -0.08810255 0.08150344 0.07304271
0.05042133 0.2786057 -0.025915215 -0.1440723 -0.014082529 -0.08187106 0.17082675 0.0017888593
0.09302677 0.3622548 0.1380054 -0.28268918 -0.17804348 -0.06639029 0.39118317 -0.058217302
-0.076968834 -0.11076989 -0.31141806 0.050456703 -0.40401918 0.023900239 0.0588112 0.072541624
-0.09912853 -0.2117528 0.19021355 -0.29522038 0.13414347 -0.19892803 -0.12373346 0.008331588
0.35868487 0.076284006 0.06661277 -0.007177614 0.11045634 -0.23484103 -0.036234476 -0.064770795
-0.23890172 -0.012805967 0.09843583 0.08717041 -0.40668002 0.05657412 -0.0472679 0.2770198
-0.012104717 -0.16670723 0.044013426 -0.015340544 0.12481774 0.14940767 -0.047342073 0.09702911
0.016461827 0.09970422 0.06360457 -0.11685728 0.22234926 0.06688447 -0.088211626 -0.03589504
0.12486759 0.07659135 -0.32504407 -0.13621126 -0.38969332 -0.29738453 0.21760103 -0.055493336
0.026447734 0.04941141 0.12320464 0.0518125 -0.22869647 -0.09775706 -0.13748737 -0.106386766
0.027774766 -0.037029084 -0.10757411 0.12112192 -0.068557754 0.13869962 0.24932851 -0.046664152
-0.3493449 -0.4366517 0.032006796 0.13731346 0.21934421 0.10068249 0.33221465 -0.033713207
0.047006514 -0.017860956 -0.3013168 -0.26142573 0.030966774 -0.04920026 -0.030260898 -0.43546957
0.050315436 0.08036906 0.0092501035 -0.17451324 -0.21284884 -0.18287739 0.17095214 0.25280476
-0.049906358 0.2612286 -0.08019743 0.030717874 -0.035729975 -0.13977723 0.111460395 -0.2283499
0.0768502 -0.1808652 -0.04097917 -0.17337295 0.25493985 0.14789094 0.30792272 0.0063992813
-0.03729948 0.04009241 -0.067099705 0.08403802 0.04381948 0.052136928 -0.14147468 -0.18846904
0.19681552 0.08016036 0.08506048 0.14278565 0.07463731 0.07861812 0.2521659 -0.006987933
0.25009203 0.18048348 0.22184347 -0.36475202 -0.28063494 -0.3292068 0.35885093 0.09119129
0.10120309 0.11607846 0.1418574 0.17613862 -0.18148448 -0.033624362 -0.11281623 -0.12546013
-0.24152581 -0.05796103 0.19586234 -0.1806086 0.20919624 0.17899442 -0.29259127 -0.11870951
-0.1823808 -0.0045862794 -0.08063876 0.049280252 -0.06724584 0.08713593 0.08353969 0.3031627
0.03713422 0.08041378 0.22124888 -0.056658525 -0.21164423 -0.32889327 0.042637322 -0.055471223
0.06068508 0.33505657 0.21157654 -0.15212278 0.2712922 0.1338026 0.029831376 -0.32229042
-0.40703773 0.16332051 0.04418667 -0.05118051 -0.073059686 -0.15987991 -0.0006492569 -0.026226021

conv2.bias f4 [16]
00000000: cb5a c7bd c0bb d7bc 34fd 683d b523 1a3d
00000010: 98c1 8a3d 3b4a 61bd 8969 6cbd 26ee d9bc
00000020: 5fab b23b d74f a73d db98 e93b 8aa1 d73c
00000030: e61e ba3c a4ac 293d 47d7 8e3d 3449 6f3d
-0.09734114 -0.026334643 0.0568821 0.03763171 0.06775206 -0.055002432 -0.057717834 -0.026602816
0.005452558 0.08169525 0.0071288175 0.026322145 0.022719812 0.04142441 0.06974655 0.05841942

bn2.weight f4 [16]
00000000: 5d9f 773f b80d 813f 8caf 9c3f ddb4 7a3f
00000010: 4a58 863f 66b9 863f 1615 793f 3517 843f
00000020: 5921 873f aaa1 603f bb83 733f 60ff 9b3f
00000030: ad79 823f 9483 7f3f c68f 803f d677 633f
0.96727544 1.0082312 1.2241073 0.97932225 1.0495694 1.0525329 0.972978 1.0319582
1.0557052 0.8774668 0.9512288 1.2187309 1.0193383 0.9981015 1.0043876 0.8885473

bn2.bias f4 [16]
00000000: a23d 1fbe 5989 fabd ffc0 353e ef67 97bd
00000010: 7fcf 34bc 1ff0 26be 309a a33d 2739 1dbe
00000020: 9ed2 083e 1189 bdbd d190 53be ae73 313e
00000030: f531 44bb 7a97 f0bd 4686 9abd ea58 c83d
-0.15550855 -0.12233228 0.17749403 -0.07392871 -0.011035799 -0.16302536 0.07988393 -0.15353833
0.13361594 -0.09254659 -0.20660712 0.17329285 -0.0029937003 -0.11747642 -0.07545142 0.09782584

bn2.running_mean f4 [16]
00000000: 4197 cabe d8ac 48bf b844 4f3d 0864 94be
00000010: 5caf 9bbe 07a3 ed3e 2491 413e abb0 d63e
00000020: fc13 0ebf 381e 903e 42e2 54be 413c 98bf
00000030: 5892 a3be 70c8 f5be c8b9 20bf 1fbc a73e
-0.39568523 -0.7838874 0.050602645 -0.28982568 -0.30407226 0.46413442 0.18903023 0.41931662
-0.55499244 0.28148055 -0.20789436 -1.1893388 -0.3194759 -0.48004484 -0.6278348 0.32760713

bn2.running_var f4 [16]
00000000: 9411 5a3f 5a3b ed3e 1fdf 8f3f dcfd 0d3f
00000010: 4175 e53e 54c0 7d3f 5226 ae3e 5282 143f
00000020: c208 2e3f 3786 493f fbba 973e 9d2c fd3f
00000030: 0a1e 083f a0e9 1d3f 42d1 023f fb08 a23e
0.8518307 0.46334344 1.1239966 0.55465484 0.4481602 0.99121594 0.3401361 0.58011353
0.67982113 0.7872042 0.29634842 1.977924 0.53170836 0.6168461 0.5110055 0.31647477

conv3.weight f4 [32, 16, 3, 3]
00000000: 1db3 063e ca8e 273e a2a9 6cbc 43d1 b5bd
00000010: ccff 5b3d 2a43 e3be 6cc2 ef3b 2a4a 9dbd
00000020: a47f d93c 9a49 63be 71e6 29bd de82 4f3c
00000030: 5b76 39bd 2c09 97bd 91ba 5a3d bcdf e73c
00000040: 3f36 833d e207 603d 9f51 1cbe 441d 43bd
00000050: b51e 343e dfce b9be 89b5 2dbe 5b7d 89be
00000060: 77ed 043e f1ba 5ebd 7d91 efbd 4844 0bbe
00000070: bcf4 b53c 325c 86be 35cd 05be 064b a8bd
00000080: fc9e bb3c 30da 00be 295f e2bd d991 b83d
00000090: fbf4 e13d 9864 873d 79e2 f73d 2511 013e
000000a0: 31ef c6bc 8a13 73bc ed2e 193d ce09 1a3e
000000b0: 3fed b03d 43df d2be 81b4 5cbe c369 96be
000000c0: e7c4 c8bd d0e4 003e 786e c8bd 1c00 cabd
000000d0: 1e2c f2bd eb34 823a dbd8 ee3d 2d4f 06bb
000000e0: 672a 50be fa96 1fbd 6026 04be 8f7e d0bd
000000f0: a686 c73d 8e35 94bd dc4b 71bc f1dc e93c
00000100: 328f 373c 3262 78bd 3e7f e53d 2f13 a1be
00000110: 8ad8 5c3e cf1d 0939 cdc8 94bd daa6 59bc
00000120: e2ec 2dbe 2924 3bbe 24f4 e6bc cc8e ae3d
00000130: 4fcc a1bc c608 1e3c 8ad3 fbbd 132b 03be
00000140: abd1 6b3c 3c2d ba3d 6dee 17be 6f59 f43c
00000150: 5547 5fbd 68cf 82be eb9f 17bd 516d 593e
00000160: b4f7 9c3d c6db fcbd f9ba 513d 2cc0 a53d
00000170: 6013 473e 92f5 a2bd 8d69 88be d2ef ee3d
00000180: aaa3 42bd f88d e5bd 867c 8cbd dc1f 18be
00000190: 4d8f d5be 360c 2abe 457e 24be 2083 98bc
000001a0: 2ea7 8fbd e944 03bd 1fbe 493e c703 a7bd
000001b0: 332c 5e3c f708 90be e009 4dbc a43c d63d
000001c0: 81d3 1e3e d896 8dbd 19d5 b3bd ede3 58bd
000001d0: ed12 febd ea22 2abd 0237 6c3d 4f28 783b
000001e0: d5dc a13c 5dad d8bd 0fd6 ce3c fea7 49bc
000001f0: 048d 4abe f998 a03b 256c dcbc b2b2 31be
00000200: 9b28 2fbd 7f3f 02be 8c00 dfbd 1a28 3cbc
00000210: b9b0 70be f98d 923d 88df 5dbe 83d9 b73d
00000220: ed11 4fbe adf4 153d f56a 703d 3691 a53d
00000230: a114 223c 70ee 2c3e 4833 4f3e b74d c93d
00000240: f2c7 173e 0790 8e3c 27b3 79bd 3d0c e03c
00000250: e47e a73d 2dbc 343e 4268 893d 4072 17bd
00000260: a810 a83d 3f04 0ebd 6f07 63bc 1d55 203e
00000270: 527d 11be 9d62 fdbb b81e 1f3e f1a2 e2bc
00000280: f6a6 90bd ab6a 0f3e b187 66bd b820 3f3e
00000290: c9cd 5cbd 6cdd 1d3e 5f61 21bd c004 4a3e
000002a0: 89bd 4c3d 9dd3 edbc a7b3 2abd 985a 353d
000002b0: d2eb 07bd dcdf ca3d 2017 a9be 3882 79be
000002c0: 8a7a 55be 115d d3bd 6733 6b3d f31a 85bd
000002d0: 6628 6dbe 37fb afbb 81f7 28be 2b4b 0d3e
000002e0: aac5 e03c f310 85bd 1004 1c3e b92d 0ebd
000002f0: c5d1 7e3e 5bba 7c3e 1827 9e3c 3eb6 f93c
00000300: ac55 74bd c69d 61bd 21d0 8cbd 0054 95be
00000310: 0622 41be ea23 67be 5451 d03d cca8 c43e
00000320: b309 3fbe 65a5 10be d3ba f0bd 17da 6dbd
00000330: 7562 4c3d 4030 8abd 76f0 1fbe 499b 6b3c
00000340: 4911 ed3d 59e0 debd b57f 653d 26fe bb3d
00000350: b1f9 223e 7c80 0d3e bc54 f43d 747b 3c3e
00000360: cb80 12bd d894 b93d f157 91bd dcf7 1cbe
00000370: 781a 40bd ff91 64be 1ac7 ad3d 6f90 1d3e
00000380: c8b9 8b3e e021 2e3d 84ce f63c d763 0e3e
00000390: 45f0 053e 9441 e2bd 454b bd3d 397d 2ebe
000003a0: a814 25be 40b8 e53d 03f9 b53c 1595 13be
000003b0: 4f7d 51bd 7086 313d 8851 913d 03a5 a1be
000003c0: dbe9 d83d 66ea d0bd ff04 c23d 694f 5f3e
000003d0: 99d3 e03c d5e0 eabd 0dcc 943b 0455 d63c
000003e0: 350a d13d 5868 94bd e1b8 5fbd 6b27 72bd
000003f0: bf26 443e 6b02 8b3d fc39 e5bd 6812 16be
0.13154264 0.16363063 -0.0144447405 -0.08877804 0.053710744 -0.4438718 0.007316878 -0.07680161
0.026550122 -0.22196046 -0.04147953 0.0126654785 -0.04527889 -0.07374796 0.05340058 0.028304927
0.06406831 0.054695018 -0.15265511 -0.04763533 0.17589839 -0.36290643 -0.16963781 -0.2685345
0.1298121 -0.0543775 -0.116976716 -0.13600266 0.022211425 -0.26242214 -0.13066562 -0.082174346
0.022902958 -0.12583232 -0.110533066 0.09012193 0.110330544 0.066109836 0.12103743 0.12604196
-0.024283977 -0.014836201 0.037398268 0.15042803 0.08639001 -0.4118596 -0.21553232 -0.29377565
-0.09803181 0.12587285 -0.09786695 -0.09863302 -0.11824821 0.0009933984 0.11662456 -0.002049397
-0.20328675 -0.03896234 -0.12905264 -0.10180389 0.09742479 -0.07236777 -0.014727559 0.028547736
0.011203574 -0.06064052 0.1120591 -0.31459948 0.21566978 0.00013076443 -0.07264862 -0.013284409
-0.16984895 -0.18275513 -0.028192587 0.0852333 -0.019750742 0.009645646 -0.12296207 -0.128094
0.01439325 0.09090659 -0.14837046 0.029827802 -0.054511387 -0.25548863 -0.037017744 0.21233107
0.07664433 -0.12346606 0.0512037 0.080932945 0.19440985 -0.07956995 -0.2664303 0.11666836
-0.047519363 -0.11208719 -0.068596885 -0.14855903 -0.41710892 -0.1660622 -0.16063793 -0.018617213
-0.07014309 -0.03204814 0.19701432 -0.08155017 0.013560343 -0.2813184 -0.012514561 0.10460785
0.1551037 -0.06913537 -0.087808795 -0.052951742 -0.124059536 -0.041537203 0.057669647 0.0037865823
0.019758621 -0.105799414 0.025248555 -0.012308119 -0.19780356 0.0049010483 -0.026907036 -0.17353323
-0.042763334 -0.12719534 -0.10888776 -0.01148417 -0.23504914 0.071559854 -0.21667302 0.08977034
-0.20221682 0.036610294 0.058695752 0.080843374 0.009892614 0.16887832 0.20234406 0.09829276
0.14822367 0.017402662 -0.06096187 0.027349586 0.08178499 0.17649908 0.06709339 -0.03697419
0.08206302 -0.03467202 -0.013856753 0.15657468 -0.14207962 -0.007732703 0.15539062 -0.027665587
-0.07063095 0.14005534 -0.05628175 0.18664825 -0.05390719 0.15416497 -0.0393995 0.19728374
0.049985442 -0.02903157 -0.041675236 0.04427585 -0.03318388 0.09905979 -0.33025455 -0.24366081
-0.20847526 -0.103204854 0.057422068 -0.06499281 -0.23159942 -0.0053705233 -0.16500665 0.13798206
0.027438004 -0.064973734 0.15235925 -0.034711573 0.24884708 0.24680464 0.01930575 0.030482408
-0.059652016 -0.055082105 -0.06875635 -0.2916565 -0.18860635 -0.22572294 0.10171762 0.38410032
-0.18656044 -0.14125593 -0.11754384 -0.058069315 0.049898583 -0.06747484 -0.15619072 0.014380285
0.115755625 -0.10882635 0.056029994 0.09179334 0.15915562 0.13818544 0.11930224 0.18406469
-0.035767358 0.09061593 -0.070968516 -0.15328926 -0.046900243 -0.22321318 0.08485241 0.15387128
0.27290177 0.042512774 0.030127771 0.13905273 0.13079937 -0.11047664 0.09242872 -0.17039956
-0.16121161 0.112167835 0.022213465 -0.14412339 -0.051144894 0.0433411 0.07095629 -0.31571206
0.105914794 -0.10200958 0.09473609 0.21807636 0.027444648 -0.114686646 0.0045409263 0.026163585
0.10207025 -0.072464645 -0.054619674 -0.059119623 0.19155405 0.067875706 -0.111927 -0.14655459

conv3.bias f4 [32]
00000000: f079 19bd 16fd 16bd 4eeb bebc 425f faba
00000010: 8692 3cbc bc12 823d b3f0 4abc 34e0 813d
00000020: c651 023d 3a67 183d 7c6a dbbc 5c92 3a3d
00000030: 92d2 173c 0b81 8c3b 4ee7 b73a 8ff7 82bb
00000040: 036f dd3c d566 55bc 3194 503d 460d 1dbc
00000050: 95d5 9a3d e491 473d 7e95 0b3c dbec 93bc
00000060: e71a 3e3d 40c4 21bc 87df 78bd 979b 75bc
00000070: a6cb e43b 3f7b 8abc 920b c73c 84f6 8b3c
-0.037469804 -0.036862455 -0.023305561 -0.0019101875 -0.011509543 0.063512295 -0.012386489 0.063415915
0.031816266 0.03720782 -0.026784174 0.045549735 0.0092665125 0.004287844 0.0014030726 -0.0039967964
0.027030474 -0.013025005 0.050922576 -0.009585684 0.07560269 0.048723117 0.008519528 -0.018057277
0.046412375 -0.00987345 -0.060760047 -0.014990709 0.0069822846 -0.016904471 0.02429751 0.017085321

bn3.weight f4 [32]
00000000: 3f2d 883f 0d6e 7d3f d2fa 873f c2eb 573f
00000010: 0c7e 753f a245 8b3f b702 9d3f 3e49 893f
00000020: a2ef 9e3f 296f 813f deb6 903f 5430 603f
00000030: 366f 813f 097f 733f afc9 7e3f 7cbe 733f
00000040: a738 6d3f f452 633f 5d78 7b3f 37b3 913f
00000050: b6c4 903f a918 723f 7fe6 583f 40be 843f
00000060: 27fe 983f 2029 773f e146 783f 2213 853f
00000070: 3bb4 553f 6253 8d3f b42a 843f 642e 643f
1.0638808 0.9899605 1.0623419 0.8434411 0.9589546 1.0880625 1.2266454 1.0725477
1.241688 1.0112048 1.1305807 0.8757374 1.0112064 0.95115715 0.99526495 0.9521253
0.9266457 0.8879845 0.98230535 1.1382817 1.1310031 0.9456888 0.8472671 1.037056
1.1952561 0.96547127 0.9698315 1.0396464 0.83478135 1.1041071 1.0325532 0.89133286

bn3.bias f4 [32]
00000000: dbc8 91be 2c97 9cbd 437e e1bd 1eec d3bd
00000010: 39ba 373d 89ae 0dbe 8240 abbd bedb a8bd
00000020: 405c ae3d 2780 41be bd7d bc3a f81f 6bbd
00000030: 3440 0dbe 8d45 e3bd 1ab9 c7bd f1e6 953c
00000040: 387c 89be 4612 54be 0e5c 88bd 5847 173c
00000050: ad3c babd a3a4 88be b2d2 ecbd a19d dcbd
00000060: deda 4c3d 43f4 51be 34ab 5fbe 0d22 f9bd
00000070: a10f 47be 041e 093d c34c 5cbe 5565 35be
-0.28473553 -0.07646021 -0.11010411 -0.1034777 0.04485533 -0.13836111 -0.08361913 -0.082450375
0.08513689 -0.18896542 0.0014380735 -0.057403535 -0.13794023 -0.1109725 -0.09752102 0.018298598
-0.26852584 -0.20710096 -0.06658183 0.009233318 -0.09093604 -0.26688108 -0.115636244 -0.10772253
0.050013416 -0.20503335 -0.21842653 -0.12164698 -0.19439556 0.03347589 -0.21513657 -0.17714436

bn3.running_mean f4 [32]
00000000: fe97 cfbf f05c e3bd 3cc2 26bf 36d2 86bf
00000010: 56f4 4cbf 2321 14bd 0446 4bbf 8dd2 7fbe
00000020: 131b 903c e2d2 92be ecc9 0cbf abf8 0cbf
00000030: e880 5fbf bc84 76bf 15ba 05bf d11a dabe
00000040: 9951 56bf b8fb 8fbf 08bd 55bf fe0f 6dbf
00000050: 24a3 00bf c1d1 0ebf a945 35bd b5a3 babd
00000060: de53 8bbf 12f7 91bf d4b4 f6be b701 0dbf
00000070: 209a 823f caf1 dfbe d9cf 47bf 2c04 a2bf
-1.6218259 -0.11101711 -0.6514013 -1.0532901 -0.8006033 -0.036164414 -0.7940371 -0.24982662
0.017591035 -0.28676516 -0.5499561 -0.5506694 -0.8730607 -0.96296287 -0.52237064 -0.42598584
-0.8371826 -1.1248693 -0.83491564 -0.9260253 -0.5024893 -0.5578881 -0.044255886 -0.09113256
-1.0884969 -1.1403525 -0.48184836 -0.5508074 1.0203285 -0.43739158 -0.78051525 -1.2657523

bn3.running_var f4 [32]
00000000: b0a3 083f 3882 083f 6181 8b3f 1ba6 c43e
00000010: 30c3 313f 0bed 293f 01cf 4f3f 5844 523f
00000020: 9a50 743f 0401 f63e 28cc 7b3f e68e a73e
00000030: d66d 923f cf16 bc3e c5ed 093f 5461 f03e
00000040: bb56 fe3e 06db da3e 9020 123f a960 f03e
00000050: 0e56 1d3f 1438 903e a941 a33e ddfe 423f
00000060: a71b 383f 71c1 173f 3b04 713e feeb 0d3f
00000070: fdb7 b23e 9bca 233f b331 2a3f 50d9 d63e
0.5337477 0.533237 1.0898858 0.38407978 0.6943846 0.66377324 0.8117524 0.82135534
0.9543549 0.4804765 0.9835839 0.3272621 1.1439769 0.36736152 0.5387843 0.46949255
0.49675545 0.42745227 0.57080936 0.46948746 0.61459434 0.28167784 0.31886032 0.7617014
0.71917194 0.59279543 0.2353677 0.5543822 0.34905997 0.63981026 0.66482085 0.4196267

conv4.weight f4 [64, 32, 3, 3]
00000000: ef60 18be 746e 31bd ed45 fdbd f74d f0bc
00000010: 9077 9abd ab0c c3bc 310c ddbd 65b9 673d
00000020: 391e 33be 8c10 643d 080f 483d 56c7 cb3d
00000030: 42ee c23d eb51 0fbd f5c9 253e 7d83 873d
00000040: 7723 efbd d68d 873d 6b60 e6bd 92df 143e
00000050: f10f 57be 8e53 3abe 711f 403d a369 dabd
00000060: 6bd1 f8bd 8c4b 343d 285a 1ebe a503 a93c
00000070: 1879 c03c 6f78 d23c d65b 0fbe ac80 3f3d
00000080: 78eb ccbd 209c 483c c605 a03c 4d83 983d
00000090: 197f f63d dda7 143e cd13 483e b646 1ebd
000000a0: 73bd d7bd 8019 0dbe 80b7 57ba 2ef2 b53d
000000b0: 106c d33d 2a52 30bd 017d f2bd 6b47 8f3a
000000c0: c7c6 653d 2f13 333d d1f5 ad3d 4c90 54bd
000000d0: ba78 b8bc 0d28 11be 6553 4d3e f60e 2cbe
000000e0: 19d5 f03d 8686 a13d 2c5c b2bd 494e 9b3d
000000f0: 1646 593e 3dda 08bd 5f87 a83e b11a 5bbd
00000100: b6b8 013e ea08 adbd 1826 3d3d 6d13 74bd
00000110: eb06 7ebd 67d7 09bb 61d8 993d 174b 873c
00000120: 9928 3fbd 197d 383d caeb d3bd 8e03 c83d
00000130: d518 ddbd 13af 28bd 1aed 4abd 2fe7 f43d
00000140: c18d 1cbe 2353 963d b06b cabc 6eb0 27be
00000150: bf63 ad3c a664 093e 2725 3cbd ec73 813c
00000160: 1278 e73d fb61 83bd 7171 073e 665a 0ebe
00000170: d6bf aa3d c6f9 d5bd 10b9 f83d 1b8a 60bd
00000180: b499 1d3d 84a6 58be 24a7 abbc 7477 cf3c
00000190: c772 3f3e ad40 013d 7331 573d 1d44 65bb
000001a0: 6246 b93d 65c6 6c3d 0017 123e d197 513c
000001b0: d3b3 1dbe 6029 c4bd 2fef a4bc ddc1 92bd
000001c0: b031 c4bc 0e6c f43b 7fd4 51be ada5 4ebd
000001d0: fef3 02bc cafd 40bd cfc3 98bb d206 9c3c
000001e0: 1b14 3bbe 1f8b fcbd 95af 0abe 2b40 7fbb
000001f0: cf90 f5bb f219 353d 243a ddbc 479b 3c3d
00000200: 67b1 e53c 6a5b e23d 3110 86bd 7aa2 f43d
00000210: 70aa 053d ca10 543d c96d cc3d 1ce7 31be
00000220: 47ae 21bd 2af6 93bc 5a28 b0bd 8c08 9d3d
00000230: 717a d2bd 15d5 26bd 6f18 a93d f850 85bc
00000240: def1 34be a536 ec3b 981c 9bbd dbdc afbd
00000250: 492e cdbc 376c c5bd 75bb 01be a514 543d
00000260: 8c10 c0bd 1a0f d23d 8fe2 33be b6ec a83d
00000270: 23c0 b73b f205 d9bd 089a 2bbc 5dce 8d3d
00000280: 0bb8 e4bd c49e d53d 94ed 853d 3cd2 1ebd
00000290: c8fc 223d 80e2 653e 8b76 87bd 02b7 f23d
000002a0: 7274 973c 5518 8dbb 68ea 1cbd ab5e 17be
000002b0: 0f87 133d 7556 4dbe cd83 d73d 45eb 583b
000002c0: b6e0 ee3c b92c 5fbe f621 883d 4ad0 c8bd
000002d0: 6fc4 b3bd 8eb9 8dbd abc4 8fbc d1a3 a33d
000002e0: 1f2a 7bbd 75b7 2e3d 436a cabc 25e1 9bbd
000002f0: eab7 83bd 208d 59ba 5518 babd 48cd 023d
00000300: 68dd f9bd f554 15bd 9a7b d9bd c781 233d
00000310: 13cb 2cbd 1994 71bd 98b8 253e 03c7 6b3c
00000320: 2b56 1c3e e9ce ca3d ee16 c23d ca62 8a3d
00000330: 0792 783d 4a5d 96bc f8e5 bd3d eabd 9b3b
00000340: dcdb f03c 10be 16bd eed0 88bd 3c69 96bd
00000350: 0741 6cbd b10e e03d 9daa f5bc ce43 323d
00000360: 2744 2f3e 263d 75be f598 e3bc 4e96 a5bd
00000370: 98d6 a93d bba8 d1bd ce0d 073d 23eb cfbd
00000380: 6944 443d 75b9 a8bd 5bdc ca3d a5ef 89ba
00000390: 862c 4cbc 0f45 ce3c 2a08 bb3d 4263 9dbc
000003a0: 4935 833d a6f4 6fbc 2496 1f3e bfa5 453c
000003b0: fc7d 003e 4e70 febd 99cb fa3c 3b20 e4bd
000003c0: 54e5 1c3e c6f5 1f3c 2728 4c3e c0e3 dfbd
000003d0: 0e1e 1d3d 9ee5 d6bd 78c1 3d3e 866a 6a3d
000003e0: 0696 ff3d 9f5c 1ebe 4976 acbc 11fe c2bd
000003f0: f8b0 bcbc 9abc e93d a898 a9bd 41c1 0c3e
-0.14880727 -0.043318227 -0.12366853 -0.029334052 -0.07542336 -0.023809751 -0.10793341 0.05657329
-0.17491998 0.055679843 0.04884246 0.0995013 0.095181 -0.034990232 0.16190322 0.06616876
-0.11676686 0.0661885 -0.11248859 0.1453841 -0.21002175 -0.18195936 0.046904985 -0.1066468
-0.12149318 0.04401736 -0.1546408 0.02063162 0.023495242 0.025692193 -0.13999876 0.04675357
-0.100058496 0.012244254 0.019534003 0.07446919 0.12035961 0.1451716 0.19538803 -0.038641654
-0.105341814 -0.13779259 -0.0008228943 0.08884083 0.10323346 -0.043047108 -0.11840249 0.0010931318
0.056097772 0.043719467 0.084941514 -0.051895425 -0.022518504 -0.14175434 0.20051344 -0.16802582
0.11759395 0.078869864 -0.08708987 0.07583291 0.21218142 -0.033411253 0.3291578 -0.05349225
0.12668118 -0.08448966 0.046178907 -0.05958884 -0.062018316 -0.002103293 0.07511974 0.016515298
-0.046669576 0.045041177 -0.103477076 0.09766303 -0.10795752 -0.04118259 -0.049542524 0.11958157
-0.1528845 0.07340076 -0.024709553 -0.16375896 0.021165727 0.134173 -0.04593387 0.015802346
0.113021985 -0.06415173 0.13226868 -0.13901672 0.08337371 -0.10448031 0.12144673 -0.054819208
0.03847666 -0.2115727 -0.020953722 0.025325514 0.18696128 0.03155582 0.052537393 -0.0034983226
0.090466276 0.05780639 0.14266586 0.0127925435 -0.15400629 -0.09578204 -0.020133583 -0.07165883
-0.023949474 0.00745917 -0.20491217 -0.05045097 -0.007992743 -0.047117032 -0.004662014 0.01904622
-0.18269388 -0.12331223 -0.13543542 -0.003894816 -0.007494069 0.044214197 -0.027005263 0.04604652
0.028038694 0.11052592 -0.06546057 0.119450524 0.032633245 0.051773824 0.09981877 -0.17373317
-0.039472844 -0.018061716 -0.086014464 0.07667646 -0.1027726 -0.040730555 0.082566135 -0.01627396
-0.1767039 0.0072086626 -0.07573813 -0.08587047 -0.025046485 -0.09639781 -0.12669165 0.0517775
-0.09378156 0.10256787 -0.17566894 0.08248274 0.0056076213 -0.10596837 -0.010473736 0.06924126
-0.11167916 0.10430673 0.06539455 -0.038774714 0.039791852 0.22449684 -0.06614407 0.11851312
0.018488143 -0.004305879 -0.038309485 -0.14782207 0.036017474 -0.20052512 0.10523186 0.0033099216
0.029159885 -0.21794404 0.066471025 -0.09805353 -0.08777701 -0.069201574 -0.017549833 0.0799023
-0.061319467 0.042655427 -0.024708873 -0.07611302 -0.06431563 -0.00082989223 -0.09086672 0.031934053
-0.12200433 -0.036457974 -0.10619278 0.039918687 -0.042185854 -0.058979128 0.16183698 0.01439071
0.15267245 0.09902746 0.0947703 0.06757124 0.060686138 -0.01835503 0.09272379 0.004752864
0.029401712 -0.03680235 -0.06680475 -0.073442906 -0.057679202 0.10940302 -0.029988581 0.043521695
0.17115842 -0.23949108 -0.027782897 -0.08085309 0.08292884 -0.10237261 0.03297215 -0.10152271
0.047916804 -0.08238498 0.09905311 -0.001052369 -0.012461787 0.025179414 0.091324165 -0.019212369
0.06406648 -0.014645731 0.15584618 0.012063443 0.12548059 -0.12423764 0.030614661 -0.1113896
0.15321857 0.009763187 0.19937192 -0.10932112 0.03835874 -0.10493015 0.18530834 0.057230495
0.124797866 -0.1546502 -0.021052497 -0.095211156 -0.023033604 0.11412926 -0.0828107 0.13745596

conv4.bias f4 [64]
00000000: 1916 76bb e985 ef3c a8fe 96bb 588a 54bc
00000010: f879 123b b6c4 733c 21f6 c9bb 95f9 013d
00000020: fbd2 913b ac06 543c 7474 fcbb ae0f 0f3c
00000030: 63a3 91bb 76d7 093c fe31 a7bc fdbc 0bbd
00000040: f84b 06bd bf61 9abc ade4 32bc acf4 85bc
00000050: 51da 5bbc a7aa b7bb 6334 c03c aaa3 5cbc
00000060: eacb c73a 2a57 16bb 4baf e93b 740d a03c
00000070: 7143 7abc f98d b73b 11c5 0fbb 5d08 0dbc
00000080: c643 0b3d 488c b3bb 9777 fc3a d178 863c
00000090: 96d2 85bc 72b4 623c cb6f c7bb a51b 8c3b
000000a0: 2fd6 60bc 99b1 0f3c 98a9 ca3c 1a65 8d38
000000b0: dc09 11bc 1bb6 153d 3168 f53b 98d4 423a
000000c0: c21e 28bd 8e7a e03c 2e30 dfba 05d2 d3bc
000000d0: 66fe f8bc 4942 af3c 96bc 6cbb de47 c43c
000000e0: 992a cbbc 5269 c33b 221f 41bc dde9 e9bb
000000f0: 09bd 57bc c8d6 1fbb ee5d dd3c 0c37 663c
-0.0037549792 0.029238658 -0.004607994 -0.012972437 0.002235053 0.0148784425 -0.006163374 0.03173216
0.0044501997 0.012941044 -0.007704312 0.008731766 -0.004444526 0.008413186 -0.02040958 -0.03411578
-0.032787293 -0.018845437 -0.010918778 -0.01635202 -0.01341875 -0.00560506 0.02346248 -0.013466755
0.0015243266 -0.0022940137 0.0071314923 0.019537665 -0.015274868 0.0056016413 -0.002193753 -0.008607951
0.03400018 -0.0054793693 0.0019261715 0.016415032 -0.016335767 0.013836967 -0.006086325 0.0042757564
-0.01372294 0.00877037 0.024739072 6.7422356e-05 -0.008852448 0.036550622 0.007489227 0.00074321916
-0.041044958 0.027402189 -0.0017027908 -0.025856981 -0.030394744 0.021393912 -0.0036123148 0.02396005
-0.024800586 0.005963483 -0.011787208 -0.0071384744 -0.013167628 -0.0024389494 0.027022328 0.01405121

bn4.weight f4 [64]
00000000: cfb4 0040 c754 1b40 391d 1640 9727 1340
00000010: 7ac9 1340 5366 1840 6290 1140 5ea4 1540
00000020: 54c4 0e40 ada8 2140 0811 0c40 a0e8 1a40
00000030: a662 1340 09f4 1240 920c 0e40 1933 0e40
00000040: 96bc 1440 57ef 2040 7469 1a40 efc5 1240
00000050: 8e51 0440 9dac 1440 9d45 0140 d39d 0f40
00000060: e621 0f40 6f5f 1640 bdf3 1b40 ac68 0c40
00000070: 72fc fc3f 5c33 1340 3537 0e40 29ec 1540
00000080: b0d6 1140 f001 2040 30d6 0a40 4bf5 1140
00000090: 33e5 0d40 7791 1940 e442 1240 588b 1840
000000a0: 6e5d 1340 30b5 1440 670d 0f40 c123 0f40
000000b0: 0d32 0a40 9eef 0f40 79e2 1540 3289 1440
000000c0: 6561 0440 c508 2440 5f75 0f40 117b 2040
000000d0: ea30 1240 de7b 1940 b19a 1d40 a2b7 1340
000000e0: a0da 1740 9563 1140 2c30 0f40 f6d2 1340
000000f0: 02f2 0c40 7134 0e40 511f 2240 8c53 1840
2.0110357 2.4270494 2.3455336 2.2992914 2.3091722 2.3812454 2.2744374 2.3381572
2.230733 2.5259202 2.1885395 2.4204483 2.302896 2.2961447 2.2195172 2.2218688
2.3240104 2.5146081 2.4126863 2.293331 2.0674777 2.3230355 2.0198739 2.2440078
2.236444 2.3495748 2.4367516 2.1938887 1.976454 2.3000097 2.2221196 2.342539
2.2787285 2.5001183 2.169323 2.2805965 2.2171142 2.3995035 2.2853327 2.3835049
2.3025775 2.3235588 2.235193 2.2365572 2.1593049 2.249 2.3419478 2.3208737
2.0684445 2.5630352 2.2415388 2.5075114 2.2842355 2.3981853 2.4625666 2.308083
2.3727188 2.271703 2.2373152 2.309751 2.202271 2.2219508 2.5331614 2.3800993

bn4.bias f4 [64]
00000000: ebc6 d53e 369e 173f 428f 273f 4d16 063f
00000010: e1e4 203f fa4c 043f 1f0b 123f 11bc 2e3f
00000020: 356d 263f 26af 1f3f f608 133f 1d5c 0c3f
00000030: 933d 073f 1ea2 1b3f f59c 033f fc89 293f
00000040: be8c 103f ccc4 213f 2a43 053f 68ca 0e3f
00000050: 7c7f 253f ca8d 0d3f 7d45 dd3e d5aa 173f
00000060: 401d 063f 096c 2d3f 6959 293f b4eb f13e
00000070: 9e3f fe3e 4886 373f c4d5 173f d962 263f
00000080: f207 203f 4518 4e3f 2aa9 fe3e 4fc1 1c3f
00000090: 51eb 013f 5540 203f 2f65 003f 18ff 163f
000000a0: 4c0f 073f cf2a 233f 8b0f 103f c0e5 073f
000000b0: a9c5 153f ec90 253f 5103 123f bd1a 0d3f
000000c0: 63ba 1c3f 3340 423f 2506 023f 3281 2a3f
000000d0: 2e7d 193f 58b5 f83e d7dc 1c3f 155e 0f3f
000000e0: 3cd5 2a3f 9811 1d3f c0ad 113f b004 0d3f
000000f0: cb3e f43e bf8a 183f 4b6c 263f 3af7 2a3f
0.41753325 0.59225786 0.6545297 0.5237778 0.6284924 0.51679957 0.5704822 0.68255717
0.65010387 0.6237663 0.5743555 0.54828054 0.5282833 0.60794246 0.5141137 0.6622617
0.56464756 0.63190913 0.5205561 0.557776 0.6464765 0.5529448 0.43217078 0.59245044
0.5238838 0.67742974 0.66152054 0.4725014 0.4965791 0.7168927 0.59310555 0.6499458
0.62512124 0.8050578 0.49738437 0.61232466 0.5074969 0.6259816 0.50154394 0.5898299
0.52757716 0.63737196 0.56273717 0.53084946 0.5850473 0.6467426 0.5703631 0.55118924
0.61221904 0.7587921 0.50790626 0.66603386 0.59956634 0.48575854 0.61274475 0.5600293
0.6673162 0.6135497 0.56905746 0.5508528 0.47704157 0.5958671 0.6500899 0.6678349

bn4.running_mean f4 [64]
00000000: 6990 c6be 4bb3 60be 598b fdbe 361b 3f3e
00000010: c946 103f 6aa7 603b f2b4 3e3f c650 11bd
00000020: 795e 183e 3f5b 0c3e 9850 823e aedb 063e
00000030: 2f71 633e 646e a5be e1cd 70be dfe8 163f
00000040: fe9b adbe 1bf3 0c3e 78b7 5f3b dfc6 9a3c
00000050: 8430 e63d 3f61 15be 1a93 513f 5d4a b13e
00000060: bdd8 5c3f 2da4 a4be 3449 993e 9ac9 213f
00000070: 5a97 ff3d 5d7d dfbd 6238 273f cf44 fbbd
00000080: f057 ca3e 391b 8ebe 078d 9f3e b92c e93e
00000090: 344e 67bc 66af 04be a0da dc3e 3b2d 713f
000000a0: 848c 82bc 1117 5f3d 768d 9a3e c6f0 51bd
000000b0: 33ed f43e 267c 9bbe f059 b23e 0dfd 083f
000000c0: 42ca efbe 7f35 f63e 4907 c53e 010c 553f
000000d0: 9406 ba3e 5cbb 74be d738 1dbe 95e9 d0be
000000e0: fb5d 47be f8db 24bf 9a15 adbe 2300 d93e
000000f0: 7bce 203f 980a 1bbe 52cc df3e 12e4 56be
-0.3878205 -0.21943395 -0.49520376 0.18662724 0.5635801 0.0034279474 0.7449485 -0.035477422
0.14879788 0.13706683 0.25452113 0.13169739 0.22211145 -0.32310784 -0.23516037 0.58949083
-0.33908075 0.13764612 0.0034136456 0.018893657 0.11239722 -0.14587878 0.81865084 0.34627047
0.86268216 -0.32156506 0.29938662 0.63198245 0.1248004 -0.10912583 0.6532041 -0.122689836
0.39520216 -0.27755144 0.31162283 0.45541933 -0.014117766 -0.12957534 0.43135548 0.9420964
-0.015936144 0.054465357 0.3018605 -0.05125501 0.4783722 -0.30368155 0.34834242 0.53511125
-0.46833998 0.4808769 0.3848212 0.8322144 0.36333144 -0.23899597 -0.15353714 -0.4080321
-0.19469444 -0.64398146 -0.33805543 0.42382917 0.62815064 -0.1514076 0.43710572 -0.2098544

bn4.running_var f4 [64]
00000000: 5a5d a73e f4cc b23e a300 253f 2f76 a83e
00000010: a948 c63e 8353 e73e 5979 813e c346 963e
00000020: f763 df3e 95d2 a53e fe04 903e f823 d13e
00000030: 5a19 e13e 2970 b73e 3b0e b53e 4665 a73e
00000040: 4cb3 bf3e 5a23 e53e 83ea c73e d8fb bc3e
00000050: e1c5 af3e 7982 d33e 71f8 933e 1539 bf3e
00000060: f00d dd3e d0ea a23e 5542 9a3e 72d6 a63e
00000070: 1cc8 913e 65d3 a13e 918d b73e da40 cd3e
00000080: 45d8 9e3e cfe2 983e 38c7 933e 1e3c a93e
00000090: 4f4d 9b3e f8c4 fa3e 955d aa3e e15b b43e
000000a0: 7c2d bf3e 72c6 973e d93b ae3e 96e8 b63e
000000b0: d3b7 b63e 4026 cc3e 7176 ee3e 52a9 e83e
000000c0: 1259 be3e ff74 cf3e f7eb d93e 6c9d d13e
000000d0: f969 b83e 1b11 f13e 320a c13e 8096 983e
000000e0: 48bb c83e 721f a83e 3017 a33e 9fb7 de3e
000000f0: acee 933e 278a 7f3e 0d65 f03e a8bb af3e
0.3268841 0.34921992 0.64454097 0.32902667 0.3872731 0.45180902 0.25287893 0.29350862
0.43630955 0.32387224 0.2812881 0.40847754 0.43964654 0.3582776 0.3536242 0.32694453
0.3744148 0.44753534 0.39046106 0.36910892 0.34330657 0.4131048 0.28900483 0.37348238
0.43174696 0.31819773 0.30128732 0.32585484 0.28472984 0.31606594 0.35850194 0.4008854
0.31024376 0.2986054 0.2886293 0.33053678 0.3033242 0.489784 0.33274522 0.35226348
0.3733939 0.2964359 0.34030035 0.35724324 0.35687122 0.39872932 0.4657474 0.4544168
0.3717733 0.40518948 0.4256284 0.40940416 0.3601835 0.47083363 0.3770309 0.29802322
0.39205384 0.3283649 0.31853628 0.43499467 0.2889303 0.24955045 0.46952096 0.34322858

lin.weight f4 [36, 64]
00000000: 1d15 86be 1d73 d23e 919b 63be 3c8b 0abe
00000010: 56cb 7c3e 2df5 54bd 28b4 6b3e f3d8 85be
00000020: bcfc 34be 6eb6 9bbe 4542 7c3e d6e0 9f3e
00000030: 885a 09be 3364 d6bd 8b3b b7bd da5d 9b3e
00000040: 2338 1fbe 38cc 12bf c2a5 313d 15e6 03bf
00000050: bc3f acbc 6237 31be 3949 883d 6849 67be
00000060: 4fb9 34be d6a5 dc3d a58e 663e 0d65 473c
00000070: f8d3 bb3e ba57 953e 9b3d 743d 5385 9b3e
00000080: a38a bc3d 1ac4 00be e2cd 93bc dfcc 653d
00000090: 626d debd d6ea a8be 4b68 18bf d954 31bf
000000a0: 99b6 9e3e 75d3 d1bb 8a4e 87bd 6c78 0dbf
000000b0: 4bbd 14bd 1030 a63e eef8 29be 6e0e 30be
000000c0: 3c11 353d 151f 993e 0aca 9c3e 92d3 4cbd
000000d0: f3c1 a1bd 5c4c 31bf 5df3 a1bd 67e5 2c3c
000000e0: db98 013c 7899 983e 195b 433d ed17 973e
000000f0: 3107 58be 4a57 f5bd c7ba d0be 2a32 01bf
00000100: 43bf a0be 14ab e2bd 8c62 9b3e 16f8 c13e
00000110: a681 c23d 0f89 c1be b675 243e a055 07bf
00000120: 786c 31bd 36b0 733e 074c a6be 69a5 ddbe
00000130: abe9 993e 4781 1bbf bf6d 303c 2ce6 93bd
00000140: d6f7 a33e f884 c73e 7430 83be 9c91 793e
00000150: 051b 3cbf 0183 a73e 0748 17bf 83ca 4a3e
00000160: f8c0 1cbf c35e 33bf 4409 8f3d 8f11 e23e
00000170: d427 6dbe c021 1bbf 2135 b43e acca fd3d
00000180: e92d 89bd ac28 963e 9077 383e 3650 35be
00000190: 264a 19be bf3d 70be a2e0 a0bd 1526 473e
000001a0: 353b 8f3e d4d5 78be 73f6 103e a006 903e
000001b0: 4336 83be bfc5 12bf 8f4f 16be 6a67 243e
000001c0: b796 48be 98ac 833e 8f98 ecbd 3398 93be
000001d0: e01e ccbd b7f8 c8be b2e4 fd3d 0c40 babe
000001e0: cee2 01bf bdc2 f3be a44a 823e e030 48bd
000001f0: c557 be3e b70c 42be ce0b 12bf d334 0e3e
00000200: 043e cd3e 5b43 10be 9d6b 913e ef54 c63e
00000210: 217e bfbe c5b1 0fbf 6dec 283e ed48 8f3e
00000220: 4c0e 543e 245b 11be b14c 81be aee5 a5be
00000230: d57b f3bd ea71 3b3d c303 89bd f8f0 9dbe
00000240: 63f3 d03e abd4 b6bd b6fb dcbe adfb a7be
00000250: 5b07 c0bd 3606 8d3e 9447 15be 9780 803e
00000260: 8a16 00bf 30ac b3bd e086 8a3e e145 e1ba
00000270: ffd7 90bd 4462 5abe c541 00bf 5f16 a33e
00000280: 7e19 22bf 17b6 af3e ee46 44be bb72 21be
00000290: f407 47be 0be1 05be 3cf8 cdbc 36f4 dabd
000002a0: 378b 8b3e d7bb 99be 4869 e33e bd06 213e
000002b0: 384c 993e 4ddc 23be d9a0 85bd 16b9 c3be
000002c0: 5080 4fbd 45e1 fbbe e456 c5be a70d 1abf
000002d0: d2c9 46be 894e 7dbe 4030 d33e 49c8 20bd
000002e0: 6daf 10bf b23d 69be f6df b63e 5a85 8d3e
000002f0: b2b9 4abe 6942 35be 85c0 14bf b023 4d3e
00000300: 8676 993e c66c d9be 0a45 273e affa d13d
00000310: 6d8b cc3e 18a8 ccbe 8994 f43e 214a 523e
00000320: a5fd 28be 04a8 12bf d1be 27be f87e d13d
00000330: 0d2b c4be a4b6 cebe 05d0 2cbf f65c 013e
00000340: df75 65be 9714 26be 5749 4d3e 73fd 823e
00000350: dda4 cabe fd06 2fbe 43d3 923c 4cc6 a23e
00000360: 1d9c 0bbf 1bc2 2cbe 8a20 c0be 99d5 fa3d
00000370: dd8d 2dbe e694 bcbe 500a c3bd 2aaa b03e
00000380: 8b5e f2be 5b41 40bd 004a 9e3d 5354 b6bb
00000390: 7b48 0b3e 6219 573e bb65 9bbe b30a 0dbe
000003a0: 26e4 d53e 723b dabd 65d2 823e 4ec7 cd3d
000003b0: 15d9 86bd f881 41be 542c 9ebe c58b 2ebd
000003c0: 5888 9ebe 8945 d4be 183e 1a3d 4840 a6be
000003d0: 56b1 c53e d637 543e 8fb2 92bd f107 1dbb
000003e0: 3144 24bf b5ef 2b3e 0dcc 10be 7f71 b7bd
000003f0: 51c5 f2be 633a ce3d 97f5 7bbe 155a c43e
-0.26187983 0.4110345 -0.22227313 -0.13529676 0.24686942 -0.05199163 0.23017943 -0.26142082
-0.17674536 -0.3041262 0.24634655 0.31226224 -0.13413441 -0.1046833 -0.08946904 0.3034504
-0.15548758 -0.57342863 0.04337097 -0.5152295 -0.021026485 -0.17306283 0.06654591 -0.22586596
-0.17648815 0.10773818 0.22515352 0.0121700885 0.36685157 0.29168493 0.059629064 0.30375156
0.0920613 -0.12574807 -0.018042509 0.056103583 -0.10860707 -0.32991666 -0.5953414 -0.6927009
0.30998686 -0.0064033815 -0.06606777 -0.55261874 -0.036313336 0.32458544 -0.16598865 -0.17193004
0.04420589 0.29906526 0.30622894 -0.050006457 -0.07898321 -0.6925714 -0.07907746 0.010552741
0.007909979 0.29804587 0.0476943 0.2951044 -0.21096493 -0.1197954 -0.407675 -0.5046717
-0.3139592 -0.11067787 0.30348623 0.37884587 0.09497385 -0.3779988 0.16060528 -0.5286503
-0.043316334 0.23797688 -0.3247988 -0.4329026 0.30061087 -0.60744137 0.010768353 -0.07221636
0.3202502 0.38968635 -0.25622904 0.24371952 -0.7347873 0.32717136 -0.5909428 0.19803815
-0.61231947 -0.7006647 0.06984189 0.4415402 -0.23159724 -0.60598373 0.35196784 0.12392172
-0.0669821 0.29327905 0.1801436 -0.1770638 -0.14969692 -0.23461054 -0.07855345 0.19448121
0.2797486 -0.24300319 0.14156513 0.28130054 -0.25627336 -0.57332987 -0.14678787 0.16055074
-0.19588743 0.25717616 -0.11552536 -0.28827056 -0.099668264 -0.39252254 0.12397136 -0.3637699
-0.507367 -0.4760951 0.2544757 -0.048874736 0.37176338 -0.18950163 -0.5704926 0.13887338
0.40086377 -0.14088194 0.28402415 0.38736674 -0.37400916 -0.5613063 0.1649644 0.27985325
0.20708579 -0.14194924 -0.25253823 -0.32401794 -0.118888535 0.045762934 -0.066901706 -0.30847907
0.4081069 -0.08927282 -0.4316079 -0.328092 -0.09376403 0.275438 -0.14578086 0.25098106
-0.5003439 -0.087730765 0.27056026 -0.0017186963 -0.07072448 -0.21326548 -0.50100356 0.31853005
-0.6332015 0.3431861 -0.19167683 -0.15766422 -0.19436628 -0.13074128 -0.025142781 -0.10691111
0.2725465 -0.30026123 0.4441626 0.15725227 0.29940963 -0.16002007 -0.0652482 -0.38227147
-0.050659478 -0.49195305 -0.38542855 -0.6017708 -0.19412926 -0.2473699 0.4124775 -0.039253507
-0.5651768 -0.22777441 0.35717744 0.27640802 -0.197974 -0.17701115 -0.5810626 0.20033145
0.2997324 -0.424658 0.1633493 0.10252892 0.39950123 -0.39971995 0.47769573 0.2053609
-0.16503008 -0.5728762 -0.16381384 0.102292955 -0.38314095 -0.4037372 -0.6750491 0.12633118
-0.22408246 -0.16218792 0.20047508 0.2558399 -0.39578906 -0.1709251 0.017923003 0.31791914
-0.54535085 -0.1687092 -0.37524825 0.12247772 -0.16948648 -0.3683235 -0.09523451 0.34504825
-0.47337756 -0.046937328 0.07728958 -0.0055642514 0.13601868 0.21005777 -0.30351052 -0.13773613
0.41775626 -0.106558695 0.25551143 0.1004778 -0.06584374 -0.18897235 -0.30893195 -0.042613763
-0.30963397 -0.414593 0.037656873 -0.32470918 0.3861186 0.20724425 -0.071629636 -0.0023961032
-0.6416655 0.1679066 -0.14140339 -0.089571945 -0.47416165 0.1006973 -0.24605404 0.38349977

lin.bias f4 [36]
00000000: 3d44 a4bd fc8f 01be 77e7 3a3d 4ecb 79bd
00000010: 72f7 bcbb 7ce1 a2bd 8f8f 2bbd 2972 153e
00000020: 9825 0bbd 53c5 ae3c b675 fdbd e7fa 073e
00000030: c409 9bbc f75d e0bd 54d1 923c 7133 903d
00000040: 98be 00be fc75 c9bd 988b 1d3d ebd7 e6bc
00000050: b5c0 8bbd cc07 a9bd a47f b33c 5164 d13d
00000060: e451 4bbd 2768 563d f011 c93d bb7d a63d
00000070: 5e58 183d 42d2 73bd 303d f4bd 7f1d b33d
00000080: 8050 24bc cb28 8dbb d409 35bc 4c24 9e3d
-0.08020828 -0.12652582 0.0456309 -0.060984902 -0.0057668025 -0.07953164 -0.041884955 0.1459433
-0.0339714 0.021334326 -0.12375967 0.13279305 -0.018925555 -0.10955422 0.017922081 0.07041062
-0.12572706 -0.09836957 0.038463205 -0.02817913 -0.06823865 -0.0825344 0.02191145 0.10224212
-0.049638644 0.05234542 0.098178744 0.0812945 0.03719365 -0.05952669 -0.11925733 0.0874586
-0.010028958 -0.0043078414 -0.0110497065 0.07721767

conv.0.weight f4 [8, 1, 5, 5]
00000000: 18e2 3abd c8eb eb3c eece b5be 37ad 07bc
00000010: 0a13 9dbe 24fc b6be cca4 06bf 7301 4cbe
00000020: c23f 753e 2dd8 b93d 7b5c d8bc fe5a ebbe
00000030: 2448 89be 6417 0bbc 0a0e d0bd 5b1e 4cbe
00000040: 1a0a 283e a4cd b93e 0b6c 64be 8d55 11bf
00000050: b52d 60bc 0457 523d 1df2 99be 64e3 3bbd
00000060: 8a45 5fbe 76c6 68bd 7908 adbd 6eb7 00be
00000070: 4de3 d63e 320b 0dbe 4369 963d be7e 7f3e
00000080: 45aa 8abd d431 a1be eace 333f 6e21 20bd
00000090: 4768 8d3d 82b4 b53e 878c a53e 0998 e0be
000000a0: 2b08 e43e 5a6e c23e 231c 843e a4ca 91be
000000b0: ada8 263e e385 153f 61e1 e63e ab4e 873e
000000c0: d4bc c83d c1e8 cbbe 195c d23e aa1e 3d3e
000000d0: 082d 4d3e 0e01 fdbd 5166 9f3e faa7 53be
000000e0: 7744 563e 5a0e 963e 3dd0 003e 43e3 b63c
000000f0: a65c 3cbe c75c e5be 355a c1be 62b7 19bd
00000100: ebbe 38be 1946 bdbd d689 5bbe 67a4 05be
00000110: cfb8 13bd 0154 d5bc c242 013e bd99 ae3e
00000120: f9ab 123d 7494 193e d76c 55be 8f7d 70be
00000130: 6a67 093e 44cd 81bd 1d2c debe b332 a8bd
00000140: 2a1b dd3d 5be0 73be b85f 4dbe 43bf 7ebd
00000150: d043 fa3d c9f2 173d 2a8c d7be 3586 f6bd
00000160: 2575 07be bb00 693e dcf8 403d 4ec3 ce3e
00000170: 5fdb da3e 8431 3f3f d154 2dbd c4b8 c93e
00000180: 9475 e03e 6f20 863e 3072 683e 9df5 153d
00000190: 54a7 6b3d 0936 d5bd 8642 e8be fd22 91bc
000001a0: 0da1 833d f5cb f33e 641f 5c3e b3fb bb3e
000001b0: 06f3 1ebe af33 9cbe 4757 623e d6b3 193d
000001c0: 8ff2 d3be b206 b9bc 3bbf 54be 6472 99bc
000001d0: 503c 1e3d 1a1d 123d 8298 45be 1bd5 acbe
000001e0: e11c 24be 5b06 0b3e b40e 163e f771 22bd
000001f0: 70ef dbbc 2d36 9d3e b46f b6bd 9dbb a9bb
00000200: 2d46 143e b63d c23c f944 a0be 5476 653e
00000210: e5e2 de3e 3c54 19bd b734 57be a9d7 bebd
00000220: 3067 5dbe 614e 06bf be6b a8be b6d4 743d
00000230: baaf e13d b05b 623e 7052 273b 5ca2 1b3d
00000240: 2809 2dbe 133e 39be ae75 67be c22a 5fbd
00000250: 2035 3ebe 2110 09be 052e fc3e 2789 c8bb
00000260: c854 f13e 969d 8e3e 3136 b6be 5923 3c3e
00000270: bfed 843e 0986 1e3e 5cc6 d8bd cd38 94be
00000280: 912d cfbd 2fd3 2dbe 0414 6ebe 6bde c8be
00000290: 0524 43bf 1704 99be 2732 8cbd 44ee b2be
000002a0: 3c64 44be edc3 93bd 71cf 0a3e 1769 7cbe
000002b0: 094c 4dbe e8a1 c83d 2a57 2a3d 116a 903e
000002c0: 0511 ca3d 7653 cd3e 3eba 35be 1dac 26bc
000002d0: 692f 203f 014a bbbe 9528 f3be a01f ae3a
000002e0: e967 d33d af38 903d de4c b13b b663 cfbd
000002f0: fb05 fdbc fdb4 583e c3fc 1dbf 3f80 21be
00000300: 232e c93e 3187 9bbd 238b af3e 9122 13bf
00000310: 1e19 53be 73a9 99bd 8a0e 67be ecad 843d
-0.045625776 0.028798953 -0.35509437 -0.008281044 -0.30678588 -0.35739243 -0.5259521 -0.19922428
0.23950103 0.090744354 -0.026411286 -0.4596786 -0.2681285 -0.0084894635 -0.10158928 -0.19933455
0.16410103 0.36289704 -0.2230684 -0.56771165 -0.013682772 0.051352516 -0.3006753 -0.045871153
-0.21803871 -0.056829892 -0.08448882 -0.12569973 0.41970292 -0.13773802 0.07344296 0.24950692
-0.067707576 -0.31483328 0.702376 -0.03909438 0.06904655 0.3548928 0.32333776 -0.43865994
0.44537482 0.37974817 0.25802717 -0.28474915 0.16275282 0.5840742 0.45093825 0.26427206
0.09801641 -0.39826015 0.4108589 0.18468729 0.2003671 -0.12353717 0.3113275 -0.20669547
0.20924555 0.29307824 0.12579437 0.022325164 -0.18394718 -0.44797346 -0.37764135 -0.037528403
-0.1804158 -0.09241886 -0.21439299 -0.13050996 -0.03606492 -0.026041033 0.12623122 0.34101668
0.035808537 0.14998037 -0.208423 -0.23485397 0.13418356 -0.063379794 -0.4339303 -0.08212795
0.10796197 -0.23816054 -0.20056045 -0.06219412 0.122199655 0.037096772 -0.42099124 -0.12037317
-0.13228281 0.22754185 0.04711233 0.4038338 0.42745492 0.7468493 -0.042317215 0.39398777
0.43839705 0.2619662 0.22699809 0.03661119 0.057532623 -0.10410697 -0.45363253 -0.017716879
0.064272024 0.47616544 0.2149635 0.3671547 -0.15522394 -0.3050818 0.22103606 0.03752502
-0.41395995 -0.0225862 -0.20776074 -0.018731304 0.038631737 0.035672285 -0.19296458 -0.33756337
-0.16026641 0.13576643 0.14654046 -0.039659467 -0.026847571 0.30705395 -0.089080244 -0.005179836
0.14479895 0.023711067 -0.31302622 0.2240842 0.43532482 -0.037433848 -0.21016203 -0.09318478
-0.21621394 -0.52463347 -0.328947 0.05977317 0.11019845 0.22105289 0.0025531314 0.037996635
-0.16898024 -0.18090086 -0.22603485 -0.054484136 -0.18574953 -0.13385059 0.4925386 -0.0061198655
0.47134995 0.27854604 -0.3558822 0.18372859 0.25962636 0.15480818 -0.10584709 -0.28949586
-0.10116113 -0.16975091 -0.23249823 -0.3923219 -0.76226836 -0.29885933 -0.06845503 -0.34947407
-0.19178861 -0.07215104 0.13555695 -0.24649464 -0.20048536 0.09796506 0.041587032 0.28205922
0.098665275 0.40102738 -0.17746827 -0.010172871 0.6257234 -0.36579898 -0.474919 0.0013284571
0.10322554 0.070420615 0.0054107746 -0.1012644 -0.03088664 0.21162792 -0.6171381 -0.15771578
0.39293012 -0.07594145 0.3428584 -0.5747462 -0.2061505 -0.07503023 -0.2256414 0.064784855

conv.0.bias f4 [8]
00000000: 0f7e b9b9 5b57 883d 7b22 75bc dec0 153d
00000010: 8c80 bbbd 910a dbbc 9283 a5bd 1e8a f03c
-0.0003537987 0.06657287 -0.014961834 0.036560886 -0.09155378 -0.026738437 -0.08081736 0.029362734

conv.1.weight f4 [8]
00000000: 858d 893f 334d 773f b84a 8e3f b4f8 963f
00000010: 8ff0 5a3f ff33 8e3f 642b 6d3f 4f27 313f
1.0746313 0.9660217 1.1116552 1.1794648 0.85523313 1.1109618 0.92644334 0.69200605
