checkpoints/Archive/audio_classifier.pt (torch, 365213 bytes, 86 tensors)

conv1.weight f4 [8, 1, 5, 5]
000000 f2 eb 8f 3d 09 f6 94 3d e6 fa f8 bd 81 9a a2 bd
       0.07027425 0.0727349 -0.1215723 -0.079396255
000010 96 f7 dc bb 65 7c 12 3e e9 b5 c3 be 97 e5 84 3e
       -0.0067433817 0.14305265 -0.38224724 0.25956413
000020 32 95 8e 3d f0 d5 c5 be 88 83 bf be 37 09 5d 3d
       0.069620505 -0.38639784 -0.37405038 0.053963866
000030 e5 08 2c bf f5 ec c2 be 25 30 8b be b4 d0 fe 3d
       -0.6720107 -0.3807141 -0.2718517 0.12442151
000040 a1 7f 00 be 53 33 11 3d c3 48 6b 3e c2 80 e9 be
       -0.12548687 0.035449337 0.22976975 -0.45606047
000050 f9 bf 05 3d 12 3a f3 3d 15 06 65 3e 51 4a 90 3e
       0.032653783 0.118763104 0.22365601 0.281817
000060 a1 4f 81 3e db 07 3d 3d b2 bc de 3e 35 fb 93 3e
       0.25256065 0.04615007 0.43503338 0.28902593
000070 08 92 96 3e d8 44 9c 3e d4 51 c8 3d 9d 3c f5 3e
       0.29408288 0.30521274 0.097812325 0.47897807
000080 ce 41 1d 3e 99 83 1d bd 23 16 e5 bd 18 e2 c0 3c
       0.15357134 -0.03845558 -0.11185863 0.02354531
000090 ac 09 3b be 2c 03 5a 3e d0 55 d7 3e 44 83 dd 3d
       -0.18265408 0.21290272 0.42057657 0.108160526
0000a0 48 4e b9 bd 32 82 1e bf 0a 00 10 be 3f cd 42 be
       -0.09048134 -0.6191741 -0.14062515 -0.19023608
0000b0 0b 06 48 3c ec 48 90 bd 94 81 07 bd c7 be a8 be
       0.012208472 -0.07045159 -0.03308256 -0.32958052
0000c0 91 bd 87 be 0a 29 e6 bd 93 1d 24 be 5b a7 2d 3d
       -0.26511815 -0.11238296 -0.16026907 0.04239593
0000d0 9c 09 d7 bd 2b b0 5f be 55 aa 79 be 7b ec 81 bd
       -0.1049988 -0.21844546 -0.24381383 -0.06343933
0000e0 51 55 05 bd e2 57 82 be 10 3e 90 be 03 8b 49 be
       -0.032552067 -0.25457674 -0.2817235 -0.19681935
0000f0 cb 5e 30 be 1c 44 23 be c9 3c c4 be 4a 60 27 be
       -0.1722366 -0.1594395 -0.38327625 -0.16345325
000100 a6 72 5c 3e 22 0c 0d 3e f0 88 64 3d 39 24 df 3e
       0.2152811 0.1377416 0.055794656 0.43582323
000110 82 7f 00 3e 31 63 17 3d eb f4 8f 3e b2 04 bc 3d
       0.1254864 0.03695983 0.28116545 0.09180583
000120 f5 51 88 3e 4d b7 39 3f b9 ff 78 3e d4 0f 83 be
       0.26625028 0.7254532 0.243163 -0.25598013
000130 e0 fb 0e 3e 07 06 de 3b 58 bc b2 be 38 cd cc 3d
       0.1396327 0.006775621 -0.3490932 0.1000008
000140 02 dd 44 3e 94 cf 99 3e 4d d7 7b 3e 0f 5d 08 3f
       0.19224933 0.30041182 0.2459385 0.53266996
000150 0e 2d 55 3e 88 7f 2b be 08 fb b5 be 2a e5 97 bd
       0.20817968 -0.16747868 -0.35543084 -0.074167565
000160 8e a1 b8 bd c3 27 7b be 1e 7a f8 3e ba 6a 83 be
       -0.09015189 -0.24526887 0.48530668 -0.25667363
000170 35 70 1d be b2 90 3b 3e 43 ec 3b be f4 5a e1 bd
       -0.15374835 0.18316916 -0.18351845 -0.11003676
000180 7a cf db 3d f3 e9 2f 3c 53 60 22 3e cf e8 79 bd
       0.107329324 0.01073693 0.15857057 -0.06101304
000190 b7 cf f3 3d 19 23 31 3e 67 ae 4b 3c 24 34 4a be
       0.11904853 0.17298545 0.0124317175 -0.19746453
0001a0 10 9e 29 3e 64 ca 2b be bf 80 a2 3e ac 86 a9 3d
       0.16564202 -0.16776425 0.3173885 0.0827764
0001b0 01 c0 2c 3f 72 dd 07 be 79 b7 a9 bb 77 bf 8a be
       0.67480475 -0.13268068 -0.0051793423 -0.270992
0001c0 43 5d 29 be 24 25 d1 bd a2 a8 ef 3e a1 4c 66 be
       -0.16539483 -0.10212162 0.46808344 -0.22490169
0001d0 25 6f 4d bf 29 2c ee be 79 91 25 be 10 2a 8c bd
       -0.8024772 -0.46518067 -0.16168775 -0.0684396
0001e0 61 2f ca 3d 78 c0 f5 bd a6 c0 09 3d be e9 9e bd
       0.09872318 -0.11999601 0.03363099 -0.077594265
0001f0 e0 22 83 3e 07 c5 30 3d f7 c8 89 be a5 68 38 3d
       0.25612545 0.04315665 -0.26911137 0.04502167
000200 49 e8 22 3e 3d fb ab 3e ef 16 1b bf 89 3f 9e be
       0.15908922 0.33590117 -0.6058187 -0.30907848
000210 f4 d7 83 3e ea 74 89 be da f0 46 bd 5e 94 00 bf
       0.25750697 -0.2684701 -0.048569538 -0.5022639
000220 1b 64 d5 be 72 a5 55 3d 0b b4 77 3e 7e 32 26 bf
       -0.41677937 0.052159734 0.24189775 -0.64920795
000230 3f d7 d0 3d b4 4c f0 bd ec ec 92 3d 47 e7 0e be
       0.10197305 -0.1173338 0.071740955 -0.13955413
000240 63 74 30 3d 5f d7 24 3e fb f3 81 3e 59 41 a9 be
       0.043079745 0.16097783 0.25381455 -0.3305767
000250 3e f9 f7 bd dd aa ca be bf b7 7e be ee 74 0a 3e
       -0.12108086 -0.39583483 -0.24874781 0.13521168
000260 63 31 c3 3c 2c 75 bd bc 27 74 bb be 6d 18 76 be
       0.02382726 -0.023127161 -0.36612055 -0.24032755
000270 0a 4b e3 be 15 1b ca be 90 09 9a be 23 e1 3b be
       -0.44393188 -0.39473787 -0.3008542 -0.18347602
000280 1f 87 d3 3d 9f eb f9 3d 80 f8 fb 3e c4 40 bf 3e
       0.10328507 0.12203144 0.49213028 0.373541
000290 d9 b8 e8 3e 51 6a 07 3e 7a c2 4b be b8 bd 30 3e
       0.45453528 0.1322415 -0.19898406 0.17259872
0002a0 54 90 84 3d 58 16 e4 3e 9c e6 04 3f ee d6 b4 3e
       0.06472841 0.44548297 0.5191438 0.35320228
0002b0 4b 07 9b bd 71 71 98 3e 10 07 eb bb 97 79 4d 3e
       -0.075697504 0.2977405 -0.007172473 0.20065914
0002c0 d7 94 6e 3d 5f d7 3b bc ea 06 a2 be 70 6f 44 be
       0.058247413 -0.011464923 -0.316459 -0.19183135
0002d0 e1 b7 bb be fe bb d9 bd a8 95 bf be d1 87 a3 3c
       -0.36663726 -0.1063156 -0.37418866 0.019962223
0002e0 d8 b4 94 be 45 bf 87 bc 79 84 f1 3d eb a2 9d 3d
       -0.29044223 -0.016570697 0.11792845 0.0769709
0002f0 da ee cc 3c ef 1c 3c 3e db 2e 36 3f 4b 11 af 3e
       0.025016237 0.18370412 0.71165246 0.3419288
000300 9e cb 1d 3f f5 0f 52 3f db 9b f3 3d 42 03 7a be
       0.6163882 0.820556 0.118949614 -0.24415305
000310 23 d6 99 3e 17 db 80 3e 96 b5 25 be 36 cc 27 bd
       0.30046186 0.25167152 -0.16182551 -0.040966235

conv1.bias f4 [8]
000000 01 b4 82 bb d0 51 2e 3d bb cf 09 bc 02 2a 98 bd
       -0.0039887433 0.04255849 -0.008411343 -0.07429887
000010 a7 11 cf bc 3a e5 4b 3d 0a b6 df 3d d3 23 7f bd
       -0.025276972 0.049779154 0.10923393 -0.062290024

bn1.weight f4 [8]
000000 a7 e1 6d 3f 71 7b 81 3f 24 a1 80 3f db b3 54 3f
       0.92922443 1.0115796 1.0049176 0.8308694
000010 18 e9 7a 3f a6 2b 42 3f 60 b6 8b 3f 4b 12 7a 3f
       0.9801192 0.7584785 1.0915031 0.9768416

bn1.bias f4 [8]
000000 7d 8a be 3e 32 39 74 be 06 cd 8f 3e f5 a7 89 be
       0.37215033 -0.23849943 0.28086108 -0.26885954
000010 09 ca 78 be 82 53 cd 3e 9b 95 5a be fe b6 3b be
       -0.2429582 0.40102774 -0.21346132 -0.18331525

bn1.running_mean f4 [8]
000000 67 6b df bd f2 9a 28 3e 03 17 b0 bd 63 53 9a bd
       -0.10909157 0.16465357 -0.08598139 -0.07535436
000010 87 27 63 bd a7 4a 1c bd 98 b3 22 3e 46 e4 7b 3c
       -0.055457618 -0.03815713 0.15888822 0.015374249

bn1.running_var f4 [8]
000000 65 5e d2 3f 6a 9e cb 3f 89 48 8c 3f 95 78 94 3e
       1.6435057 1.5907719 1.0959636 0.28998247
000010 12 8d 96 3f dd 8b 83 40 df 3f 38 40 7a fa 71 40
       1.1761801 4.110823 2.8788984 3.7809129

conv2.weight f4 [16, 8, 3, 3]
000000 cb 3a 61 bd 75 28 74 3d eb 65 84 3c bb 4c 16 3e
       -0.05498771 0.059608895 0.01616188 0.14677708
000010 f7 be 95 3c 69 57 f6 bd c6 5f e4 bc 18 18 b4 3d
       0.018279536 -0.12028391 -0.0278777 0.08793658
000020 0f 29 4b be ed 0e 56 3e 57 83 8a bd e4 77 5e 3e
       -0.19839881 0.20904131 -0.06763332 0.21725422
000030 70 da d6 bd a2 66 95 3d 80 41 ec bd 12 c7 eb bd
       -0.104908824 0.07294966 -0.11535931 -0.11512579
000040 e6 79 56 bd d4 b6 d2 be ea d6 f0 3d c1 f6 cd 3d
       -0.052362345 -0.41155112 0.117597416 0.1005683
000050 c1 17 1e 3e d6 9b 12 3e 3a cc 0a 3e 38 5f ce 3e
       0.15438749 0.14317259 0.13554469 0.4030702
000060 cc 1e e9 3d 92 fe 29 3e e5 71 0a 3e 30 be 62 be
       0.11382827 0.16601017 0.1352001 -0.22142863
000070 8f 87 3b 3d ad dd 1d 3d 30 95 3f 3d 11 ce 8b be
       0.045783576 0.038541485 0.046773136 -0.27305654
000080 f9 ee 32 be d5 69 87 bc 39 ec 33 be a8 98 37 3e
       -0.17473973 -0.016529957 -0.1757058 0.17929327
000090 2e b9 5c 3e 20 bd b4 3d 9c 22 8c be 9e fe a9 ba
       0.21555015 0.08825135 -0.27370155 -0.0012969559
0000a0 51 08 8f bd c5 b3 5e 3d 1f df f4 bc 17 8c d8 3d
       -0.06984008 0.05437066 -0.029891549 0.10573595
0000b0 6e 99 d8 3d 2d 51 d4 3d 63 dd 86 3e 63 83 87 3e
       0.105761394 0.103670456 0.2634078 0.26467428
0000c0 1d 6f 32 3e 60 be c3 3e cc 4c 95 3e 40 5b 5a be
       0.17425199 0.38231182 0.29160154 -0.21323872
0000d0 d3 83 6a bd c9 33 4e be fe 3b 49 be 2d 33 59 bd
       -0.057254624 -0.20136942 -0.19651791 -0.05302732
0000e0 9b 76 7b be d2 5e 51 be 30 27 60 bd e0 19 17 be
       -0.24556963 -0.20446327 -0.054724872 -0.14755964
0000f0 c2 fe b2 3d ec e4 ea bd f3 6c 21 3e ee c0 1a 3d
       0.087399974 -0.11469445 0.15764217 0.03778165
000100 50 b9 1f be dc a7 70 3d 95 3d 0c be 65 c0 3a be
       -0.15598035 0.058753833 -0.13695367 -0.18237455
000110 fb f7 76 bc ec 04 a4 3e 86 2d c7 3c f2 48 65 bd
       -0.015073772 0.32035005 0.0243137 -0.05597777
000120 dd 06 10 3e 91 08 20 3d 2e c6 9b 3e 18 09 0d be
       0.14065118 0.03907067 0.30424637 -0.13773
000130 f4 cd da bd e5 ff 64 3e 2a d4 a1 bc 5d 7c 16 3d
       -0.10683814 0.22363241 -0.019754488 0.036739696
000140 de 1b ab 3d 12 c8 05 be 84 c3 ad 3e e9 29 82 3d
       0.083549246 -0.13064602 0.3393823 0.0635565
000150 27 70 1d bd b8 20 ee 3d 65 a8 c5 bd da 70 de 3d
       -0.038437035 0.11627334 -0.09651259 0.108613685
000160 3e f5 5f 3e ac 70 03 bd 20 d0 fa 3c db ec 5e bc
       0.21870896 -0.032089874 0.03061682 -0.013606275
000170 58 37 51 be 9c d0 76 3d 81 78 a2 be bb f7 ce be
       -0.20431268 0.06025754 -0.31732562 -0.40423378
000180 da 1d bd 3d aa 13 a6 bc d7 77 0b 3e 5d 95 4a 3e
       0.09234209 -0.020273048 0.13619934 0.1978354
000190 34 4a 8a 3c e2 5e 6a 3d 7b 7a fb be a0 91 b3 be
       0.016881086 0.057219394 -0.49116883 -0.3507204
0001a0 b1 76 6a be 11 60 90 3e f2 ee c2 3d 60 7c 0e 3b
       -0.2289684 0.28198293 0.095182315 0.0021741614
0001b0 47 39 17 be 86 ee 91 be d9 ac ec bc 1c 5a 22 3d
       -0.14767943 -0.2850229 -0.028891014 0.039636716
0001c0 8f 77 83 bc 42 f6 b2 bd 76 4e 91 bd 50 2a 24 be
       -0.01604822 -0.08738376 -0.07095043 -0.16031766
0001d0 e4 a7 fc bc bd 9a 67 3e 8f 2e f0 3c 4e 71 13 bc
       -0.030841775 0.22617622 0.029319076 -0.008999182
0001e0 71 6a c1 bd ca d0 6b bd 37 86 7d bc 73 db 72 be
       -0.0944413 -0.057572164 -0.015473894 -0.23716526
0001f0 1e 9f 08 3c fc 1a e8 be 7f 81 7a bd c4 64 85 3d
       0.008338718 -0.45333087 -0.061158653 0.0651336
000200 32 a5 08 3e fd 52 8e bd 35 13 39 3e 70 ba 47 bd
       0.13344267 -0.069494225 0.18073733 -0.048761785
000210 e2 e4 17 bd c4 70 7c bd f3 2d ea be 18 46 23 be
       -0.037083514 -0.06163098 -0.4573818 -0.15944707
000220 d1 8a 9c 3c 56 ce d8 be 2b fe 8f 3e cc a1 70 be
       0.019109162 -0.42344922 0.28123602 -0.2349922
000230 3e 18 72 3e 43 2a a5 bd dc 78 e3 3d 79 1e 98 bd
       0.2364206 -0.080647014 0.111070365 -0.07427687
000240 42 02 97 be 47 a2 47 be 53 53 93 be e6 76 4d bc
       -0.2949391 -0.19495498 -0.2877451 -0.012540555
000250 83 99 03 be 82 df 3c bd f7 64 33 bd 5a 3e 75 3e
       -0.12851529 -0.04611159 -0.04379746 0.23949566
000260 18 0d 86 3d 94 00 5a be 8f dc 0d be 46 fd 8c be
       0.06545466 -0.21289283 -0.13853668 -0.27536982
000270 8f 0f 1b 3d c2 c2 52 3d af 94 2d be dd 05 e3 bd
       0.037856635 0.051455267 -0.1695125 -0.11085103
000280 02 17 23 bc 71 26 ba 3d 58 9d 30 3e 2c 83 00 3e
       -0.009954216 0.09089363 0.17247522 0.12550038
000290 f7 ae 0e be f1 a0 63 bd 9d 7f 50 3e 35 d0 62 3d
       -0.13933931 -0.055573408 0.2036118 0.055374343
0002a0 b9 53 93 3e e7 a0 53 3e 87 9a 87 3e 13 12 56 be
       0.28774813 0.20666848 0.26485083 -0.20905332
0002b0 af 40 84 be 2c fe 07 be 7b 30 f6 bc bc b8 96 3d
       -0.258306 -0.13280553 -0.030052414 0.07359454
0002c0 b5 5a 36 3d 0d 1b 88 bd c7 88 20 be e8 bd 4c be
       0.0445201 -0.066457845 -0.15677176 -0.19994318
0002d0 56 ce 87 bd ec f1 b5 3d 0f 0e ef be 32 86 e1 bd
       -0.06631152 0.088840336 -0.46690413 -0.11011924
0002e0 39 a3 25 be 67 c8 9b bc 9f 98 02 be 0b 27 91 be
       -0.16175546 -0.019016458 -0.12753533 -0.283501
0002f0 19 33 06 3d 75 27 25 be c8 16 b3 bd 0c 19 95 bd
       0.032763574 -0.16128333 -0.087445796 -0.07280168
000300 bb c1 63 3e dd 48 1b 3e 36 ac 46 3e d2 bf e4 bc
       0.22241871 0.15164514 0.19401631 -0.027923498
000310 0e e9 47 bd fd 56 e2 bd 63 16 3a bd cb a2 c7 3d
       -0.048806243 -0.11051748 -0.045431506 0.09747847
000320 86 38 c6 3d 87 c1 09 be f8 55 de 3d 15 ef 56 3e
       0.0967875 -0.13452731 0.10856241 0.2098964
000330 de 69 b2 3e e8 10 99 3e 06 15 a2 3d 9c b1 b8 be
       0.34846395 0.2989571 0.07914166 -0.36073005
000340 72 88 8e be 0f 10 2b be 70 0d a1 bd 18 90 99 be
       -0.27838475 -0.16705345 -0.07863891 -0.29992747
000350 34 bf 77 be 9b 05 bd 3d 22 76 c8 bd 11 cf 8d be
       -0.24194032 0.09229585 -0.09788157 -0.27697042
000360 ac ff 53 be e4 3d a4 3d 8a f9 34 be f0 0c a5 3d
       -0.20703 0.08019617 -0.17673317 0.08059108
000370 96 b6 1b be 4b cf 40 be 2d 5a e7 bd 4c 52 a1 bc
       -0.1520637 -0.18829076 -0.112964965 -0.019692563
000380 d2 10 5f 3d 43 25 b7 bd 0e 05 53 be 4e d0 9a bd
       0.0544594 -0.08942654 -0.20607397 -0.07559262
000390 c6 1e 83 be 9a 8d 3d be f9 a9 43 be 88 ba 0c 3c
       -0.25609416 -0.18511048 -0.19107808 0.008589394
0003a0 63 45 24 3e c6 f6 62 3d 5c a5 bd 3d ce 1d c9 3a
       0.16042094 0.055411123 0.092600554 0.0015343965
0003b0 da a1 31 3e e9 83 09 3d 5a 3e 17 be d7 97 6b 3d
       0.17346898 0.033573065 -0.14769879 0.057517853
0003c0 3c 86 15 be 59 aa bb 3c bb 0e 21 bd 95 73 a6 3d
       -0.14601988 0.022908377 -0.03932069 0.08127514
0003d0 74 5b 1e 3e 43 ee 4d 3e 54 9c 3c be b5 ec c2 bd
       0.15464574 0.20110421 -0.1841901 -0.095178045
0003e0 15 66 a9 3d 90 d3 1c bd 68 1d dd bc 38 2c a7 3d
       0.08271424 -0.0382877 -0.026991561 0.08162731
0003f0 94 62 c3 3d 8a 56 0e be 3a 08 36 be c9 86 60 3c
       0.09540287 -0.139002 -0.17776576 0.01370401

conv2.bias f4 [16]
000000 70 c3 00 bd 70 fb bb bd 40 a6 a1 bd 28 83 e8 3d
       -0.031436384 -0.09178817 -0.07893038 0.11353141
000010 ea a9 e0 bd 90 11 29 3d b1 81 79 bd f9 63 fe 3a
       -0.109699085 0.041276515 -0.0609147 0.0019408456
000020 64 a1 62 3c 9a b2 c1 bc 48 34 0a be 4a 48 ae bd
       0.013832424 -0.023644734 -0.13496506 -0.08509882
000030 1a a7 42 3d 52 da d6 bd 06 71 07 3d 49 68 bd 3d
       0.04752264 -0.1049086 0.033066772 0.092484064

bn2.weight f4 [16]
000000 c6 00 66 3f 9d d6 44 3f 8f 97 8c 3f 3f c9 8a 3f
       0.8984493 0.76889974 1.0983752 1.0842665
000010 e7 8e 8f 3f e0 e1 66 3f ab ce 4a 3f 81 2a 91 3f
       1.1215485 0.9018841 0.792216 1.1341096
000020 1b 75 83 3f d4 dd 73 3f 65 b9 a5 3f 3d 85 71 3f
       1.0270113 0.9526036 1.2947203 0.9434393
000030 7d eb 7b 3f 85 61 6f 3f 3c 49 77 3f 85 5d 79 3f
       0.984062 0.9350818 0.9659612 0.97408324

bn2.bias f4 [16]
000000 4f d2 9b 3b 73 36 d4 bd 55 4b e7 3d fa de b6 bc
       0.0047552953 -0.10361948 0.11293665 -0.02232312
000010 b3 ff 4f 3d d7 5e a5 bd 7c 73 21 bc 81 7f 3a be
       0.050780963 -0.0807473 -0.009854194 -0.18212701
000020 e1 b9 0e be 57 f2 ff bd 74 1d 48 be ae c2 66 bd
       -0.13938095 -0.124973945 -0.19542485 -0.056338005
000030 c3 78 9f 3d 2a 1e 14 be 06 cf 04 be fc ab 07 be
       0.07786705 -0.14464632 -0.12969598 -0.132492

bn2.running_mean f4 [16]
000000 5a 8a 28 3f 95 4e d8 be 0b 52 39 bf bf 6a 65 bf
       0.6583611 -0.42247453 -0.7239081 -0.89616007
000010 5c 26 f0 bf 46 77 f1 3d 4a 83 f5 bf e8 41 b0 be
       -1.8761706 0.11790328 -1.9180691 -0.34425282
000020 ca 3b 02 3f d4 c7 76 3d af 25 cc bf ae c3 83 3c
       0.5087248 0.060249165 -1.5949 0.016084518
000030 e0 66 da bf 4c 4b 65 bf d2 de 29 c0 29 ea aa be
       -1.7062645 -0.8956802 -2.6542249 -0.33381775

bn2.running_var f4 [16]
000000 8e 36 7e 3f 5e a5 ba 3e 21 65 c1 3f 30 23 ac 3f
       0.99301994 0.3645429 1.5108987 1.3448238
000010 98 7c a9 3f ec bb 7b 3f 2a 35 52 40 1b 73 44 40
       1.3241148 0.9833362 3.2844949 3.0695255
000020 7f cd c3 3f 64 49 7b 3f d1 ac 17 40 cf fe b6 3f
       1.5297087 0.9815886 2.3699229 1.4296511
000030 25 29 9b 3f 65 f6 4c 3f d8 39 fe 3f b9 cb b6 3e
       1.2121931 0.8006347 1.9861403 0.35702303

conv3.weight f4 [32, 16, 3, 3]
000000 7c e8 ce bd 8a 03 43 be 42 b7 7d bd 92 03 d5 bd
       -0.101029366 -0.19044319 -0.061942346 -0.104010716
000010 e2 d3 10 3e 72 f1 15 3e e4 24 1a be 34 f3 17 be
       0.14143327 0.14642885 -0.15053135 -0.14838868
000020 8c 16 54 bc 6d b0 ad bb 1a e2 9d 3b be 5e af bc
       -0.012944829 -0.0053005726 0.004818213 -0.021407481
000030 b8 6a aa be a3 5a b0 bd 76 d4 30 be 58 ca 2b 3e
       -0.33284545 -0.086110376 -0.17268547 0.16776407
000040 b7 0c 11 3e 19 09 b5 3d 4c 23 80 be 03 31 18 be
       0.14165007 0.08839626 -0.2502693 -0.14862446
000050 88 79 5b be c7 fe c0 3d fb 30 66 3d 95 fb 9c bc
       -0.21433079 0.09423595 0.056199055 -0.019162932
000060 e6 46 3c bd b9 73 2c be 3e 71 81 bd 9d f3 2e 3e
       -0.04596605 -0.1684102 -0.06320427 0.17085119
000070 4b c7 54 3e 35 68 25 3e 1c e3 7e be 28 f1 8b bd
       0.20779149 0.16153033 -0.24891323 -0.06833106
000080 d7 31 f2 bc 78 b2 e5 bb ea 95 80 bd 12 f4 ba 3c
       -0.029564781 -0.0070098005 -0.06278594 0.02282146
000090 c2 2c 38 3d 5d 20 78 bd e7 e5 03 3d f2 a9 63 bd
       0.04496456 -0.06057774 0.032201674 -0.055581994
0000a0 86 a9 d0 bd 21 0c 6c 3c d1 ad 02 be 4c 70 d5 3d
       -0.10188584 0.014407189 -0.12761618 0.104218096
0000b0 c7 81 1e bc 2a f3 4c bd 73 01 43 bd 3e ad 3f bc
       -0.009674496 -0.050036587 -0.047608804 -0.011699019
0000c0 fd 82 3c bd 45 89 91 bd 6d 2c 1f be a0 9d 72 bd
       -0.046023358 -0.0710626 -0.15544291 -0.059232354
0000d0 fd ca 9f bb 95 33 63 be 9f af c8 3d 6f 67 f3 bd
       -0.004876493 -0.22187646 0.09799122 -0.11884963
0000e0 57 4d 68 3d 64 bf bc bd d6 fc 01 be 8f 57 7c 3b
       0.056714382 -0.09216192 -0.12694106 0.0038504337
0000f0 93 25 54 be f8 17 2d bd ac 1e f0 bc 5d b0 43 3d
       -0.20717458 -0.042259187 -0.0293115 0.047775615
000100 36 62 19 be 66 63 33 bd ce 66 c6 bc ba 9c 15 bd
       -0.14978871 -0.043795966 -0.024218943 -0.03652642
000110 66 fd 78 bd 9b 8e d0 bd 78 6b 5d be 49 da b9 bb
       -0.060788535 -0.1018345 -0.21623027 -0.0056717736
000120 f1 20 24 be 13 1f 45 be e6 3d ec 3c 05 6f 1f 3c
       -0.16028191 -0.19250135 0.02883811 0.009731059
000130 c5 5b ed 3d 8a 2e e6 bd 49 18 fe 3d bd fb 1a 3e
       0.11589769 -0.11239345 0.12406976 0.15135093
000140 46 94 5a 3e 47 0d 32 3d c7 42 c9 3d 0e b2 0d be
       0.21345624 0.043469694 0.0982719 -0.13837454
000150 40 f2 50 3e 8b 65 0d 3e 35 db da 3d c4 d7 0e 3d
       0.20404911 0.13808267 0.10686342 0.03487374
000160 ab d7 23 be 9d 91 28 3c dd de e3 bd e2 f5 1c 3e
       -0.1600024 0.010288623 -0.11126492 0.15328172
000170 74 04 ee bd ab 21 5e 3b 10 10 0c 3e b3 33 71 3e
       -0.11621943 0.003389458 0.13678002 0.23554878
000180 83 d1 e9 3c d9 33 89 bd 60 5f b6 3c 3e 8f d9 bd
       0.028542286 -0.06699342 0.022262275 -0.106230244
000190 09 23 a9 bd ae f4 1a be 9d 14 08 be e4 89 b8 3c
       -0.082586356 -0.151324 -0.13289113 0.022526689
0001a0 51 7c c5 bd be 06 4a 3d 6c c5 24 3e 59 8c c7 3d
       -0.09642852 0.049322836 0.16090935 0.09743566
0001b0 a3 55 32 bc a8 1c 01 3e 94 56 91 bd ac 83 82 3d
       -0.010884675 0.12608588 -0.070965916 0.06372771
0001c0 8a 9c a4 3d b1 f1 77 bc f7 91 98 3d 32 d3 55 ba
       0.0803767 -0.015133307 0.074497156 -0.0008156776
0001d0 5f 87 86 3e 92 7c eb 3d b8 08 88 3d fd b5 c2 3d
       0.26275155 0.11498369 0.06642288 0.09507368
0001e0 f5 aa c0 bd 54 65 2d be ba d2 17 be b6 c3 b8 3d
       -0.094076075 -0.16933185 -0.1482648 0.09021704
0001f0 cf 16 8b 3e 31 5a 95 3d 2b e4 55 3d 3a 64 96 bb
       0.2716584 0.07292593 0.05221955 -0.0045895847
000200 43 0c 8e 3e 58 71 c0 bd 22 38 52 be ae 41 e0 bb
       0.2774373 -0.093966186 -0.20529225 -0.006843767
000210 2a 30 68 bd 54 33 93 bd 6e c8 68 be 99 e8 a3 3c
       -0.056686558 -0.071875244 -0.22732708 0.020008372
000220 91 07 04 bc f6 e6 15 be 41 b4 ea bd df 4c e4 3d
       -0.008058445 -0.14638886 -0.11460162 0.111474745
000230 bb 46 1e 3d 47 82 0f be 01 c1 ac 3d 48 aa f4 bb
       0.038641673 -0.1401454 0.0843525 -0.007466588
000240 a8 7a 9c be b2 38 ab 3d 9a e8 55 be fd bb 8d bd
       -0.3056233 0.08360423 -0.20889512 -0.069206215
000250 0a 8f cb bc d9 ed 72 bd c6 75 0e 3e c9 5e 1f 3d
       -0.02484848 -0.05930886 0.13912115 0.038908754
000260 1e 5a 9c 3c f2 0a 54 be f7 42 16 be 04 a2 8a bc
       0.01908594 -0.207073 -0.14673983 -0.016922958
000270 17 fd 33 3d 25 28 2e bd 77 e8 5f be f6 30 ba 3d
       0.043942537 -0.042518754 -0.21866022 0.0909137
000280 a2 f4 d5 bd 2f b2 18 be 0f 8d b2 be b4 fb 73 be
       -0.10447051 -0.14911722 -0.34873244 -0.23826486
000290 02 bf 88 be 68 6e f9 3d 3c df e1 3b fe 8c a5 3d
       -0.26708227 0.121792614 0.0068930667 0.08083533
0002a0 6d 02 23 bd 16 b3 7b be 09 60 09 3a d9 3b d1 3d
       -0.039797235 -0.24580035 0.00052404456 0.10216493
0002b0 c3 38 e3 3d 48 fe c7 3d 96 65 9f bd da ff a4 bd
       0.11094811 0.09765297 -0.07783048 -0.08056612
0002c0 78 f9 06 3d 55 44 4b 3e 8d 1c 8f bd 9a 4d 84 3d
       0.032952756 0.19850285 -0.069878675 0.06460114
0002d0 8d b7 09 3d df 22 0f bd 43 ca 77 be 2e 55 22 bc
       0.033622313 -0.034945365 -0.2419825 -0.009908004
0002e0 4b 4c 4d 3d d0 fd 5a be dd f9 29 3e 40 e2 14 3e
       0.050121587 -0.21385884 0.16599222 0.14539433
0002f0 8d 9f 9e bc 66 01 1f be de f7 e2 bd 15 e1 00 be
       -0.01936319 -0.15527877 -0.11082433 -0.12585862
000300 c9 1b 1c be 72 eb 2e 3e 66 5d ef 3d 81 ad 3c 3e
       -0.15244974 0.17082003 0.11687736 0.18425561
000310 bb 99 a2 3e 03 e1 bf bd 1f ee d1 3c d9 1e 5f be
       0.31757912 -0.093690895 0.02562624 -0.21789111
000320 09 db 9e be 27 8f 7c be 82 e3 66 3d 33 ba d1 3d
       -0.31026486 -0.24663983 0.056369312 0.10240593
000330 36 99 12 be 56 d2 3d be 3d 84 c5 bd 8e 4b 79 3d
       -0.14316258 -0.18537268 -0.09644363 0.06086307
000340 9f 93 48 bd 82 47 9e 3d 29 99 fe be 94 f6 71 be
       -0.048968907 0.07728483 -0.49726227 -0.23629218
000350 c0 c9 77 bd cc ac be 3c 6e 34 4d 3e 05 51 14 3e
       -0.06049514 0.023275755 0.20039532 0.14484031
000360 21 f1 99 be 88 56 34 bd f9 7f f0 bc 32 ce 4a 3d
       -0.3006678 -0.044027835 -0.029357897 0.04951305
000370 c5 34 09 3c e2 c9 0e be f1 03 80 3d 10 d8 62 be
       0.008374398 -0.139442 0.06250752 -0.22152734
000380 e8 06 eb 3c 01 09 3b 3e 90 2b fa bd 5f 37 6a 3d
       0.028689817 0.18265153 -0.1221534 0.057181712
000390 2a 13 9f 3d 70 ff 66 be 25 34 94 3e f9 03 07 3e
       0.07767327 -0.22558379 0.28946033 0.13185109
0003a0 a8 a5 08 be 89 70 1b 3e f4 81 bd 3d e4 cb a2 3c
       -0.13344443 0.15179648 0.09253302 0.019872613
0003b0 b8 66 08 be 4b 7e b4 bc c2 0d 66 bd 74 d3 91 be
       -0.13320434 -0.022032877 -0.056165464 -0.28481638
0003c0 03 98 3a bd 67 e9 01 be ec be b3 be a6 b7 14 be
       -0.045555126 -0.12686692 -0.351066 -0.14523181
0003d0 d0 0a 0e be 5c ee 73 3d 9c 7c 86 bc 61 72 69 bd
       -0.13871312 0.05955349 -0.01641684 -0.056993846
0003e0 5f c0 62 3d 14 37 09 3d 31 ba bd 3c 62 54 bb 3d
       0.05535924 0.033499792 0.023160072 0.09146954
0003f0 b7 42 13 bd c8 f8 14 3c 3c 85 f4 bd 20 cf 3f 3d
       -0.035952296 0.009092517 -0.11939475 0.04682839

conv3.bias f4 [32]
000000 f0 84 0c 3d 33 07 2d 3d 04 fc 84 bc 3e c3 cf bb
       0.034306467 0.042243194 -0.016233452 -0.0063404134
000010 94 c8 4d bd 08 d7 d0 3c ec 67 e9 3c 43 37 2d 3d
       -0.050240114 0.02549316 0.028491937 0.04228903
000020 9c ea 7e 3d e9 93 1e 3d 4d d0 13 3d 69 20 39 3d
       0.06223546 0.038715277 0.036087323 0.045196924
000030 5c 50 18 bd cc d2 22 bc e9 8a 40 bc 5e cb c5 bc
       -0.03718601 -0.009937953 -0.011751869 -0.024144825
000040 03 48 4e 3b f4 34 59 bd 18 b2 da 3c ef a3 b6 3c
       0.0031476028 -0.053029016 0.02669625 0.022294967
000050 c6 19 0a bd f9 44 1d bd af b2 f3 bc da ba 89 3d
       -0.033715986 -0.038395856 -0.029748289 0.06725092
000060 44 08 31 3d ac ae 99 3c f2 91 7d bc 98 8e a1 ba
       0.043220773 0.018760048 -0.015476691 -0.0012325821
000070 b2 be 05 bc 00 b5 9e 3c e8 c5 d4 bc 87 97 74 bd
       -0.008163141 0.019373417 -0.025973275 -0.05971482

bn3.weight f4 [32]
000000 38 a9 89 3f 7a ca 71 3f f5 3f 8f 3f 64 d0 71 3f
       1.0754766 0.9444958 1.1191393 0.94458604
000010 58 1f 85 3f a6 63 68 3f 2b 60 9d 3f 2b e7 85 3f
       1.040019 0.9077705 1.2294973 1.0461172
000020 64 f3 8b 3f 1a 43 73 3f 8a 92 7a 3f 87 6f 57 3f
       1.0933652 0.95024264 0.9787985 0.8415455
000030 47 4f 48 3f ba e5 8a 3f ad dd 82 3f c2 ca 81 3f
       0.7824597 1.0851357 1.02239 1.0140002
000040 e8 56 69 3f 34 38 89 3f 1b 3a 82 3f bf ba 98 3f
       0.91148233 1.0720277 1.0173982 1.193199
000050 da bb 83 3f c6 f9 65 3f 50 58 80 3f e2 a4 65 3f
       1.0291703 0.8983425 1.0026951 0.89704716
000060 1a 0d 7e 3f eb 41 77 3f 23 bb 7f 3f 0c ea 7c 3f
       0.9923874 0.9658496 0.9989492 0.9879463
000070 c6 ff 8d 3f 4f 1d 5f 3f 8f 5d 79 3f f7 6f 80 3f
       1.1093681 0.87154096 0.97408384 1.0034169

bn3.bias f4 [32]
000000 d2 79 60 bb 24 6a 62 bd a1 17 17 be 61 aa 0c be
       -0.0034252298 -0.055277005 -0.14755107 -0.1373687
000010 8c 21 82 be e7 eb ca be fa 6b 0b 3c e1 a7 b5 be
       -0.2541622 -0.39633104 0.00850963 -0.35479644
000020 5d aa f5 bd 09 f0 97 be 42 62 dc bd 0b bb a8 3d
       -0.11995385 -0.2967532 -0.10760929 0.082388006
000030 b1 9a e3 bd 87 73 98 be 72 1c 76 bd b0 a1 7d bd
       -0.111134894 -0.2977564 -0.06008572 -0.061921775
000040 63 87 57 be 74 05 a3 be ad 73 ab bd f0 f2 2b bd
       -0.2104774 -0.31840098 -0.08371673 -0.04197973
000050 c2 7e d3 be 4e d1 64 be 88 0d 86 be 33 d0 88 bd
       -0.41307646 -0.22345468 -0.261822 -0.06680336
000060 33 d6 f6 bd 9c 0d 9f 3d 37 9e 82 be e0 a5 cb bd
       -0.12052574 0.07766268 -0.25511333 -0.099437475
000070 5f 0d 1f be 0b 23 a6 be 1d 74 80 be 8d a8 9f be
       -0.15532444 -0.3244861 -0.25088587 -0.31183282

bn3.running_mean f4 [32]
000000 af 9a 26 bf 63 0b 08 bf c2 d9 81 bf 72 6f 83 bf
       -0.6507978 -0.53142375 -1.014458 -1.0268385
000010 2e 46 6c be 62 10 83 3e 0d 2c 5c be bc 79 42 be
       -0.23073646 0.25598437 -0.21501179 -0.1899175
000020 3a 20 7c bf 93 2e 08 bf 0e ee 7f be 13 78 ae bf
       -0.98486674 -0.53196067 -0.24993154 -1.3630394
000030 48 52 38 3f 38 cc a1 bf 5d 8e 24 bf ae 38 4a bf
       0.7200055 -1.2640448 -0.6427973 -0.78992736
000040 0f fe 10 3e 0a 1c 56 bf 2b 9d 40 be 39 69 91 bf
       0.14159416 -0.83636534 -0.18809955 -1.1360236
000050 ff 50 eb be 3f e1 78 3e 79 93 50 bf ed ad 26 bf
       -0.45960233 0.24304675 -0.81475025 -0.6510914
000060 9b 90 57 bf 30 96 f1 be 34 e2 31 bf 46 0d 3e be
       -0.84205025 -0.47184896 -0.69485784 -0.18559751
000070 20 b0 62 bf 83 94 64 be c8 1d 53 bd 70 b4 ad be
       -0.88549995 -0.22322278 -0.051542073 -0.33926725

bn3.running_var f4 [32]
000000 8c eb 59 3f 78 96 55 3f f3 16 7b 3f 45 22 03 3f
       0.8512504 0.8343272 0.9808189 0.51224166
000010 70 ca 41 3f f7 9d 25 3f 1f b5 d4 3f 5e cf 41 3f
       0.7569952 0.6469416 1.6617774 0.7570704
000020 08 e5 62 3f fd f6 22 3f ef c3 cb 3e 44 8f 14 3f
       0.88630724 0.63658124 0.39797923 0.58031106
000030 f1 aa 05 3f 0b 07 16 3f 7a 6a 7b 3f ff 17 12 3f
       0.5221396 0.58604497 0.98209345 0.57067865
000040 e1 9e bb 3e a1 8d cf 3e 4a 47 c1 3e bb 5e 80 3f
       0.36644652 0.40537742 0.37749702 1.002891
000050 cd fc 84 3f 5c e9 1c 3f b4 47 c2 3f fa c4 53 3f
       1.0389649 0.6129358 1.5178132 0.8272244
000060 22 25 1a 3f fe ac 0b 3f 6d e5 11 3f ba 68 45 3f
       0.6021291 0.5456084 0.569907 0.77112925
000070 b6 68 85 3f aa f5 1b 3f bb 4b 2f 3f 53 8c 4f 3f
       1.042258 0.6092173 0.6847493 0.8107349

conv4.weight f4 [64, 32, 3, 3]
000000 d7 5c 60 bd 69 e0 5f be 0b fc d3 3a 3f 0d fe bc
       -0.05477604 -0.2186295 0.0016173137 -0.031012176
000010 e2 26 84 be a7 9b 59 be e1 af 89 bd 4c 04 36 be
       -0.25810915 -0.21250783 -0.06722999 -0.17775077
000020 ec 05 51 3c 2c f2 ab bc 7b 77 26 3d 66 0f 2e 3e
       0.01275776 -0.0209895 0.04064129 0.16998062
000030 2d 8f db bd a8 fe 1e be 6c bb cd bd 80 5e 5d bc
       -0.10720668 -0.15526831 -0.100455135 -0.0135113
000040 7f ea b1 bc 81 b5 8c 3d 38 c2 a2 bc a8 8e 0c 3d
       -0.021718262 0.068705566 -0.019868001 0.034315735
000050 54 04 5e 3d f6 53 62 bc 61 b3 b9 3c 8f c3 5c bc
       0.054203346 -0.013813963 0.022668542 -0.013474359
000060 36 97 42 bc a6 85 94 3b b4 6a 37 bc 30 2d 77 bd
       -0.011876872 0.0045325337 -0.011194874 -0.06034583
000070 8a 38 00 be f4 76 d3 bd f1 05 b7 3c a7 6c f5 b9
       -0.12521568 -0.10325423 0.0223417 -0.00046810994
000080 93 d8 b4 3d 07 50 ed bb 8d 79 84 bd a4 0e d3 bd
       0.08830371 -0.007242206 -0.064684965 -0.10305527
000090 96 64 e3 3d c0 1a 17 3e b5 15 1b 3e c2 11 a7 3c
       0.111031696 0.14756298 0.15145 0.02039421
0000a0 7f cd 9a 3d e1 8f 6b 3d 7c 9e 83 3d 04 28 b1 3c
       0.075587265 0.05751026 0.06426713 0.021625526
0000b0 93 54 cf 3d 92 08 e9 3d bc e5 4f 3e c4 b6 bb 3e
       0.10123553 0.11378588 0.2030248 0.36662877
0000c0 16 42 3b bd b3 fc f6 bd b0 02 8b 3b a6 42 33 bb
       -0.04571732 -0.12059917 0.0042422637 -0.0027352958
0000d0 c0 30 e6 ba 16 5c 46 3e 34 67 73 3d f3 ce ff bc
       -0.0017562136 0.19371065 0.059424594 -0.03122661
0000e0 04 7b f8 bd fa b8 19 bc 34 84 f4 bc 65 97 6c bd
       -0.12132838 -0.009382481 -0.029848196 -0.05776157
0000f0 a6 19 c9 bd 12 5b ca bc d7 64 71 be a5 84 5c bc
       -0.09819345 -0.024701629 -0.23573624 -0.013459359
000100 45 3f 1d be d6 9d d2 bd c7 5e b6 3d 89 fc c7 3d
       -0.15356167 -0.10284011 0.08904796 0.09764964
000110 fd f3 09 3e e7 2c 2d 3d 9b aa a5 bc 48 1b 8f bc
       0.1347198 0.04227915 -0.020222953 -0.017469063
000120 5c d9 ee bc 1a c3 0b bd c4 33 23 bd 83 b3 d3 bd
       -0.02915638 -0.03412161 -0.03984429 -0.103369735
000130 47 8f 07 be 40 9a 66 be 2c 43 9c bd 7f 60 8e bd
       -0.1323825 -0.22519779 -0.076299995 -0.06951999
000140 b2 e8 96 bd dd 2a d0 3c 5b b9 7a 3d ae e0 5a 3d
       -0.07368602 0.025411064 0.061211925 0.053436927
000150 cf a7 ce 3c 76 bf 48 3d 79 4c 6d 3e ae 05 07 3e
       0.025226502 0.049010716 0.23173703 0.1318576
000160 24 a1 da 3d ae 5b ed 3d c6 24 5f bd cf a4 f2 bb
       0.106752664 0.11589752 -0.05447843 -0.0074049006
000170 d8 1f 13 3e ed 8d 4b bc 05 47 05 bd 65 f7 c8 bd
       0.14367616 -0.012423974 -0.032538433 -0.09812812
000180 1b 5e 96 bd 0f f6 2a 3d 40 8c 0e 3d 1a f4 d4 3c
       -0.07342168 0.041738566 0.03480172 0.025995303
000190 a7 2b 49 39 13 6e 22 bb a8 39 9f 3d d8 5c 4a 3e
       0.00019185116 -0.0024784848 0.07774669 0.1976198
0001a0 b1 0a 62 3e c4 8e a7 bc a4 f6 25 be 68 f3 d1 bd
       0.22074391 -0.020453818 -0.16207367 -0.10251504
0001b0 3d 38 2f bd c1 4c 62 be d2 85 a8 bd 93 59 25 3d
       -0.042778242 -0.22099592 -0.08228649 0.040368628
0001c0 62 75 97 3d a0 5b 1a 3d ea e5 ef bc 65 8c 37 be
       0.07395436 0.037685037 -0.029284436 -0.1792465
0001d0 ad 67 31 be 73 d9 4a 3d 13 27 71 3d cf cb 07 3e
       -0.17324705 0.049523782 0.058875155 0.1326134
0001e0 92 2d db 3d fe 16 57 3d ee 2d 66 bd c9 4f 3a 3e
       0.10702051 0.05251216 -0.056196146 0.18194498
0001f0 c4 24 c3 3d 0a 12 89 3d e7 6c ab 3d e5 bc cf 3d
       0.09528497 0.06692894 0.08370381 0.10143451
000200 1d e3 69 3c 7c 23 b1 bd 74 53 03 3d c9 3a 7a be
       0.014275339 -0.08649346 0.03206201 -0.24436487
000210 ea 24 23 3d 8f 8f d7 3c 9f f3 be 3d bb 2d be bb
       0.039830126 0.026313571 0.09323811 -0.0058037913
000220 5c f3 9c 3d 2f 6c eb 3d d1 75 04 bd 94 7b c3 bd
       0.076636046 0.11495244 -0.03233892 -0.09545055
000230 d3 a7 9d bd 1c c9 ae 3d a3 df 65 3d 90 46 79 3d
       -0.076980256 0.08534452 0.05612148 0.06085831
000240 b6 b9 4f 3c 8c 05 27 bd 56 b5 1d be 33 c8 3f bd
       0.012678554 -0.040776774 -0.15401205 -0.046821784
000250 17 f3 8f bd 54 82 b8 bd f7 0e a7 3d 41 75 97 3d
       -0.070287876 -0.09009233 0.08157151 0.07395411
000260 92 f3 9d 3c 1a 80 94 3d 49 87 5d 3d 43 ff 71 3d
       0.019281182 0.07250996 0.054084096 0.059081327
000270 eb 68 a8 bc 51 7b 17 bd 9e 55 d3 bc 35 a2 73 bc
       -0.020557841 -0.036982838 -0.025797661 -0.014870216
000280 66 2d 39 bd 83 de 79 3c 55 76 96 bd 00 2e 32 be
       -0.04520931 0.015250805 -0.07346789 -0.1740036
000290 37 54 61 be 36 b1 9c 3d e5 d4 1f 3d 63 d4 1b 3e
       -0.22004782 0.07650988 0.03902139 0.15217738
0002a0 da 8a 2f be c5 d7 4a be 0e 81 9d be 68 de 8b 3c
       -0.17142811 -0.19808872 -0.30762523 0.017073825
0002b0 a0 5d 1c 3d 3e 69 fd 3d 3d a9 f2 3d 2a 12 8a 3d
       0.038175225 0.12373589 0.11848686 0.06741746
0002c0 2c e2 d4 3d cf f1 e0 bc 1f d5 f6 bb 56 a7 d5 bc
       0.10394701 -0.027459053 -0.0075327302 -0.026080769
0002d0 bd dc b1 bb eb 36 3f 3d 14 d6 2b bd 46 bb 30 3d
       -0.0054279254 0.046683233 -0.041952208 0.043147348
0002e0 c4 7e e1 3b fa 1e da 3c 7d a6 42 3c a4 9d 63 bd
       0.0068815667 0.026626099 0.011880514 -0.05557026
0002f0 91 58 21 3d a9 57 5b bb 06 d5 b4 b9 b5 ac 4b bd
       0.039391104 -0.0033468998 -0.0003449099 -0.049725253
000300 de 64 28 3e 26 7a 84 3e 71 73 7d 3e dc 20 ad bd
       0.16444728 0.25874442 0.24751069 -0.08453533
000310 5a cc c1 bd ad 14 63 bd 5b 27 aa bc b1 53 5f bd
       -0.09462805 -0.05543964 -0.02077072 -0.054523174
000320 9e 4e d4 3d 67 e2 3f be ff d2 19 be fd 7a 38 be
       0.103665575 -0.1873871 -0.15021895 -0.18015666
000330 d5 87 86 3b 3a 49 1b 3c bc ef c1 3c 20 b0 a8 bd
       0.004105548 0.009477908 0.023673885 -0.08236718
000340 55 3e 73 bd 64 bb 17 be c2 08 5d bd 44 0a 80 bd
       -0.059385616 -0.14817578 -0.05396343 -0.06251958
000350 a3 5b a7 bc 87 97 de bd e3 78 19 be fa a2 60 be
       -0.020429438 -0.10868745 -0.14987521 -0.2193717
000360 4d b4 7c bc b3 47 9c bc b3 08 9d bd a6 af 8a 3d
       -0.015423846 -0.019077158 -0.07667675 0.067717835
000370 10 cf ba 3d 1b 34 ff 3a 4b 09 29 be ac 3d 10 be
       0.09121525 0.0019470485 -0.16507451 -0.14086026
000380 c7 15 44 be f8 53 bf 3c dc 52 d1 bc 33 c5 9c bd
       -0.19148932 0.02335547 -0.025552206 -0.076548
000390 b7 3f e6 3c 02 a5 00 3d 58 fb 6e 3d 5b f2 85 bc
       0.028106553 0.031407364 0.05834517 -0.016350916
0003a0 b7 08 bb bd db 0d 13 bd b6 a5 19 3d 8d e6 2f 3d
       -0.091325216 -0.035901885 0.03751155 0.04294448
0003b0 82 5f 2f 3d 2d 6a 9b 3d 05 b4 d6 3d 40 0b 63 bd
       0.042815693 0.07588611 0.10483555 -0.05543065
0003c0 5f 03 58 bd 80 74 48 3b dc b9 5b bb 12 63 c4 bd
       -0.05273759 0.0030587018 -0.003352753 -0.09589209
0003d0 93 1a ea bd 9e 44 10 be 79 18 25 bd 51 84 83 bd
       -0.1143085 -0.14088675 -0.040306542 -0.06421722
0003e0 27 fc f2 bc d9 be 4f 3e e0 8e bc bd 6d 95 31 bc
       -0.029661251 0.20287646 -0.09206939 -0.010838849
0003f0 50 12 99 bd 32 8b 9e 3d 28 b6 6e 3c 89 36 8b 3c
       -0.07474196 0.07741393 0.014569797 0.016993778

conv4.bias f4 [64]
000000 cb 31 4b bd fe fe 33 3c 40 16 bd 3c 6c 8f 18 bc
       -0.049608033 0.010986088 0.023081899 -0.009311538
000010 35 57 d2 bb 91 be a2 bc c2 3d 9d 3b e2 2e 45 3c
       -0.0064190873 -0.01986626 0.004798622 0.0120351035
000020 26 6a c0 bb c0 43 cd bb 96 6c ee ba 2e 8a 0f 3c
       -0.005872029 -0.00626418 -0.001819032 0.008760972
000030 9e b6 d1 bc 95 61 48 3d 3b 9f b0 3c 35 5c d1 3b
       -0.025599774 0.048921186 0.021560302 0.0063891658
000040 3c d1 93 3b 8e d6 be 3b 40 c7 c7 bb d7 03 ba 3b
       0.0045110267 0.0058239168 -0.0060967505 0.0056767273
000050 5f d1 cc 3b e3 1f 56 3d 49 d6 39 3b 5d 92 34 3c
       0.006250545 0.052276503 0.0028356484 0.011021224
000060 2b 6f 48 bc 97 67 b5 bc 93 79 33 ba f8 83 b5 bc
       -0.012233536 -0.022144122 -0.0006846424 -0.022157654
000070 97 b0 7c bd dd 27 c0 bc 0f 7d 0b bb 96 c5 c0 3c
       -0.061691847 -0.023456508 -0.0021284258 0.023531716
000080 03 b5 62 3c c5 1f 87 bb 9a 23 5c bc 3d 20 d2 3a
       0.013837102 -0.0041236603 -0.013436222 0.0016031336
000090 78 54 ae 3c 4e 87 b2 3b 03 2e 5d 3c 9f 79 ac bb
       0.021280512 0.0054482585 0.01349974 -0.005263522
0000a0 43 3c 90 3c 79 f5 09 3d d9 e0 33 bd 92 93 37 3d
       0.01760686 0.033681367 -0.043915603 0.04481847
0000b0 9c e3 32 bc 76 06 b7 bb c9 0f 11 3b 7e 0e f5 3b
       -0.010918524 -0.005585487 0.0022134653 0.0074785342
0000c0 37 b3 83 bc f8 1a c5 3c 9d c0 e0 bc 24 ec fc bb
       -0.016076667 0.024060711 -0.027435595 -0.00771858
0000d0 96 99 90 3c e0 73 e2 bc 9d 5a 65 3c c3 6c 65 3b
       0.01765136 -0.027643144 0.013998655 0.0035007454
0000e0 1b ea ba 3c da 6b 2f 3c db d9 a3 bc bf e3 b9 bb
       0.022816708 0.010706866 -0.020001343 -0.0056729014
0000f0 37 5f ab 3c 4d b9 bc ba 63 2f bb bb 13 cd d4 3b
       0.020919425 -0.0014398486 -0.005712436 0.0064941733

bn4.weight f4 [64]
000000 80 c9 26 40 6f 22 26 40 1a 82 08 40 02 2c 03 40
       2.6060486 2.5958517 2.1329408 2.049561
000010 ed a6 0e 40 9f 2f 25 40 3a 1c 16 40 e4 74 10 40
       2.2289383 2.5810316 2.3454728 2.2571344
000020 38 bf 18 40 51 f1 1b 40 7a 2d 16 40 5a 36 1e 40
       2.386671 2.4366038 2.3465257 2.4720674
000030 d5 8e 18 40 dd 96 28 40 d2 3a 09 40 36 f2 13 40
       2.3837178 2.634208 2.144215 2.3116584
000040 fc aa 05 40 78 4a 19 40 c2 e3 18 40 d1 d7 1b 40
       2.088561 2.3951702 2.3889012 2.4350474
000050 60 74 18 40 8c 97 15 40 04 1f 24 40 a3 00 09 40
       2.382103 2.3373747 2.564393 2.1406639
000060 84 6c 0b 40 67 f7 1a 40 01 b2 15 40 dc f8 15 40
       2.1784983 2.4213502 2.3389895 2.3433142
000070 8b c9 20 40 4d f2 28 40 9e d6 12 40 33 e7 1e 40
       2.5123012 2.6397889 2.2943492 2.4828613
000080 53 05 20 40 77 5e 17 40 f7 4d 1d 40 5d 10 14 40
       2.500325 2.3651407 2.4578836 2.3134987
000090 05 cf 0f 40 28 12 26 40 76 9f 1d 40 a1 7c 14 40
       2.2470105 2.5948582 2.4628577 2.3201067
0000a0 0a 90 1c 40 ed 0c 1c 40 c8 58 28 40 6a dd 0e 40
       2.4462914 2.438289 2.6304188 2.232264
0000b0 50 96 1d 40 b5 91 2e 40 6b d8 18 40 d7 58 1d 40
       2.4622993 2.7276433 2.388209 2.4585474
0000c0 ca 44 19 40 a5 1d 06 40 ef fd 2f 40 ec 6e 2c 40
       2.3948236 2.0955594 2.7498739 2.6942701
0000d0 b6 98 0f 40 a3 a1 1d 40 5f 93 11 40 f2 46 22 40
       2.2436957 2.4629905 2.2746198 2.5355802
0000e0 7c 08 14 40 b4 ca 10 40 90 51 26 40 8b 10 23 40
       2.3130178 2.262372 2.5987282 2.5478847
0000f0 12 e5 34 40 dc 31 0c 40 cc a8 12 40 93 a8 1b 40
       2.8264813 2.1905432 2.2915525 2.432164

bn4.bias f4 [64]
000000 d7 db c9 3e 31 cf d9 3e d2 f5 0d 3f 2a 5e ba 3e
       0.39425537 0.42540887 0.5545322 0.36399966
000010 4c 8e bb 3e 9d 02 c5 3e b2 d6 e9 3e a0 f9 fb 3e
       0.36632 0.38478556 0.45671612 0.49213886
000020 98 bf 14 3f 8e 45 ee 3e 7c 66 cd 3e 4b 7a 1f 3e
       0.5810485 0.4653744 0.40117252 0.15573995
000030 97 0f 0b 3f 0e 87 15 3f f8 7b 85 3e db 2b f0 3e
       0.54320663 0.584092 0.26071143 0.4690846
000040 e1 c5 ee 3e 16 0e e4 3e d7 01 bf 3e e1 e2 d5 3e
       0.46635345 0.44541997 0.3730609 0.41774657
000050 80 31 69 3e 15 7a cb 3e e8 f6 07 3f cf 0b e0 3e
       0.22772789 0.3974158 0.53111124 0.4375901
000060 d6 1c e9 3e 25 e8 ef 3e 65 0b 84 3e d6 b7 01 3f
       0.45529813 0.468568 0.25789943 0.50671136
000070 b4 3a 14 3f 23 42 d2 3e 74 fe d0 3e fb b9 e7 3e
       0.57902074 0.41066083 0.40819132 0.4525908
000080 15 e1 0b 3f e6 0a aa 3e c1 97 c5 3e 0b 71 e3 3e
       0.5464032 0.3321144 0.38592342 0.44422182
000090 e4 9d fb 3e 82 79 19 3f de 1c f4 3e 4b 38 c6 3e
       0.49143898 0.5995103 0.47678274 0.38714823
0000a0 c7 28 e8 3e 7e a0 ba 3e e9 60 ea 3e 99 de 99 3e
       0.4534361 0.3645057 0.45777062 0.3005264
0000b0 2e 18 c8 3e 2a bb 91 3e 92 e5 c7 3e 88 bb ef 3e
       0.39080948 0.28463107 0.39042336 0.46822762
0000c0 bc 2d f5 3e d8 96 0b 3f 5a 70 c4 3e 3b 04 c4 3e
       0.47886455 0.54527044 0.38366967 0.38284478
0000d0 c2 b4 b4 3e 46 15 f7 3e 1d 56 09 3f b8 76 b5 3e
       0.35294157 0.48258418 0.53647023 0.35442138
0000e0 91 2e 85 3e 5e c7 d0 3e 2b f0 c2 3e 8b 3f aa 3e
       0.2601209 0.40777105 0.3807386 0.33251604
0000f0 a1 28 f0 3e 21 94 d9 3e d9 1c ee 3e 21 2b d6 3e
       0.46905997 0.42495826 0.46506384 0.4182978

bn4.running_mean f4 [64]
000000 08 d5 10 bf 50 ba f4 be 9e ff 09 3f 17 2b 37 be
       -0.5657506 -0.47798395 0.53905666 -0.17887531
000010 f2 1b c1 be 53 34 d0 3e a3 b9 a3 be 27 81 04 3e
       -0.37716633 0.4066492 -0.31977567 0.12939893
000020 86 5b eb 3c 82 51 d3 3e e6 e4 d1 3d 78 e5 4c 3e
       0.028730165 0.41273123 0.10248737 0.2000941
000030 87 3f 1c 3d d7 ce 70 3e 9b d9 c4 3e d2 17 b9 3e
       0.038146522 0.23516403 0.3844727 0.36150986
000040 12 96 2b 3f d6 aa 8d 3e 64 50 b6 be 4c a7 6f 3d
       0.67025864 0.276694 -0.35608208 0.058509156
000050 cc 8b 74 be 57 78 04 bf cc 33 8b 3e 9e a9 15 3d
       -0.23881453 -0.51746124 0.27187955 0.036538713
000060 13 d5 0a be 83 f0 df 3e d5 85 72 bd 39 c9 23 3e
       -0.13557844 0.43738183 -0.059209663 0.15994729
000070 1e 54 4d bf 6e e5 3b 3e 66 1f 63 bd 58 d6 f3 3e
       -0.8020648 0.18349239 -0.055449866 0.4762447
000080 c0 09 da bd 09 83 b6 3c f3 52 c1 3e 63 ae 11 bf
       -0.10646391 0.02227928 0.37758598 -0.5690672
000090 f7 9c 54 bd 74 ba 70 3e b5 f0 10 3f 60 1f 6f be
       -0.051907506 0.23508626 0.5661729 -0.23351812
0000a0 38 af 87 3e 26 3b 12 3f b5 88 eb 3e 3c c5 12 3e
       0.2650087 0.57121503 0.46002737 0.14333051
0000b0 12 be f1 3e b1 65 fe bc c0 9d 1c be ba 78 f9 3e
       0.47215325 -0.03105435 -0.15294552 0.4872492
0000c0 1e 48 a4 3e 71 c1 20 3f ea 29 e1 3c 04 9f 15 be
       0.3208627 0.6279517 0.027485806 -0.14611441
0000d0 06 20 94 3e ab d8 25 3f 2d e0 36 bc 32 96 e5 3d
       0.28930682 0.64783734 -0.011161846 0.11210288
0000e0 7b 0d 49 be 66 f6 86 3e ac a2 b6 be de 0f bd 3e
       -0.19634049 0.26359862 -0.35670984 0.36926168
0000f0 50 9a 47 3e 12 74 0d 3f 6f 3e 80 3e fa a7 cd 3d
       0.1949246 0.55255234 0.25047633 0.100418046

bn4.running_var f4 [64]
000000 c9 7e 00 3f b9 33 12 3f a1 91 f7 3e 16 ed c7 3e
       0.5019346 0.5711017 0.48353294 0.3904807
000010 81 af f5 3e 87 bf 07 3f 7a a7 fe 3e 96 87 bf 3e
       0.4798546 0.5302662 0.4973715 0.3740813
000020 49 4e b1 3e 46 ea 1e 3f 58 5a e0 3e d6 56 18 3f
       0.3463004 0.6207622 0.43818927 0.595075
000030 34 aa b6 3e ae 0a d5 3e 48 ff 35 3f 79 89 27 3f
       0.3567673 0.4160971 0.71092653 0.6544414
000040 1c 2a 1d 3f 45 71 01 3f e2 6d 33 3f b5 e2 23 3f
       0.6139238 0.5056346 0.7008954 0.640178
000050 c5 0e d7 3e 3d 25 2a 3f b9 0d bb 3e d5 5a d2 3e
       0.42003456 0.6646307 0.36533907 0.41084924
000060 2e 1d c8 3e 30 f3 04 3f ef 9a 10 3f 27 bc b7 3e
       0.39084762 0.51933575 0.5648641 0.35885736
000070 f0 21 c0 3e 6f f0 00 3f 38 e6 ec 3e db 74 0c 3f
       0.37525892 0.5036687 0.46269393 0.5486581
000080 53 aa ab 3e 9e 4f f8 3e 3c 4d 0e 3f 5a 27 0c 3f
       0.33528385 0.48498243 0.555866 0.54747546
000090 d4 66 b5 3e 40 05 ef 3e 16 15 01 3f 4d 39 0b 3f
       0.35430014 0.46683693 0.504228 0.5438431
0000a0 da 29 c3 3e 46 6b 29 3f 12 4c 14 3f 88 d7 af 3e
       0.38117868 0.6617931 0.57928574 0.34344125
0000b0 74 5f ee 3e ab 1f 12 3f 27 8a 08 3f b1 14 2b 3f
       0.465572 0.5707957 0.53335804 0.6682845
0000c0 4e a6 0b 3f d2 9c 08 3f b8 46 19 3f c8 ab 0c 3f
       0.54550636 0.5336429 0.59873533 0.5494962
0000d0 49 d0 f1 3e 95 70 eb 3e 7a 4a bf 3e 41 99 3e 3f
       0.4722922 0.4598433 0.3736151 0.74452597
0000e0 2e d5 c2 3e f9 c3 e6 3e 28 0d 06 3f 7d ef 01 3f
       0.38053268 0.4507139 0.52363825 0.50756055
0000f0 44 c5 2e 3f 45 ff dc 3e 28 80 07 3f 07 56 17 3f
       0.68269753 0.43163505 0.52929926 0.5911564

lin.weight f4 [36, 64]
000000 98 44 47 3e d1 1b f6 be ea f6 c8 3e ec b2 e2 bd
       0.1945976 -0.48068097 0.3925088 -0.11069283
000010 d2 03 ec bc f7 3d ff bc fa 4d 74 3e 1f 0a 39 3e
       -0.028810415 -0.031157477 0.2385787 0.18070267
000020 3d 49 e8 bd b4 0c 63 be b2 cf 80 3c 1c 7e a3 bc
       -0.11342094 -0.22172815 0.015724037 -0.019957595
000030 57 34 9b 3d d3 0a 21 bd df 33 1d 3e 2b dd a3 3d
       0.075783424 -0.039316963 0.15351819 0.08001169
000040 d7 f2 3f 3e 5f 3b 6f bd 8d 6b 10 3e f1 c6 41 3e
       0.1874498 -0.05840623 0.14103527 0.18923546
000050 45 32 3d be 57 ca 1a 3e 52 64 2f bf f6 f8 30 3e
       -0.18476208 0.15116249 -0.6851245 0.17282471
000060 6c e0 a7 3e ff 04 4a be 17 eb 5d 3e 1a e0 b9 be
       0.32788408 -0.19728468 0.21671711 -0.36303788
000070 21 60 22 be 3d 8f 1a bf f2 36 37 be 35 a4 09 bf
       -0.15856983 -0.60374814 -0.17892054 -0.53766185
000080 93 e0 3d bf 26 6a 3e be 72 bd 68 be b4 e3 f1 be
       -0.741708 -0.1859518 -0.22728518 -0.47244036
000090 f7 07 28 3e bf 67 3f 3e 68 9f a1 be 35 81 9c 3d
       0.16409288 0.1869192 -0.3156693 0.07641832
0000a0 8f c0 38 bf 9b 31 92 3e c6 77 18 3e 35 42 db 3e
       -0.7216882 0.2855347 0.1488944 0.4282395
0000b0 21 41 01 be ad 98 d7 3e 81 8a b3 3e e4 6d 2f 3d
       -0.12622501 0.4210867 0.35066608 0.04282941
0000c0 f6 40 2a bc f5 b2 61 3d fc c1 31 be 8b 85 cc 3e
       -0.010391464 0.055102307 -0.17359155 0.39945635
0000d0 78 84 c1 be 6a 22 b2 be f6 53 c0 3d a6 15 51 bd
       -0.37796378 -0.3479188 0.09391014 -0.051046036
0000e0 48 da 5b 3e cf ee 13 3d c1 b6 b9 be 56 d9 3d bb
       0.21469986 0.036116417 -0.36272243 -0.0028968654
0000f0 38 02 76 3e 14 68 16 be ee 4e 0e be ef f1 19 3e
       0.24024284 -0.1468814 -0.13897297 0.15033697
000100 ab 55 f0 3e 67 ab aa 3e 8e fe 0c bf d6 d0 c3 bd
       0.4694036 0.33333895 -0.5507592 -0.09561317
000110 e1 ac 10 3d 7c 40 93 3d 93 34 ba 3e ab 8e d9 be
       0.03532112 0.07190034 0.36368236 -0.4249166
000120 d8 f8 bc be 84 ee 8e 3e e7 02 1c 3e 92 3c 23 bf
       -0.36908603 0.27916348 0.15235482 -0.637643
000130 fb 8e d9 be fa d5 c0 3d 0e 30 21 bf 03 a9 a8 bd
       -0.42491898 0.09415813 -0.6296395 -0.082353614
000140 14 82 55 bf b2 d3 98 3e 73 ff 05 bf 26 03 1a 3d
       -0.8340161 0.2984901 -0.5234291 0.03760066
000150 44 35 89 be 22 a1 57 bc 0c e0 e8 3e 8c 99 0a bf
       -0.2679845 -0.013160976 0.45483434 -0.54140544
000160 fe a7 de be e6 c9 8d 3d d2 b3 ac 3d aa ea 4a bd
       -0.43487543 0.06923275 0.084327355 -0.0495402
000170 24 e1 81 3e 41 ae a5 3c c6 00 a0 3e ef 75 6f 3e
       0.2536708 0.020224692 0.3125059 0.23384832
000180 51 31 ad 3c 19 6b 0c bd a8 9b 0f bf 29 e5 a2 3e
       0.02114168 -0.034281824 -0.5609689 0.3181546
000190 89 9a 7b bd 44 91 04 3e 10 24 be 3c 4b d3 3e be
       -0.061426673 0.1294604 0.023210555 -0.1863529
0001a0 da 5a 86 bc 61 79 d7 3e 87 f0 5f 3e 5e 22 62 3e
       -0.016400743 0.42084792 0.21869098 0.22083423
0001b0 a5 1e 98 bb d6 79 10 3e 74 b3 12 bf c3 53 d1 be
       -0.004642325 0.14108977 -0.57305074 -0.40884218
0001c0 62 76 e3 be dd 68 96 be 4d 1a e0 bd ef a8 19 bf
       -0.44426256 -0.2937688 -0.109425165 -0.600234
0001d0 08 f7 8d 3e 07 ff a9 3e 77 a3 7a be 4c c7 aa be
       0.27727532 0.33202383 -0.2447642 -0.33355176
0001e0 40 c5 d7 bd 83 86 c7 be 0b d7 e1 be a9 d3 a9 be
       -0.10535669 -0.38969812 -0.44109377 -0.33169296
0001f0 61 e8 2d bf 70 f7 d9 3e aa 86 8b 3e 28 f8 5b be
       -0.6793271 0.42571592 0.27251178 -0.21481383
000200 b9 7a 63 3e 0b 2d d9 3e 2c 65 01 be 12 ab 2a 3e
       0.22214784 0.42417178 -0.1263625 0.1666682
000210 c8 02 01 bf 8d 74 c5 be 34 cf 89 be b7 f2 c4 be
       -0.5039487 -0.38565484 -0.26915896 -0.38466427
000220 33 9e 9f be 51 ed f7 3d ae 24 a6 3e c9 9a 38 be
       -0.31175384 0.121058114 0.3244986 -0.18027796
000230 43 14 22 bf 29 70 5a bd 5d 0b e3 bd de 28 28 bf
       -0.63312167 -0.05332962 -0.11086152 -0.6568736
000240 c4 de c6 3d 64 fe 80 bd 88 21 98 be 6a 4a 90 3d
       0.09710458 -0.06298521 -0.29713082 0.07045443
000250 f8 2c bd be 7f ae ac bd a4 2f b2 3e 83 56 af bd
       -0.3694837 -0.0843172 0.34801972 -0.08561423
000260 ab 0f 89 3d 52 13 98 3e fa 76 5c be cb 27 67 be
       0.066924416 0.2970224 -0.21529761 -0.22573774
000270 43 eb a8 3e 59 7e 03 3d 00 f8 6f 3e 6e 14 93 3e
       0.3299199 0.032102916 0.23434448 0.28726524
000280 29 79 cf 3e f5 58 bf be 1f ee 52 bf 12 7a 9c 3e
       0.40522125 -0.37372556 -0.82394594 0.30561882
000290 a8 e0 cf be fd 51 95 3e a3 78 26 3d 57 8c 9c be
       -0.40601087 0.29164115 0.040642392 -0.3057582
0002a0 24 7e d5 bd c4 1c 3a 3d 90 e0 ab 3e ba c7 c3 3e
       -0.1042445 0.04543759 0.33569765 0.38238317
0002b0 47 37 a1 bc 05 fa ca 3e b1 e5 2a be 21 64 37 bf
       -0.019679679 0.39643875 -0.16689183 -0.7163716
0002c0 76 57 1a be aa 9a e5 bd 50 0d 61 be 1c 4f 3a bf
       -0.15072426 -0.112111405 -0.21977735 -0.7277696
0002d0 c9 e7 96 3d d1 f6 36 3e 9d bb 67 3e b8 f4 5a be
       0.07368428 0.1786759 0.22630163 -0.21382415
0002e0 0b bf ce be 77 92 93 be ce 58 8f be d3 2f a4 be
       -0.4038013 -0.2882268 -0.2799744 -0.32067737
0002f0 62 68 82 bf d1 3a a8 3c 5b 67 d1 3e ab a3 8d 3e
       -1.0188105 0.020535858 0.40899166 0.2766393
000300 71 33 c0 bd ed 96 b4 3e 8e c9 07 be ed 02 cc 3d
       -0.09384812 0.35271397 -0.13260481 0.099614955
000310 d6 53 19 bf c7 5a 29 bf 5c 40 0d be 9a 3b 70 3e
       -0.5989355 -0.6615414 -0.13794082 0.23460236
000320 4e 72 b5 be c5 48 9b 3e e2 f7 a8 bb df 5c 18 be
       -0.3543877 0.30328956 -0.005156503 -0.14879178
000330 5b 1b 37 be 51 da 70 3e f5 68 ab be 48 e9 ed be
       -0.17881529 0.23520781 -0.33478513 -0.46467042
000340 17 41 79 3e 94 d4 60 be e5 a8 31 bf ed 89 64 3d
       0.24341236 -0.21956092 -0.6939834 0.0557956
000350 25 65 94 be 8d 12 b0 be 3d 6f 2e 3e 01 7f b7 3e
       -0.28983417 -0.34389153 0.17034622 0.35839084
000360 af 45 4e 3e 8f 5a 07 3e e9 b1 1f bf 9e 41 1c be
       0.2014377 0.13218139 -0.62380844 -0.15259406
000370 a2 82 84 3e 8c a3 cd 3d e9 d3 43 3d 8c 03 50 3c
       0.25880915 0.1004096 0.047809515 0.012696158
000380 af 54 56 bd 0d 75 0b bf 74 2e ef be b6 47 b1 3e
       -0.052326854 -0.5447548 -0.46715128 0.34625024
000390 6b 24 bf 3d 5d b9 68 3e ca 2b 4c 3e 8e 8d 0d be
       0.09333118 0.2272696 0.19938579 -0.1382353
0003a0 aa ed 80 be f7 26 1e 3e 1e e4 b9 3d 2f ca 90 3e
       -0.25181323 0.15444551 0.09076713 0.28279254
0003b0 24 d4 5e 3e 0c 20 bb 3e b9 c6 c3 3d f0 8b 7d bf
       0.21760613 0.36547887 0.09559388 -0.9904165
0003c0 c0 bf 20 3e 02 d3 3c be e6 ef 90 3e ad cd 19 bf
       0.15698147 -0.18439868 0.28308028 -0.6007946
0003d0 0e 01 a8 bc ff fe 1a 3e 4d e1 c3 bd b6 8e 48 bf
       -0.020508315 0.15136336 -0.09564457 -0.7834276
0003e0 44 c2 38 be 2b d9 04 bf ef 08 ef be 6c b3 94 3e
       -0.18042856 -0.5189387 -0.46686503 0.29043138
0003f0 1f f9 c5 be 1a 81 32 be fb 09 ca bb b7 3b 0b 3e
       -0.38666627 -0.17432061 -0.0061657405 0.13596998
