checkpoints/Archive/audio_classifier_200.pt (torch, 363869 bytes, 86 tensors)

conv1.weight f4 [8, 1, 5, 5]
00000000: f34e 053f f22a 8d3e 48c7 933d 5bf7 0fbe
00000010: 2bcf 4bbf c27c 853d 9798 a9be 0ded e0bd
00000020: 9454 403e ae99 ccbc c4c8 2b3f ad85 143f
00000030: bcf0 d73d 9d26 abbe bcf6 3e3e f7a5 0c3e
00000040: c482 00bf 7dce 953e 4d71 9a3e 172c 46bc
00000050: 9fbc d33d 07b5 163e 7e23 49bc 86e3 0f3e
00000060: 5677 fa3d aa28 64be 171a f7be 7e2f 0ebe
00000070: e4dc 8dbe a0a4 4bbb 691f 723e f676 8c3e
00000080: b7da b1bd 7f4f 483e 9c50 88be e41b c8be
00000090: 5dfb 66bd 58f5 90be a05e fabd b7f7 74bd
000000a0: d88c 8d3e b2af 91be b925 2cbd 7a2a 5fbe
000000b0: 7a44 fd3d 2e91 66be 285c 90bd 4fb0 e03d
000000c0: f877 123e d645 10bd 8746 95be 44c1 53be
000000d0: ae56 e4be 17f6 ef3e fab7 60be 7086 bfbd
000000e0: 0932 133e 8f77 09bf 6331 043e 6431 803d
000000f0: a026 f53e 401c 07be f249 88be c18c 5d3d
00000100: cf34 543d a297 253f 57cb 703c 8b46 a9be
00000110: 0372 2bbe 8e7d 7a3e 0b3f 14be 877a 97be
00000120: f226 05be ca04 2fbf 2001 13bb 5295 3f3e
00000130: 8125 5abe f293 a6be 4118 4c3e b418 9bbe
00000140: bb83 efbe dc20 19bf 71df 8ebe 2da3 a63b
00000150: 8e4c 573e dede ea3d f651 ae37 2d3e f9be
00000160: 90aa 2e3e 1701 1ebd 3319 3fbe 281b 1a3c
00000170: 25bf 9cbe e465 a63d c80a 783e 21f6 f73e
00000180: cc4c bb3e 8de1 883c cefa 573e b731 5abf
00000190: 1194 a53e 0c31 bd3e 1e65 513e dd8c 613e
000001a0: bdad 063e 3a2a 87bd b1d5 763e 736e 8c3e
000001b0: 8aac d43e 363c 5a3e a80b 43bd a5c9 06be
000001c0: 4e59 09be d427 ff3c 4441 9a3d e86a 7cbe
000001d0: 92cd 43be 0f21 9fbe acd6 57be d1fd b7bc
000001e0: 8576 c63c a8b8 aabe 8ff5 b23c 5e44 3b3d
000001f0: 5bb5 2ebe 9d35 2cbe 5403 c2bd d45a a3be
00000200: a6a2 86bd 7251 42bd d463 38be 28d5 6e3e
00000210: 2193 a9be cf63 63bd 5420 91be 728d 7dbe
00000220: 38e1 173f 6d8a 92be d382 d93c df17 0e3e
00000230: a764 d0bd ee6b 983e ed9c 3e3d 1e25 18be
00000240: 6988 ee3d fbf4 67be b785 8c3e 6492 863e
00000250: 02c1 5bbe d647 8fbe c63a 233e 77f2 f2bd
00000260: 5866 cfbd 2ac1 293e d1ea b53d 0671 0e3f
00000270: 214d 86bd 6b45 803e a480 d83d d830 673d
00000280: 3cad 953e 0a8c 86be 852d bdbe 40a1 b03e
00000290: 2d8a 873e e930 1abe 1d0e b2be c5ea 04be
000002a0: ce05 7cbe d766 b5be 765e 6ebd 3a2b 56be
000002b0: ad53 893e cff7 b43c 33c2 b2be faf0 a53e
000002c0: f7b3 30be 0238 33be 9b1c 9dbe 4749 e83e
000002d0: dd6f 6ebe e75e debe 3cbd 333e f377 cebe
000002e0: 4be5 333e 8391 b63c 7380 0b3e 80d4 5b3e
000002f0: f084 89be 7c14 66bd 87b4 21be 4bd2 4b3e
00000300: 8fcd 3bbe 33ff f73c 55b6 103d 7f7e 06be
00000310: 2068 06be 1c71 8dbd be47 d9bd c616 f13d
0.5207359 0.27571827 0.07215744 -0.14059202 -0.7961299 0.06517936 -0.3312423 -0.10982714
0.18782264 -0.024975624 0.6710322 0.58016473 0.10543963 -0.33427897 0.18648809 0.13735186
-0.5019953 0.292591 0.30164567 -0.012095473 0.10338711 0.14717494 -0.012276528 0.14051637
0.12229793 -0.22281137 -0.48262092 -0.13885304 -0.2770759 -0.0031073466 0.23644795 0.2743451
-0.08684295 0.19561575 -0.26624 -0.3908378 -0.056392062 -0.28312182 -0.122250795 -0.05980655
0.27646518 -0.28454357 -0.042028163 -0.21793547 0.123665765 -0.22516319 -0.070488274 0.10971128
0.14303577 -0.03522285 -0.2915537 -0.20679194 -0.4459738 0.4686744 -0.21945181 -0.09351814
0.14374556 -0.53698057 0.12909465 0.062594205 0.4788103 -0.1319437 -0.26618916 0.05408931
0.051808175 0.646845 0.0146969175 -0.33061633 -0.16742711 0.24461958 -0.14477174 -0.29585668
-0.13003138 -0.6836668 -0.002243109 0.18709305 -0.21303369 -0.32534748 0.19931127 -0.30292284
-0.4678019 -0.59815764 -0.27904847 0.00508537 0.21025297 0.1146829 2.0780582e-05 -0.4868025
0.17057252 -0.038575258 -0.18661956 0.009405889 -0.30614582 0.08124903 0.24222863 0.4842997
0.3658203 0.016709113 0.21091768 -0.8523211 0.32339528 0.36951482 0.2044873 0.22026391
0.13152213 -0.06599851 0.24104954 0.27428016 0.41537887 0.21312031 -0.04761854 -0.13162859
-0.13412973 0.031146921 0.0753198 -0.24650156 -0.19121388 -0.3107991 -0.21077985 -0.022459896
0.024226436 -0.33344007 0.021845607 0.045719497 -0.17061369 -0.16817327 -0.09473291 -0.31905234
-0.065739915 -0.047440954 -0.18006831 0.233235 -0.33120063 -0.055515107 -0.28344977 -0.24760988
0.5932803 -0.28621235 0.02655164 0.13876294 -0.10175448 0.29769844 0.046536375 -0.14857909
0.11647112 -0.22652046 0.27445766 0.26283562 -0.21460345 -0.27984494 0.15940389 -0.11862653
-0.101269424 0.16577592 0.08882678 0.5564121 -0.0655768 0.25052962 0.10571411 0.056443065
0.2923373 -0.26278716 -0.3694879 0.34498024 0.26472607 -0.1505772 -0.34776393 -0.12980182
-0.2461159 -0.35430023 -0.058195554 -0.20914927 0.26821652 0.02209082 -0.34913787 0.32410413
-0.17256151 -0.17501834 -0.30685887 0.45368406 -0.2328486 -0.4343178 0.17552656 -0.4032589
0.17567937 0.022286182 0.13623218 0.21467781 -0.26859236 -0.05617188 -0.15791522 0.19904439
-0.18340133 0.030273056 0.035330135 -0.13134192 -0.13125658 -0.069063395 -0.10609387 0.11771922

conv1.bias f4 [8]
00000000: 5dd3 b03a ee46 bc38 a71c 923b e924 8bbd
00000010: ae9a 39bd 0893 d53d 9304 22bd 25ca d6bc
0.0013490726 8.97775e-05 0.004458982 -0.067941494 -0.04531353 0.104284346 -0.039555144 -0.026219437

bn1.weight f4 [8]
00000000: 91e8 613f 61b6 9d3f ea3f 8a3f 4139 933f
00000010: d1e9 8d3f 662f 843f cee1 3d3f b39d 8b3f
0.88245493 1.2321283 1.0800755 1.1501848 1.108698 1.0326965 0.74172676 1.0907501

bn1.bias f4 [8]
00000000: 89f6 82bd 3ba8 483c 2ce1 9e3d d8e0 1b3d
00000010: 655b 9fbd b25c 5ebd d364 2fbd d158 a73c
-0.06394679 0.0122471405 0.07757792 0.038056225 -0.07781104 -0.05428762 -0.042820763 0.020428093

bn1.running_mean f4 [8]
00000000: 292a 7c3c 907c 5dbb 1db2 7c3c b8c9 75bd
00000010: 27d9 34bd cab0 da3d faf4 ebbc 237d 08bd
0.015390911 -0.003379617 0.015423325 -0.060006827 -0.044152405 0.10678251 -0.028803337 -0.033322465

bn1.running_var f4 [8]
00000000: 3409 3340 9c22 3c40 2d4c 2b40 3737 3340
00000010: 0cfa 9e3f a1d9 8c3f c8d4 e73e a28a 6a3f
2.7974367 2.9396124 2.6765244 2.800245 1.2420058 1.1003915 0.45279527 0.91617787

conv2.weight f4 [16, 8, 3, 3]
00000000: de30 253e 626a 3c3e 7cfd 74bd e3ea bcbd
00000010: d31e 3dbe 7e7f b03e fd9f fbbc 31f0 0b3d
00000020: 16c0 a6be e1db 9abd d7c5 b5bd b8b8 92be
00000030: 17ec 85be b256 903c edcc 12be c7b7 ccbd
00000040: 8e7e 4b3d d7eb 71be 1072 9fbc 32c3 c1bd
00000050: 9dab 90be b2b9 483e dfae 5c3d 7c6c ab3d
00000060: 34be bdbd 22af ba3d e8c4 6cbd fc22 cebe
00000070: 01c9 2d3d 64eb b8bd 8629 36be d24d 23be
00000080: 7cd1 23bd 9245 c23e cb04 013f 0331 243e
00000090: e3ad b5bd 48a4 613e 277e 883e 4328 123d
000000a0: 8557 dfbd aaec f7bd 4ea3 503e 41c8 253e
000000b0: f6d0 e73d bd32 efbc d79d c3bc f01e 72be
000000c0: 042c 403e 560f 683e 4be5 143e a292 013d
000000d0: f676 95be fa3a 0ebd 07cb 063e 0859 4e3d
000000e0: dee7 313e f7d7 183e bfa0 fb3d c88b da3c
000000f0: df35 7c3e 796d ab3e 9139 8d3d fe43 81be
00000100: bbcd 49be 308c 863e c88c c43d 3bd4 c33d
00000110: b9c6 94bd cabc d0bd 50b3 73be b9ea ba3d
00000120: 0caf 8bbd 3d89 01be 6e4e c33d 864e febd
00000130: e979 8cbd d373 57be d1d4 c63d f875 81be
00000140: 7063 a5bd e06a d1be 24d6 e8bd cc63 f4bd
00000150: e79f 953d 4a86 303e 8350 5ebc 6a12 aebc
00000160: 7529 143e 65c5 a5be d962 d33d 8083 1d3c
00000170: 6851 f83a 2d73 26bc 3633 923e 091f c1bd
00000180: a890 c53d 0057 8d3e 19d2 9bbd b734 b53e
00000190: 82c6 65be 3554 823e 4926 5d3e 969d 6fbe
000001a0: a2f4 cebd 47c8 28bd 8ba7 13be fe56 5bbe
000001b0: 7176 903d 5eef ca3d fbd7 853e 930c a63d
000001c0: 18a3 a73e e393 153e 7622 84bd bc46 27be
000001d0: 74a3 2cbe bde6 a1bd 0215 863e 16d0 693d
000001e0: c214 963e 265c 1f3e 4887 683e a501 073c
000001f0: 418f 20be d14e 94bd 25f2 a1bd dc01 1fbd
00000200: 2281 3bbd a205 cebd e4ee 12bd b8a4 963e
00000210: 9643 75be 9fe7 ae3b 51bf 2dbd a28e f53d
00000220: b4a6 d7bb 62ac 56be 77bb 123e 42f9 bbbd
00000230: 0b5a 293d f007 cc3e 0c9a 283b c7d2 e6bd
00000240: df30 b2bc 1216 a83d 615f 40bd 95f7 803d
00000250: 0d90 cf3d b48c 583e 60f6 f63d 6ad4 d43d
00000260: ba4c dc3c 6e03 393c 9987 8b3e 37da 20be
00000270: 8323 f9bd 93df 0d3e c493 8d3e 91ac 863d
00000280: 7cd5 6abe ee12 2fbe 6517 ff3c 5641 5ebe
00000290: 2315 083d f017 143f 9465 1bbc 5721 63be
000002a0: e530 823e 4942 8abd 8a0e c83e dcdd bf3d
000002b0: 9c1e 83bd 22d8 1fbe 3a79 0abe 1a7b dd3c
000002c0: 4dad cebe 1f15 c3be d1cf 07be 7a70 69bc
000002d0: 8f9f dc3c 0957 2abe 23b7 de3c 24b7 953d
000002e0: 1593 49bd 4971 66be d7ef a0bd 4af6 9a3e
000002f0: cd1a ad3d 0146 393e caad 2dbe bf0c b63c
00000300: da9d 813e 3e0b d53d 6483 fdbc 70ac 323e
00000310: 616c 853d 53e7 8f3e c2c3 043e 1fe7 6c3e
00000320: c240 893b b21a 6a3e a8e0 0e3e 28d1 e93c
00000330: 4137 d43d 3f26 03be e804 a6bd d5fd bc3e
00000340: c0e1 273e 0884 c53d 4370 493d 0850 8e3c
00000350: 11f8 b03d cec4 faba f8cb 023f bad6 99bd
00000360: 7bb7 41be 2e0d 0ebd c68b d2bd e1df c2bd
00000370: d1a9 db3d 9585 ebbd 8544 06be 5736 07bc
00000380: 4c81 c03c 6576 8d3e d9ed fcbc 15c4 3cbe
00000390: e4fa 303e da8e 023e 1dd4 33be af77 073d
000003a0: deb9 10be 69b1 513e c9e5 32be 7a47 103c
000003b0: 802f 513d a069 353e 6108 7d3e d6c1 623e
000003c0: 9332 6c3c e5af 073e 8a90 913c 26be 8d3d
000003d0: a8af a43d d09c 8abc 9eda ffbd 2a37 9bbd
000003e0: 84ab 2bbe 2929 8d3d 9b21 42be 483e 25be
000003f0: 5e12 b2bd 897e 9c3d 664a b8bd 2beb d0bd
0.16131923 0.18399957 -0.059812054 -0.092244886 -0.1846879 0.3447227 -0.030715937 0.03416461
-0.32568425 -0.0756147 -0.088756256 -0.28656554 -0.26156685 0.017619465 -0.14335985 -0.0999599
0.04968124 -0.23625122 -0.019463569 -0.09461059 -0.2825593 0.19602087 0.053877708 0.08370301
-0.09264794 0.09115435 -0.057804972 -0.40261066 0.04242802 -0.09029272 -0.17789277 -0.15947655
-0.0399947 0.37943703 0.5039794 0.16034321 -0.08871057 0.22035325 0.26658747 0.035682928
-0.10905365 -0.12105687 0.20374796 0.16189672 0.11319153 -0.029198999 -0.023878975 -0.23644614
0.1876679 0.226621 0.14540593 0.03163398 -0.29192322 -0.034724213 0.13163386 0.050377876
0.17373607 0.14926134 0.12286519 0.026677981 0.24629925 0.33481959 0.068957455 -0.25247186
-0.19707386 0.2627883 0.095971644 0.09561964 -0.07264466 -0.10192259 -0.23798871 0.09126801
-0.06820497 -0.12650008 0.09536444 -0.12417321 -0.0685919 -0.21040277 0.0970856 -0.25285316
-0.08075607 -0.40901852 -0.11368969 -0.11933097 0.073058896 0.17238727 -0.013569 -0.021249015
0.1446894 -0.32377163 0.10321588 0.009613872 0.0018945159 -0.010159296 0.28554696 -0.094297476
0.096467316 0.27605438 -0.07608432 0.3539178 -0.22439006 0.2545487 0.21596636 -0.23399958
-0.10105254 -0.041206624 -0.14419381 -0.21419904 0.07053841 0.09908937 0.26141343 0.08107867
0.32741618 0.14607196 -0.064518854 -0.16335577 -0.16859227 -0.07905338 0.26187903 0.05708321
0.29312712 0.15562496 0.22707856 0.008240138 -0.15679647 -0.072415955 -0.079075135 -0.038820133
-0.045777448 -0.10059668 -0.035872355 0.29422545 -0.23951563 0.00533767 -0.04241878 0.11990096
-0.006581152 -0.20964196 0.14329325 -0.091784015 0.041345637 0.39849806 0.0025726585 -0.11270671
-0.02175182 0.082073346 -0.04696596 0.062972225 0.101348974 0.21147424 0.12058711 0.10392077
0.026892055 0.011292322 0.2725189 -0.15708242 -0.121649764 0.13854818 0.276518 0.06575883
-0.22933 -0.17097065 0.031139085 -0.21704611 0.033223283 0.57849026 -0.009484667 -0.22180687
0.2542793 -0.06750924 0.39073592 0.09368488 -0.06402323 -0.15609792 -0.13522807 0.027036238
-0.40366593 -0.38102052 -0.1326287 -0.014248008 0.026931552 -0.16634764 0.027186936 0.07310322
-0.049212534 -0.22504152 -0.07858246 0.3026603 0.084523775 0.1809311 -0.16960827 0.022222875
0.25315744 0.10402535 -0.030946441 0.17448592 0.06514812 0.28106174 0.129653 0.2313504
0.004188628 0.22861746 0.13952887 0.028542116 0.10362101 -0.12807558 -0.081064045 0.36912408
0.1639471 0.096443236 0.049179327 0.017372146 0.08641065 -0.0019132139 0.5109248 -0.07511659
-0.18917648 -0.034680538 -0.10280566 -0.09515358 0.10725749 -0.11500088 -0.13112076 -0.008252702
0.023499154 0.2762939 -0.030875133 -0.18434174 0.17283207 0.12749806 -0.17561384 0.033073124
-0.14133403 0.20477833 -0.17470469 0.008806104 0.05107069 0.17716074 0.24710228 0.22144255
0.014416355 0.13250692 0.017769117 0.069210336 0.08041316 -0.016920477 -0.1249287 -0.07578881
-0.16764647 0.06892616 -0.18958132 -0.1613704 -0.086949095 0.07641322 -0.089985654 -0.10201105

conv2.bias f4 [16]
00000000: e805 613c 607a 033d 6884 3ebe 82d8 22bd
00000010: aeb7 a53c 6bec d83c 421d 61bd 5383 07bd
00000020: 6ca3 48bd 779f 673a 6707 d2bd 1f52 b8ba
00000030: bd7b fa3d ba88 1c3d c37d 06be b10b a7bd
0.013734318 0.032099128 -0.18605196 -0.03975726 0.020229187 0.02647992 -0.054959543 -0.033084225
-0.048983976 0.0008835713 -0.10255318 -0.001406256 0.122306325 0.03821633 -0.13133912 -0.08156527

bn2.weight f4 [16]
00000000: fffb 613f b0e2 833f 6c71 593f 3c9f 993f
00000010: 54ed 8f3f ba98 883f 35de 943f a69f 5e3f
00000020: 2b57 683f fe51 7b3f f3d8 883f 51eb 8e3f
00000030: 11f0 5a3f e5b8 993f 1925 9d3f 66dc 7e3f
0.8827514 1.0303555 0.84938693 1.200172 1.1244302 1.0671608 1.1630312 0.86962354
0.9075801 0.98171985 1.0691208 1.1165563 0.8552256 1.200955 1.2276946 0.9955505

bn2.bias f4 [16]
00000000: 9e9c 76bd df47 10be a7ff 8dbd cab3 f73d
00000010: 7f16 493d afff 1d3e aa3a a63d 122a 053d
00000020: 49db a9b9 ea92 a6bd c394 cbbc 661f 35be
00000030: 06b3 2abd 60db 063d da57 f33d 36cd 0b3d
-0.060207956 -0.14089917 -0.069335274 0.12094839 0.04909372 0.15429567 0.08116658 0.032510825
-0.00032397572 -0.081334904 -0.024851209 -0.17687759 -0.041674636 0.032924056 0.11881991 0.03413125

bn2.running_mean f4 [16]
00000000: 1426 f4bd 0f3a fc3d 398f b13e 54f5 58be
00000010: a7dc 09be deaf 8e3e d509 223f 1638 e93e
00000020: 489b dbbc e654 133e 4d70 453e e95b 123f
00000030: bf83 193e b92d 41be d50a 12bf d4a7 22bd
-0.11921325 0.12315761 0.34679583 -0.21187335 -0.13463078 0.2786855 0.6329625 0.45550603
-0.026807442 0.14387855 0.1928112 0.57171494 0.14991663 -0.18865098 -0.5704778 -0.039710835

bn2.running_var f4 [16]
00000000: 116f 403f f7e2 963e ae66 983e d328 773e
00000010: 97be 193f 7d62 383f 47d6 a53e 1384 033f
00000020: c38b e33d de7f 653f e9e0 3a3e 32a9 ab3e
00000030: bb49 ac3e 074b c13e 7941 263f aad2 f63e
0.75169474 0.29470035 0.29765838 0.24136667 0.6005644 0.7202528 0.32390043 0.51373404
0.11110642 0.89648235 0.18249859 0.33527523 0.33650002 0.37752554 0.64943653 0.482076

conv3.weight f4 [32, 16, 3, 3]
00000000: 1cb8 35be 3301 a6bd 2d46 7c3c 9416 79be
00000010: 0979 723e 67c5 bd3c a365 553d 08bf babd
00000020: 9d2b 33be 56b2 b1bb f522 1b3d 0642 a3bd
00000030: 3aa5 29ba b817 083e 0196 eebc 4182 3b3e
00000040: 54e7 74bc 1e6f 4b3e 925c 51bd ad5a 41be
00000050: 2dde 393d 935b efbc c35f da3d f397 113b
00000060: bfe9 81be 9a65 dbbd 2a23 4d3e 5e79 cdbc
00000070: c28e d13d 3045 b93e 6723 e33b f165 b4bc
00000080: e6b6 c23e 7be3 37be 3724 1e3d 4627 34bc
00000090: 7091 3fbe b167 43be d028 73bc 69fd e0bd
000000a0: 4f88 a8be 31bb 9b3d 6997 5f3e 3e0f 8b3d
000000b0: e53d 6a3d 1109 75be 624a d4bd c189 0a3e
000000c0: f181 f0bd 45f4 ffbd a3ae fabd 844f 82be
000000d0: 4406 193d 81e5 38be 26d0 1b3e 2760 beba
000000e0: 8c5b dc3e 7968 413d 5b47 cc3d d3d4 8b3d
000000f0: 4ef1 7ebd b5b6 023d 1df5 f8bd 167d 0ebd
00000100: 8b89 9c3c a2d0 813d 41e6 bb3d 1420 a33d
00000110: 8707 6dbe f321 873e 9cd7 05be d7dc 98be
00000120: 02eb 453e b83d 173e 8f56 803d 65ea 3dbe
00000130: 1426 7abd 713c fe3c 0340 df3d 5437 a8bd
00000140: 7a77 99bd d4dc 43be 2d78 70be 6bec c43d
00000150: 2563 81bd a69c 28bc 13f7 413d e342 d63c
00000160: a98e a93d a52b 663c 5040 ac3d 8286 4fbc
00000170: 56e0 7bbd 1103 d8bd af59 04be 9387 153e
00000180: 2db5 363e d022 063e e025 24be 2d9b 35bc
00000190: f2cb 6abe 2092 13bd b9cf 92bd f530 11be
000001a0: acf0 7e3e 20e8 413d 616c e5bd 5bd6 ca3d
000001b0: 4608 67bd 9a1c 34be 63d6 44be 4347 8f3d
000001c0: 15cd f63d e968 233b 56f8 f5bd e89d 1d3d
000001d0: 6b51 9e3c 8caa 89bd 68ce 2dbe ba84 5b3e
000001e0: d68e 5abe ca4c efbd dd15 e1bd cf49 d3be
000001f0: 224e 83bd 0f10 3d3e 6a8d d9bd adc1 d9be
00000200: 0f65 073d 596d dabd 582e a13e 9abf 833b
00000210: 6fa7 d1bd d742 c23d 0bd0 df3b f1e4 2dbd
00000220: 72e0 483d ba0f 86be 9df2 aabc ea90 87bd
00000230: f294 c83d e2a5 96bd a335 63be 0bfb bb3d
00000240: eaef 2ebe af61 40be f839 debd aeba 343d
00000250: 6e01 1f3e 2104 ccbd e955 1bbe 6886 67be
00000260: 027a e1bc 8351 d43d d68c f0bb 8861 0dbe
00000270: a50b 9d3d e68e 243e 93b1 aebd a7ca 9a3c
00000280: 9782 673d d114 313e 9133 f93c cd7e b7bd
00000290: 3a4f 12be 8c65 b33d 3545 e23d 9f4d a93d
000002a0: f407 2f3e c5b5 793d 48ac 813d adc7 0abd
000002b0: a208 87bd 8a9f 36be a615 c8be c7e7 09be
000002c0: 2658 9b3e 96a2 8bbd d7a1 6a3e 19cc dc3d
000002d0: 1df5 47be 79d7 46be d78b 2ebd c888 aebc
000002e0: c4d1 f2bd 10da 0cbe 6b0a 373c 6be8 f6bd
000002f0: ec8f a5bc 504d d43a b70a 013e 2470 403c
00000300: 9de4 b73d 1edb 0dbe b917 333e 2750 00bd
00000310: e543 4cbe 4b75 873e f968 8d3d 4d8f df3d
00000320: 983b b7bb 280d 1e3d b6b6 bbbd 641a 14be
00000330: 1566 56bb 7053 bd3d 17d4 29be d8bd 60bc
00000340: ddfc f73a 7469 2bbe 6b6e 223c c093 1d3e
00000350: 7433 adbd a924 0cbd 6437 23bc 5370 b4bc
00000360: 5098 133e 8484 e4ba 2505 2fbe 88a4 32be
00000370: c116 3d3e e76f 513e d04f 083e e7c6 993b
00000380: 9fc7 d93d 0a98 1c3d 7d65 07bd e694 d7bc
00000390: af15 993d 14be 673e 6c76 d93d 6011 59bd
000003a0: 2e7d 863b 3c87 083e 3769 443e c4ee af3d
000003b0: 9bac e43d 00c1 3d3d fdc0 d0bc 8795 433e
000003c0: 8f4f 183e 85a8 1ebd e039 34bd ed26 afbd
000003d0: 4be3 80be 47d5 26be 5951 b8bd f18d c93d
000003e0: 329e e23c 85b9 cabd c7e4 d3bc 5c36 d03c
000003f0: ae28 95be b3c7 53be fe54 6bbc 676f 243e
-0.17746013 -0.081056975 0.015397591 -0.24325019 0.23678984 0.023165418 0.05209888 -0.091184676
-0.17497106 -0.0054228706 0.037875134 -0.07971577 -0.0006471459 0.13290298 -0.029124262 0.18311407
-0.014947731 0.19866607 -0.051113673 -0.18882246 0.0453779 -0.02921847 0.10662796 0.0022215813
-0.25373647 -0.10712738 0.20032945 -0.025082286 0.10232307 0.36185598 0.0069317105 -0.022021266
0.38030165 -0.1795787 0.038608756 -0.010995692 -0.18707824 -0.19082524 -0.014841273 -0.10985834
-0.32916495 0.07604063 0.21835102 0.067900166 0.057187933 -0.2392924 -0.1036575 0.13529111
-0.11743534 -0.124977626 -0.122403406 -0.2545129 0.03735949 -0.18056299 0.15216121 -0.0014524505
0.43038595 0.047218774 0.099745475 0.068277024 -0.062241845 0.031912524 -0.12156127 -0.03478726
0.019108554 0.06338622 0.09174777 0.07965103 -0.23147403 0.2639309 -0.1307053 -0.29855987
0.1932793 0.14769638 0.0626651 -0.18546446 -0.06107147 0.03103468 0.10900881 -0.08213678
-0.074934915 -0.19127208 -0.23483343 0.09615406 -0.063177384 -0.010291254 0.04735477 0.026154941
0.082791634 0.014048492 0.08410704 -0.0126663465 -0.06149324 -0.1054746 -0.12924837 0.14602499
0.1784255 0.13099217 -0.16030073 -0.01108436 -0.22929361 -0.036028028 -0.07168526 -0.14178832
0.24896497 0.047340512 -0.11202312 0.09904166 -0.056404375 -0.17589036 -0.19222407 0.06996014
0.12050835 0.0024934357 -0.12010257 0.03848067 0.019325932 -0.06721982 -0.16973269 0.2143735
-0.2134355 -0.11684568 -0.10990498 -0.4126725 -0.06411387 0.18463157 -0.10622676 -0.42530575
0.03305536 -0.10665388 0.3148067 0.0040206434 -0.102370135 0.09485405 0.0068302206 -0.042454664
0.049042173 -0.26183873 -0.02086764 -0.06619437 0.09794034 -0.073558584 -0.2218843 0.09178742
-0.17083707 -0.18787263 -0.108509004 0.044123344 0.15527889 -0.09961725 -0.15169491 -0.22609866
-0.027523998 0.103671096 -0.0073410077 -0.13806736 0.07668237 0.16070136 -0.08529963 0.01889546
0.056521025 0.17293097 0.030420097 -0.08959732 -0.14288035 0.08759603 0.110483564 0.08266758
0.17092878 0.060964365 0.06331688 -0.033881832 -0.065934435 -0.17834297 -0.39079016 -0.13467322
0.3034069 -0.0681812 0.229133 0.10781116 -0.19527097 -0.19418134 -0.04261383 -0.021305457
-0.11856416 -0.13755059 0.011171917 -0.12056049 -0.020210229 0.0016197357 0.12601744 0.011745486
0.089791514 -0.13853118 0.17489518 -0.03132644 -0.19947775 0.26456675 0.069047876 0.10916004
-0.005591821 0.038586766 -0.09165709 -0.14463192 -0.0032714654 0.0924443 -0.16584812 -0.013717137
0.0018919964 -0.16739446 0.009914021 0.15388393 -0.084570795 -0.03421465 -0.009961937 -0.022026217
0.14413571 -0.0017434512 -0.17091806 -0.17445576 0.18465711 0.20452844 0.13311696 0.0046929005
0.10633778 0.038230933 -0.03305577 -0.026316117 0.07474839 0.22631103 0.1061829 -0.052995086
0.004104278 0.13332838 0.19180761 0.08590463 0.111657344 0.046326637 -0.025482649 0.19100009
0.14874099 -0.03873493 -0.044000506 -0.085523464 -0.2517341 -0.16292296 -0.08999891 0.09841526
0.027663324 -0.09898666 -0.025865925 0.025416546 -0.291326 -0.20681648 -0.014363525 0.16058122

conv3.bias f4 [32]
00000000: 4afc 51bc 0ef9 9a3c 6b3a b03d 7ee8 bebc
00000010: 8380 d2bd 2157 c33c 59f9 743d 52d5 58bb
00000020: cdfc 303d ed26 803b 41cb 633c 9825 bebc
00000030: b42e 2c3d a3f0 493b 1fc3 b4bc 501b 12bd
00000040: d57e 403d 51c1 6bbd fc24 afbd d53e 44bb
00000050: 0a78 60bd 93ec b03d 76ca d7bd a694 073e
00000060: 1283 dc3d 760a e23c 3e58 80bd 6234 43bc
00000070: 0923 eabd 195c 313d d8ba a33d 36d3 123d
-0.012816498 0.018917587 0.08604892 -0.02330422 -0.10278418 0.023845257 0.05980811 -0.0033086133
0.04320984 0.0039108903 0.01390344 -0.023211285 0.042036727 0.0030813597 -0.022065697 -0.03567058
0.046995956 -0.057557408 -0.08551976 -0.0029944677 -0.05480198 0.08638873 -0.10536663 0.13240299
0.10767187 0.027592879 -0.06266831 -0.0119143445 -0.11432464 0.04330072 0.07994622 0.035845958

bn3.weight f4 [32]
00000000: f79c 8a3f caf7 653f d197 6e3f 1b17 8d3f
00000010: db22 6f3f cefc 743f f265 463f 02ab 803f
00000020: 41cc 433f 5d9c 933f 3a4f 923f 0637 973f
00000030: 9340 973f d77b 983f 36e0 853f ec0f 923f
00000040: 6409 833f 3d71 833f c7b1 873f 73b9 3c3f
00000050: a3fd 6f3f 7a01 8d3f 9618 5d3f 4163 3f3f
00000060: c5e0 833f 4d31 7c3f 7168 8d3f 5dfd 6f3f
00000070: 0f04 7f3f a9da 6f3f 26a4 893f b6c7 8b3f
1.0829152 0.8983122 0.93200403 1.1022676 0.9341256 0.9569825 0.77499306 1.0052187
0.7648354 1.1532093 1.1430428 1.1813667 1.1816581 1.1912793 1.0459049 1.1411109
1.0237241 1.0268933 1.0601128 0.73720473 0.93746394 1.1016076 0.8636564 0.74760824
1.0302969 0.9851273 1.1047498 0.93745977 0.9961557 0.93693024 1.0753219 1.0920322

bn3.bias f4 [32]
00000000: 1cae 91bc cc50 98be 99fd 3bbe 1a42 e6bd
00000010: 9323 04be 5ea5 22be 998b 55be 6945 0cbe
00000020: c4b3 79be 06b1 1cbe 5ca2 3cbe 0ecc 3abe
00000030: 3dad 6dbd 8609 29be cb6c 24be 5662 f33d
00000040: 772d 79be 9638 74bd 9942 1dbe fca6 5ebe
00000050: 9e4e 81be 0c1b 8bbe 74b8 46be 71c5 24be
00000060: a340 95bd c135 37be c1f3 cbbd ceb0 51bd
00000070: 93dc 53be 6a74 83be 0cb9 cebd 1cb9 3fbe
-0.017783217 -0.29749143 -0.18358459 -0.112430766 -0.12904195 -0.15883395 -0.20854034 -0.13698353
-0.24384981 -0.15301904 -0.1842131 -0.18241903 -0.05802654 -0.16507539 -0.16057126 0.118839905
-0.2433375 -0.059624277 -0.15357436 -0.21743387 -0.25255293 -0.27169073 -0.19406301 -0.16090943
-0.07287719 -0.17891599 -0.09958602 -0.051194005 -0.20689611 -0.25674754 -0.10093889 -0.18722957

bn3.running_mean f4 [32]
00000000: 7f85 f4be 3bf2 933e 1635 71bf 89cc 0a3e
00000010: b2eb 043f 18aa b6bd d37f 95bd 4a09 77bd
00000020: 69c5 3cbf d89c bebe da27 a73e 2155 263f
00000030: c19c ee3e ac64 893f 7dc8 213f 5bba 67bf
00000040: fec3 26be 17a2 e3be 5634 053e 21ad 443f
00000050: d66b 353c b413 0a3f 53e6 bfbe 8b80 f53d
00000060: 1ab3 713d 8542 e63e 848d 873e 8cc3 c13e
00000070: ec18 0f3f 1738 d23f 28a2 923e 3cb6 933c
-0.477581 0.28895745 -0.9422163 0.13554586 0.5192214 -0.089191616 -0.07299771 -0.060311593
-0.73738724 -0.37229037 0.32647592 0.64973646 0.4660397 1.0733848 0.63196546 -0.9051873
-0.16285703 -0.44459602 0.13008246 0.76826674 0.011073073 0.53936315 -0.3748041 0.11987408
0.059008695 0.44972625 0.26475155 0.37844503 0.558974 1.6423367 0.2863934 0.018031232

bn3.running_var f4 [32]
00000000: 05ec 573f 9d9e cb3e d296 073f 9ba8 0f3f
00000010: 6f7f c13e 40d4 b43e 95d4 853f 4fbb 0c3f
00000020: 4cf1 013f d3ec 253f 4e61 603f ae96 283f
00000030: 82c6 513f dd75 ef3e 0718 083f 3440 f13e
00000040: b76a 8e3e 07e0 fc3e b5bd 103f 6725 e73e
00000050: 803c d43e 18d7 ed3e d1f8 0d3f 88eb bc3e
00000060: 8c8b b83e 1a1d 733f 7546 823f 08a4 c83e
00000070: 72bb 143f 2db7 e13e 3090 163f a09a 923e
0.8434451 0.3976945 0.5296451 0.56116647 0.37792537 0.35318184 1.04555 0.5497331
0.50758815 0.6481449 0.87648475 0.6585492 0.81943524 0.4676961 0.5316166 0.47119296
0.27815792 0.4938967 0.5653947 0.45145723 0.41452408 0.46453166 0.5545779 0.36898446
0.36043966 0.9496628 1.0177752 0.39187646 0.5809852 0.44085065 0.5881376 0.28633595

conv4.weight f4 [64, 32, 3, 3]
00000000: 381c c33d 2e9c d3bd 70c5 d6bb ad4c b23d
00000010: cc02 f6bd 14e6 023e 5468 a73d 3169 ccbd
00000020: bf48 b73c 51d4 773d b658 80bd 18b4 a13d
00000030: faea 223e bed2 36bd 84f5 433e eb04 62bc
00000040: 7be1 6abd b591 883a b4ec 093e 9e74 4d3c
00000050: e271 393d cb55 a73c 25cb 0b3d c09b 4b3d
00000060: c1ad bd3d 7f6a 413d 9ab2 0f3d e677 dcbd
00000070: 4f78 fabd 9025 d73c 7849 a0bd d26d 5e3e
00000080: 98ec d0bd 4f9d 8cbd 04b3 e4bd d36e 82bc
00000090: 2cf1 af3d 1686 273d 2572 423d d3b5 333d
000000a0: 7540 b3bc f507 103e 55ac b43d 5927 093c
000000b0: 8740 1c3d 18e4 713d 1fc5 7bbb 8abc d3bc
000000c0: 4608 c1bd 1379 12bc a6d0 31bd f2cb 483d
000000d0: 8bd1 953c 9763 06bd 948a d1bd 8583 7cbd
000000e0: 0b18 d7bb 0e88 053e 6e6a 473d 0b59 36bd
000000f0: 5759 d2bd 19d0 e2bb 6740 c8bd c90d 003d
00000100: 46d9 2a3d 64e5 e03c bd6e 0fbe 33c3 99bc
00000110: 3a2d 8fbd 1d9d f53c 5d9a f53b b92b ae3c
00000120: 1f4d 893d 568c 9a3d 6f2a b6bd 3591 a53c
00000130: 215a 10bd 5aa0 b63d b0f7 b6bd b4d9 41bc
00000140: e739 89bd 67cc 953e 1f65 8b3d fe14 933e
00000150: cdcc c7bd 9387 21bc a359 2d3a 65c2 e33d
00000160: d681 20ba 3611 2e3e 5bf2 90bc 95e5 f03c
00000170: c261 31bd fd96 203e 5105 363c 325f 823e
00000180: baf6 efbc fd78 60bd 3492 03bd 93ee 5ebe
00000190: 13bd 9f3d 55e3 c93b 4aa0 8a3e 0999 06be
000001a0: 59d8 373e 61fb 5fbe ad43 973c 9cb7 12bd
000001b0: ea00 c93e dea0 91bd 70d2 fa3e 14d6 68be
000001c0: 8ad9 10bd 0539 52be 5b38 ac3e 0c99 88bd
000001d0: f57e c13e 192a e0bd 66b6 0bbc 237a 34be
000001e0: 784e 0cbd 769d 7abd 90ab 32bc 3b6a 22be
000001f0: e808 3dbc ae68 60be a044 cebd 93c0 4abd
00000200: 2e83 88bd 1ab1 96bb 8d90 9f3d 3b57 7f3d
00000210: 068c c8bd 9d24 fabb 6404 b0bd 28b1 843e
00000220: 059c 77bd d1b5 3c3e e1b6 b4bd ff0f 92bd
00000230: dab8 20bd 9d68 673e e00d 3fbd a2f9 733e
00000240: dadb 0fbe d0a8 71bd 1f76 c5bd 4069 f33b
00000250: 603a 333d 86da b63c cc24 efbd 043e 88bd
00000260: 7d0c b6bd 02fe fc3d 0d78 a63d 2abc 9e3e
00000270: 1dc3 2dbc 5e2d 2abd c38f 183e c147 263e
00000280: d1b0 493e 0746 8e3e d415 dabd bca8 b2bd
00000290: b74e abbd c796 31bc 8b10 5b3e 03b0 7c3b
000002a0: 8574 19bd 1aa9 80bd 7c56 a9bc aee5 a8bc
000002b0: f05d cdbd a7c8 56bd b4d1 a53c e248 9d3c
000002c0: b9aa 243d 11a0 483d 2ac9 9fbd 1015 263d
000002d0: 7d45 8a3d 3ae5 333d 8825 613d 8cff b3bd
000002e0: 11a7 803d bae2 1fbe 4054 6b3d 6c13 af3c
000002f0: 438e 533d 33dc b73e b1b7 13bd 8bb6 f13e
00000300: 3560 0a3d a339 15be 07be da3d 4652 c53e
00000310: a1b1 1f3d 2fc4 d33e 7bc4 ccbd 0e56 6e3b
00000320: ea92 74bd dceb 253d 0b2b a4bc e19e 553d
00000330: c145 89bd 20b2 f43b a9d7 eabd 2c13 1cbe
00000340: 7ab1 a0bd da06 8fbd c996 b3bd 86aa df3c
00000350: 0f0b f73b a977 dfbc b4af 07be f7b1 f8bc
00000360: bdc7 b1bb 93cf cabd ad6e 013e 7bbc 943a
00000370: 91ba 5abd 8e6f 7f3d f96b 3dbd ddff 00be
00000380: a56a 533d 02a1 7abb 3914 23bd c4be 0f3d
00000390: 4ef1 c63a 549d 363d b927 5a3d c19f cfbd
000003a0: 5187 fbbd d190 ef3b 6d2f 07bd 57a7 a53d
000003b0: 01a2 a6bc 25db 62bd bf44 1cbe d6ab fdbd
000003c0: dcb5 c5bd 275a f43c 4387 d5bb 2eed 3fbd
000003d0: 71ff 4abd 272d d0bc 6975 103d 6772 3b3d
000003e0: 1188 843d ffc8 0dbd 35df 66bd 6ba8 85bc
000003f0: 55fa b73d e13f 013d ed6b 873d fad0 5ebd
0.09526867 -0.10332523 -0.006554298 0.08706031 -0.12012252 0.1278308 0.08174196 -0.09981001
0.022373555 0.060505215 -0.0626692 0.07895678 0.15909949 -0.044634573 0.19136626 -0.013795118
-0.05734394 0.0010419401 0.13469201 0.012540011 0.045274623 0.020426651 0.03412928 0.04970908
0.092616566 0.047220703 0.035082437 -0.10765056 -0.12229978 0.026263028 -0.07826513 0.2172158
-0.10201377 -0.06865942 -0.11166957 -0.015921986 0.08590922 0.04089936 0.047472138 0.043874573
-0.021881321 0.14065535 0.08821932 0.008371198 0.038147476 0.059055418 -0.0038417054 -0.025846738
-0.09425406 -0.008939999 -0.043411873 0.049022622 0.018288394 -0.03280982 -0.1023151 -0.061648864
-0.0065641454 0.13040182 0.048685484 -0.04451851 -0.102709465 -0.00692178 -0.09777909 0.031263147
0.041711114 0.027453132 -0.14007087 -0.018769836 -0.06991048 0.029982144 0.007495208 0.021261083
0.06704163 0.07546298 -0.08894812 0.020210842 -0.035242204 0.089173034 -0.089339614 -0.01183169
-0.06700497 0.2925751 0.06806397 0.28726953 -0.097558595 -0.009858984 0.0006612783 0.11121062
-0.00061228627 0.16998753 -0.01769369 0.029406348 -0.04330612 0.15682597 0.011109666 0.25463253
-0.029292453 -0.054802883 -0.032121852 -0.21770696 0.07799735 0.0061611333 0.27075416 -0.13144316
0.17953624 -0.21873237 0.018464888 -0.035819635 0.3925851 -0.07110761 0.48988676 -0.22737914
-0.03536371 -0.20529564 0.33636746 -0.066698164 0.37792173 -0.109455295 -0.008527374 -0.17624716
-0.03425452 -0.061185323 -0.0109051615 -0.15860836 -0.011537768 -0.21914932 -0.10071683 -0.04950006
-0.066656455 -0.004598749 0.07791243 0.06233905 -0.09792332 -0.007633759 -0.085945874 0.2591641
-0.060451526 0.18428732 -0.08823944 -0.07131957 -0.03923879 0.225985 -0.04664409 0.23825696
-0.1404871 -0.058998883 -0.096416704 0.0074283183 0.043756843 0.022320997 -0.1167694 -0.066524535
-0.08889101 0.12353136 0.081283666 0.31002933 -0.010605601 -0.04154717 0.1489859 0.1623831
0.19696356 0.27787802 -0.10648695 -0.0872359 -0.08364623 -0.010839171 0.2139303 0.003855706
-0.037464637 -0.062822536 -0.020671122 -0.020617332 -0.10027683 -0.05243745 0.020241596 0.019199792
0.040201876 0.048980776 -0.07802041 0.04054743 0.06751535 0.04391978 0.054967433 -0.08788976
0.062818654 -0.15613833 0.057453394 0.021371566 0.051649343 0.35910186 -0.036063854 0.47209582
0.033783156 -0.14572768 0.10680776 0.38539332 0.03898776 0.41360614 -0.09998413 0.003636721
-0.05971042 0.040508136 -0.020040056 0.05215347 -0.067027576 0.007467523 -0.11466915 -0.15241688
-0.07846351 -0.06983729 -0.08768994 0.027302992 0.00753916 -0.027278738 -0.13250619 -0.030358298
-0.005425422 -0.09902873 0.12639876 0.0011347675 -0.05340058 0.062362246 -0.04624555 -0.12597604
0.051615376 -0.003824294 -0.039814208 0.035094038 0.0015178116 0.044583634 0.05326054 -0.101378925
-0.12281669 0.0073109646 -0.033004213 0.08088558 -0.020340921 -0.055384774 -0.152606 -0.12386291
-0.096538275 0.029828144 -0.0065163686 -0.04685705 -0.049560014 -0.025412155 0.03526822 0.0457634
0.06471265 -0.034615513 -0.05636521 -0.01631566 0.08983294 0.03155506 0.06612382 -0.054398514

conv4.bias f4 [64]
00000000: 1118 613c ddf6 2cbc 6f69 013d acdc 4c3c
00000010: c758 1fba c51b 3f3d 8ed5 2abd d238 48bd
00000020: 464f 01bc 8301 ccbc a224 833d 2f16 a93d
00000030: 90fa 043c 95e1 7bbd 0799 03bd 1203 02bd
00000040: c3e1 ccba 8468 aabd 114a 90bc 338e 50bd
00000050: 12a0 bf3c f95b c9bd a61d 793b f651 0b3a
00000060: ac6b 05bd dd90 cabc a53c 7d3c 0ab9 71bc
00000070: fb7d 833c 45af e73d 14ff cbba f7a1 f53b
00000080: 30d3 153d 89a1 133d 6e72 083d 03d8 643d
00000090: 269e 81bd a959 083d 1fd4 03bd b03b 1c3d
000000a0: 5d6d 01bd 51d6 4e3d 2bee 60bd ba00 e3bc
000000b0: e50a 51bc 0e17 37bd 00e6 163c 8e02 a03d
000000c0: 87b5 a4bb 9be8 eebc 6058 7a3d c5a4 9abd
000000d0: 1fd0 daba cf6d f63c edd3 2a3b 417d b9bd
000000e0: a045 df3c 6f00 343d 974c 78bd f9bc 20bd
000000f0: 02b2 183b 616d d2bc 8dbc 02bd aae5 063d
0.013738648 -0.010556904 0.03159469 0.012503784 -0.00060785975 0.046657342 -0.041707568 -0.048882313
-0.007892435 -0.024903065 0.064034715 0.08256184 0.008116379 -0.06149443 -0.03212836 -0.03174121
-0.0015631247 -0.08320716 -0.017613443 -0.05091686 0.023391757 -0.098319955 0.0038012057 0.00053146423
-0.032573387 -0.02472728 0.015456353 -0.014753589 0.016051283 0.11312727 -0.001556369 0.0074961144
0.036578357 0.036042724 0.033312254 0.055870067 -0.063289925 0.03328863 -0.032184716 0.03814286
-0.031598438 0.050497357 -0.054914635 -0.027710307 -0.012758945 -0.04469972 0.00921011 0.07812987
-0.0050265226 -0.02916365 0.061119437 -0.075509585 -0.0016694105 0.030081658 0.002606626 -0.090570934
0.02725488 0.043945726 -0.060619917 -0.03924272 0.002329946 -0.025686922 -0.031918097 0.03293387

bn4.weight f4 [64]
00000000: e2d2 1f40 ac37 3040 018c 0c40 da38 2140
00000010: 4ada 3040 f076 1c40 6f52 3440 d9f3 1140
00000020: d28f 3040 bea1 1f40 27e8 3340 2b35 2140
00000030: 7af1 2540 8c02 3640 7428 2740 aa60 3040
00000040: c918 3940 cfd5 2c40 71b9 3040 74a2 3140
00000050: c6a8 0a40 e4b4 3940 9ce3 2c40 a3ba 3a40
00000060: daf9 2640 80a1 3140 69ba 2640 92b5 1840
00000070: 479a 3240 ee31 1340 aec1 2e40 ce2b 1240
00000080: bbda 3840 373f 2e40 e167 1240 a801 2740
00000090: 0e72 3e40 8653 2a40 1658 3140 46b6 3640
000000a0: a54f 1e40 f9fa 2b40 4646 1e40 a2aa 1e40
000000b0: 2e02 1b40 4833 3740 b1d9 2140 d0da 2440
000000c0: a1e3 1840 66b3 2140 598d 1c40 e52d 2a40
000000d0: f6c2 3640 a134 3340 4c6a 2640 fca6 3740
000000e0: 6ab2 2440 fccd 1c40 48a0 1f40 db36 2d40
000000f0: ea6f 3a40 6250 4840 5b4b 2740 8ba5 2540
2.4972463 2.753398 2.1960452 2.519095 2.7633233 2.4447594 2.8175313 2.2805083
2.758778 2.494247 2.8110445 2.51887 2.5928636 2.8439054 2.611844 2.7559
2.8921378 2.7005498 2.7613184 2.7755404 2.166551 2.9016657 2.7013922 2.9176414
2.6089997 2.7754822 2.6051276 2.3860822 2.7906663 2.2999225 2.7305713 2.2839236
2.8883502 2.7226083 2.2875903 2.609476 2.9757113 2.6613479 2.7710013 2.854875
2.473611 2.6871932 2.4730392 2.4791646 2.422008 2.862505 2.5289118 2.5758553
2.3888934 2.5265746 2.4461272 2.6590512 2.8556495 2.8000872 2.6002378 2.869567
2.5733895 2.4500723 2.4941578 2.706473 2.9130807 3.1299062 2.6139743 2.588229

bn4.bias f4 [64]
00000000: e510 103f 7484 053f 6a09 3e3f af2c c33e
00000010: 5314 0a3f 5100 1d3f 8dec 1f3f 4eb3 4f3f
00000020: 54f2 1b3f 700b f73e 8602 da3e 2675 cd3e
00000030: e199 c23e fcca 033f d68d 1d3f 732f 0c3f
00000040: b3e5 123f c47d 103f 010f b73e 2b3f cb3e
00000050: 8ffd 5d3f 0ce6 183f 2a89 f33e f611 c63e
00000060: 474b bf3e 7c8e 183f 21bc f43e 8a87 1b3f
00000070: 4a12 0c3f d190 453f 7f12 073f c299 393f
00000080: 105a d23e 9b8a d53e 3f0d 423f 7b57 093f
00000090: b88c ec3e 38c0 013f 80df 0c3f 741c b73e
000000a0: ca9f 1f3f 3e8e 0c3f 5161 f43e 4384 d63e
000000b0: e489 593f 7fac 013f 359d 993e b209 0b3f
000000c0: 64c9 3f3f 3776 de3e 3727 3a3f de3e 123f
000000d0: 9253 fc3e 3160 c33e f586 013f 4872 ef3e
000000e0: ff10 253f f3e1 373f 0792 dc3e 82af 113f
000000f0: 4030 883e 56b1 ce3e 61d0 cb3e 39aa 1c3f
0.5627578 0.5215523 0.74233115 0.38120028 0.5393726 0.6132861 0.6247032 0.8113297
0.6091664 0.48250914 0.4258005 0.4012844 0.38008025 0.51481605 0.6154455 0.547599
0.57381743 0.56441903 0.35753635 0.3969663 0.86715025 0.59726024 0.47565585 0.38685578
0.3736212 0.59592414 0.4779978 0.6075369 0.54715407 0.771741 0.527626 0.7250024
0.41084337 0.4170731 0.7580146 0.5364911 0.4620111 0.5068393 0.55028534 0.35763896
0.62353194 0.54904544 0.47730497 0.41897783 0.8497603 0.50653833 0.30002752 0.5431167
0.7491667 0.43449566 0.7271609 0.5712718 0.4928251 0.38159326 0.50596553 0.46766877
0.6447906 0.71829146 0.4308016 0.5690843 0.26599312 0.40369672 0.39807418 0.6119724

bn4.running_mean f4 [64]
00000000: 930c 2c3e 4264 973e 61f3 4b3d 9e5f 603e
00000010: 4e68 fa3e 555e 6cbe 1fd0 d73d e9d8 c93e
00000020: 3745 973e 8ad9 a63d 55dd f13e 2729 103f
00000030: e4f5 d73e 66cc 453f beaf fd3d 786a bc3e
00000040: 21f0 363f 4792 a13e 5a50 ec3c 58dd 8a3e
00000050: 63f7 f5bd e639 4e3e 9912 463e 34f7 81be
00000060: 612d 27be 470b c83e d4c6 b53d ea91 f23e
00000070: 5ffb 073f 143a df3b 8ca4 503e 223b c43e
00000080: 96f4 923e 44d1 013f f176 6e3e c100 273f
00000090: c7a3 02be 1225 fd3d 3841 753c 46c9 2f3e
000000a0: c648 213f 0406 6d3e f3ef 843e 2394 b13e
000000b0: 066b 9abe 7d8d 063f cb5d 8abd 2d9b 3d3f
000000c0: 667b 11bf e238 3b3e 603e 393e 4dd4 073f
000000d0: 1464 7e3e cdf2 293e 651b e23e dc5e 5f3e
000000e0: c18e 3dbe 0c0a f23e 979a e33e 929b 193f
000000f0: 3abd 5b3d 8ca0 13bc 87cf 443e 6b84 503e
0.16801672 0.29568678 0.04979265 0.21911475 0.48907703 -0.2308286 0.10537743 0.39423302
0.29544994 0.08146961 0.47239175 0.56312793 0.42179787 0.7726501 0.12387036 0.3679998
0.7146016 0.31556913 0.028846908 0.27121997 -0.12010076 0.20139274 0.19343032 -0.25383914
-0.16325904 0.39071104 0.08875814 0.4737695 0.53117937 0.0068123434 0.2037527 0.38326365
0.2870223 0.5070994 0.2328756 0.65235525 -0.12757789 0.12360586 0.014969163 0.17166623
0.6300167 0.23146826 0.25964317 0.34683332 -0.30159777 0.52559644 -0.06756171 0.74064904
-0.56828916 0.18283418 0.180902 0.5305832 0.24842864 0.16596527 0.44161525 0.2181353
-0.18511488 0.4727329 0.4445388 0.60003006 0.053647257 -0.009010445 0.1921979 0.20363013

bn4.running_var f4 [64]
00000000: 516c ce3e 4222 cb3e ca96 c33e 0468 c13e
00000010: 36d1 ca3e a17f cd3e be0b dd3e 0f16 e03e
00000020: 5aba ba3e 4a7a 933e 482a d93e 1cd0 ac3e
00000030: e9e6 f13e 49b0 e43e 0863 c43e 47a0 9d3e
00000040: 11e8 b73e 16b8 c23e 744e de3e f0d9 063f
00000050: 54a1 cb3e 94d3 bb3e 7bc4 e13e 6de1 d83e
00000060: 8da8 bb3e ee0b b53e b4c9 983e 0de3 d33e
00000070: 63df a93e 020c 8a3e 0abe 923e 22c4 fa3e
00000080: f855 e83e 1ae5 c93e 03af c33e d2bf c83e
00000090: b060 c43e 9d1c c13e 06ee a63e f7be e43e
000000a0: b779 d93e 764a a63e 105b cb3e 0b7b bf3e
000000b0: 08d0 c03e 2781 ea3e 6bb9 cb3e a326 cb3e
000000c0: 3642 c23e 69f1 cb3e 52d0 ac3e 30ad bd3e
000000d0: ca82 ea3e 6252 ce3e d3f0 ba3e 6f4a ed3e
000000e0: 8d60 ef3e 24fe cc3e f1b1 a33e d188 ab3e
000000f0: f2e5 e43e 1bd1 d73e c750 a93e ffd6 d83e
0.40317014 0.39674574 0.3820098 0.3777467 0.3961274 0.40136436 0.4317302 0.4376683
0.364703 0.28804237 0.4241507 0.33752525 0.47246483 0.44665745 0.38356805 0.30786344
0.3591924 0.3803107 0.4341923 0.52676296 0.3977152 0.3668486 0.44095215 0.42359486
0.36652032 0.35360664 0.29841387 0.41384163 0.33178243 0.26962286 0.28660613 0.48977762
0.4537809 0.39432603 0.3821946 0.39208847 0.38355017 0.37717143 0.32603472 0.44676945
0.42475674 0.32478684 0.39717913 0.37398562 0.37658715 0.4580166 0.397899 0.39677915
0.3794114 0.3983262 0.33752686 0.37046194 0.4580291 0.40297228 0.3651186 0.4634585
0.4675335 0.40037644 0.31971696 0.3350282 0.44706684 0.42151722 0.3306944 0.4235153

lin.weight f4 [36, 64]
00000000: 0506 b13e a5bc 833e a8f0 4f3d 6266 8fbe
00000010: c36c 2fbe fe4e 3a3e 3198 c13d 5116 dabd
00000020: 42b3 8e3e 5c52 bfbe 1b70 973e 4467 18bf
00000030: f982 5bbe ba81 a83e 71c3 10be 4d08 043c
00000040: e794 9d3e 496b 943d b9d3 2abf dc3c 233d
00000050: 2894 443e fa21 4dbd c987 1ebf a1bd 35be
00000060: 9376 31be 1170 063f 2d62 d9be 8ea9 a63e
00000070: c32a 233e a1c8 a73d 0301 e3be 02d1 bb3e
00000080: 99a4 c2be a04c a6be 3c64 4c3e b59e 43be
00000090: f06f 55bf d6b5 53be 2da3 4a3e 65b7 a4be
000000a0: 7b2f 343e 686f 733c e31f e13e 85aa e9be
000000b0: 9407 4d3d a88b c23e c52c e4bd e146 7cbd
000000c0: 3709 89bd 5791 3abe bcce 483e 6301 f63d
000000d0: 2623 63be 8b4a b3be 99e2 d0be f527 24bf
000000e0: adc1 adbd c8a3 383e 39e3 73be c86a 813e
000000f0: 36cb 37bf f338 e3be f93d 33be 1dcf 17bd
00000100: 7b7d 2fbf e0e4 993e b769 67be a284 8c3e
00000110: b376 ca3d c840 26bf 012d 36bf 992a 38bf
00000120: d612 df3e 1933 39be 61bd c63e 7f34 f43e
00000130: 6cb2 c8be 6c98 77bd be71 aa3c 3c3c 243c
00000140: 38d7 75bd 9889 06bf 5a8e dabe a28b 673e
00000150: a4d2 2abf f402 bf3e 0f6e be3e f452 a13c
00000160: d075 4ebe 3581 d33e f5bc 7b3c 69bf 2dbf
00000170: fd65 2dbd 4af5 b6be 4065 1abd 768b 0cbf
00000180: 9a26 023e 7c42 4d3d 3c5f f0be 587e bc3e
00000190: 979e 64be 7fbc f23e c5dc 723e feff 05be
000001a0: 4184 e4be 44bf b93d e885 31bf d8da 91bd
000001b0: 9634 24be e11a 88be 86f0 213e 2627 ac3e
000001c0: 6ddb ddbe 4a37 5abd eca1 a9be f8b5 f33e
000001d0: aec2 b13e d110 643e 5ed1 21be d0e7 b23d
000001e0: 5e12 a9be 0a35 2bbf eb9c 0dbe 49b0 873e
000001f0: d40c ddbe 6524 483e 1954 cd3e 33dd ff3d
00000200: 3b15 04bf 563d 23be cd06 343d 569f e9be
00000210: 11fc ee3e 39d4 16bc 0e2f 32be ebdb c9be
00000220: c90e da3e 3b94 113e a0ef b23e 68d1 843c
00000230: 16fd 833d bfa1 f5be ebd7 de3d b5ce b53e
00000240: b758 e0be 337c 97be cd5c 65be 88c9 2bbf
00000250: 9c0e c6bd e511 ac3e cd36 aa3d f33b fbbd
00000260: bff8 0abd df6e a13e 4a42 d23e 7f72 fbbe
00000270: 005a 4bbf a4c3 8fbe c117 b93c 388c f2be
00000280: 8814 8cbd 62bc b6bd b32e d7be f86f 933e
00000290: f7be 28bf ab25 113f eb8c 213d e949 96be
000002a0: bf6f b8be 589d 1d3e 1fa7 4dbf d08f de3e
000002b0: 18f0 f43d 5825 67bf fdd1 ab3d c1ad 9d3d
000002c0: e738 5dbe b1cf bb3e 3eec cb3e 2a5b 093f
000002d0: 4abb 45bd 4f26 9dbd 9a48 89bd d16b 48bf
000002e0: 632e 00bf 6ff8 1dbd 3f78 12bd 2ab0 933e
000002f0: 571c 21bf b7f1 13be 00ce 01be ead2 8c3e
00000300: 0242 e6be b309 313e caba 0cbe 3aa0 4abe
00000310: 7f56 81be 7633 3fbe 1433 59be 6290 5fbe
00000320: a3f9 cb3e 80ed e23e ac63 8cbd 1860 d33d
00000330: 5be3 d0be dda4 03be 119c 30bd 33a8 8d3e
00000340: 98ce 55bd 8bdf 31bf 52a7 72be e5b1 aebe
00000350: 3a37 94be 07b5 5f3e 1efc 483d 7bb5 683e
00000360: 3278 833e 657a 193e b025 ce3e 577f cebe
00000370: cb70 acbb c2f6 00bd 895b ab3e 25d5 97be
00000380: bfb3 11bf 82cb e7bc ccea 58bd bb9f 3b3e
00000390: b21e 923e 5ed4 673e 41c1 353d dd62 b8be
000003a0: bdbc e8be fdce 6fbb ab82 dbbd 4b08 85be
000003b0: 0a30 b33e 2630 00bd 19bb 293e f9e1 24be
000003c0: a886 a03c f258 2abe 6cbd cebd 156f 22be
000003d0: 9379 31bd 5210 593e 3221 d0bd 3f43 97be
000003e0: 4a08 8bbd e7d7 a6be 6ca1 e2be 4b66 ca3e
000003f0: ec5f 15bf 3b9e c83d b101 b9be 4c2e df3d
0.34574905 0.25729862 0.050766617 -0.280078 -0.17131333 0.18194196 0.09452856 -0.10648788
0.27871138 -0.37367523 0.29577717 -0.5953257 -0.21436681 0.32911474 -0.14137055 0.00805862
0.30777666 0.072470255 -0.66729313 0.039852962 0.19197142 -0.05008123 -0.6192594 -0.17748119
-0.17330389 0.5251475 -0.42457715 0.32551235 0.15934281 0.08192564 -0.4433671 0.36682898
-0.38016203 -0.32480335 0.19960111 -0.1910351 -0.8337393 -0.20674834 0.19788809 -0.3217117
0.17596237 0.014858104 0.4396964 -0.4563791 0.050056055 0.37997174 -0.111413516 -0.061591033
-0.06691211 -0.18219505 0.19610113 0.12011983 -0.22181377 -0.3501781 -0.4079788 -0.6412347
-0.08484206 0.18031228 -0.23817147 0.2527678 -0.7179445 -0.44379386 -0.1750411 -0.037062753
-0.68550843 0.3005743 -0.22598921 0.2744494 0.09885921 -0.649426 -0.7116242 -0.7194
0.43569058 -0.18085898 0.3881636 0.476963 -0.39198625 -0.060448095 0.02080619 0.010024127
-0.0600197 -0.525537 -0.4268673 0.2261186 -0.6672766 0.3730694 0.37193343 0.019692875
-0.2016213 0.41309515 0.015364875 -0.67870194 -0.04233359 -0.35734016 -0.037694216 -0.549003
0.12710038 0.050112233 -0.46947658 0.36815143 -0.22326122 0.47409436 0.2371703 -0.13085935
-0.44632152 0.09069684 -0.6934495 -0.07121819 -0.16035685 -0.26583007 0.15814409 0.33623618
-0.4333147 -0.053275384 -0.3313135 0.4759977 0.3471884 0.2227204 -0.15802523 0.08735621
-0.33021826 -0.66877806 -0.1382939 0.26501682 -0.4317385 0.19545133 0.40103224 0.12493362
-0.51594895 -0.15941367 0.0439518 -0.45629376 0.46676686 -0.009205871 -0.17400762 -0.39425597
0.42589405 0.14216702 0.34948444 0.016213134 0.06444757 -0.47974965 0.10881027 0.35509267
-0.43817684 -0.29586944 -0.22398682 -0.6710439 -0.09670755 0.33607402 0.08311234 -0.12267294
-0.03392863 0.315299 0.410662 -0.4911079 -0.79434204 -0.2807895 0.022594335 -0.47372603
-0.068398535 -0.0892265 -0.42027816 0.28796363 -0.6591639 0.566981 0.03944103 -0.29353264
-0.36022756 0.15392053 -0.8033313 0.43469095 0.11959857 -0.9029136 0.083896615 0.076991566
-0.21603738 0.36681893 0.39828676 0.5365473 -0.048274316 -0.076733224 -0.06703301 -0.78289515
-0.5007078 -0.038567003 -0.035759207 0.2884534 -0.6293387 -0.14447676 -0.12676239 0.27504665
-0.44972235 0.17288856 -0.1374313 -0.19787684 -0.25261304 -0.18671975 -0.21210891 -0.21832421
0.39838895 0.44321823 -0.068549484 0.10321063 -0.40798458 -0.12855859 -0.043117587 0.27667388
-0.052198976 -0.69481725 -0.2369664 -0.34120098 -0.28948385 0.218464 0.049068563 0.2272548
0.2567764 0.14988096 0.40263128 -0.40331528 -0.0052624694 -0.031485327 0.33468273 -0.29654804
-0.56914896 -0.028295282 -0.052958295 0.18322651 0.28539044 0.22639605 0.044373754 -0.36012927
-0.45456496 -0.003659188 -0.10718282 -0.2598289 0.34997588 -0.031295918 0.16575278 -0.16101827
0.01959546 -0.16635492 -0.10094723 -0.15862687 -0.043328833 0.21197632 -0.101625815 -0.29543492
-0.067886904 -0.32586595 -0.4426378 0.39531168 -0.5834949 0.09795805 -0.36134103 0.10897502

lin.bias f4 [36]
00000000: 44d6 003e 513f 07be 0755 df3d 3465 f13d
00000010: bcda db3d ecd9 bf3b b841 4a3e 4f11 773e
00000020: a6cc 293e 43eb f63d abb6 88bd 8edf 8bbd
00000030: 9e30 d4bd cf50 2ebe c05a 45bd 57a8 2bbd
00000040: f744 593d 42c6 68be 562e 8dbc fb37 793d
00000050: e2eb a8bd b24e 8dbd acd8 a03c 4a2c eb3d
00000060: 4d53 d03c 6e04 083d ee8e aebd 9f3f 5fbb
00000070: 13a8 efbd 5bc1 6f3e 74e7 47bc 310a 6abe
00000080: b9ac b63d 275a 81bd cee9 343e 749a e2bc
0.12581736 -0.13207747 0.109048896 0.11786881 0.1073508 0.0058548357 0.19751632 0.24127696
0.16581973 0.12056591 -0.06675466 -0.06829749 -0.103608355 -0.17023014 -0.04818225 -0.04190859
0.053044286 -0.2273188 -0.017234009 0.060844403 -0.08248116 -0.068997756 0.019634567 0.11483057
0.025430346 0.03320735 -0.085233554 -0.003406502 -0.117019795 0.23413603 -0.012201179 -0.2285545
0.08919663 -0.06316023 0.17667314 -0.02766154

conv.0.weight f4 [8, 1, 5, 5]
00000000: f34e 053f f22a 8d3e 48c7 933d 5bf7 0fbe
00000010: 2bcf 4bbf c27c 853d 9798 a9be 0ded e0bd
00000020: 9454 403e ae99 ccbc c4c8 2b3f ad85 143f
00000030: bcf0 d73d 9d26 abbe bcf6 3e3e f7a5 0c3e
00000040: c482 00bf 7dce 953e 4d71 9a3e 172c 46bc
00000050: 9fbc d33d 07b5 163e 7e23 49bc 86e3 0f3e
00000060: 5677 fa3d aa28 64be 171a f7be 7e2f 0ebe
00000070: e4dc 8dbe a0a4 4bbb 691f 723e f676 8c3e
00000080: b7da b1bd 7f4f 483e 9c50 88be e41b c8be
00000090: 5dfb 66bd 58f5 90be a05e fabd b7f7 74bd
000000a0: d88c 8d3e b2af 91be b925 2cbd 7a2a 5fbe
000000b0: 7a44 fd3d 2e91 66be 285c 90bd 4fb0 e03d
000000c0: f877 123e d645 10bd 8746 95be 44c1 53be
000000d0: ae56 e4be 17f6 ef3e fab7 60be 7086 bfbd
000000e0: 0932 133e 8f77 09bf 6331 043e 6431 803d
000000f0: a026 f53e 401c 07be f249 88be c18c 5d3d
00000100: cf34 543d a297 253f 57cb 703c 8b46 a9be
00000110: 0372 2bbe 8e7d 7a3e 0b3f 14be 877a 97be
00000120: f226 05be ca04 2fbf 2001 13bb 5295 3f3e
00000130: 8125 5abe f293 a6be 4118 4c3e b418 9bbe
00000140: bb83 efbe dc20 19bf 71df 8ebe 2da3 a63b
00000150: 8e4c 573e dede ea3d f651 ae37 2d3e f9be
00000160: 90aa 2e3e 1701 1ebd 3319 3fbe 281b 1a3c
00000170: 25bf 9cbe e465 a63d c80a 783e 21f6 f73e
00000180: cc4c bb3e 8de1 883c cefa 573e b731 5abf
00000190: 1194 a53e 0c31 bd3e 1e65 513e dd8c 613e
000001a0: bdad 063e 3a2a 87bd b1d5 763e 736e 8c3e
000001b0: 8aac d43e 363c 5a3e a80b 43bd a5c9 06be
000001c0: 4e59 09be d427 ff3c 4441 9a3d e86a 7cbe
000001d0: 92cd 43be 0f21 9fbe acd6 57be d1fd b7bc
000001e0: 8576 c63c a8b8 aabe 8ff5 b23c 5e44 3b3d
000001f0: 5bb5 2ebe 9d35 2cbe 5403 c2bd d45a a3be
00000200: a6a2 86bd 7251 42bd d463 38be 28d5 6e3e
00000210: 2193 a9be cf63 63bd 5420 91be 728d 7dbe
00000220: 38e1 173f 6d8a 92be d382 d93c df17 0e3e
00000230: a764 d0bd ee6b 983e ed9c 3e3d 1e25 18be
00000240: 6988 ee3d fbf4 67be b785 8c3e 6492 863e
00000250: 02c1 5bbe d647 8fbe c63a 233e 77f2 f2bd
00000260: 5866 cfbd 2ac1 293e d1ea b53d 0671 0e3f
00000270: 214d 86bd 6b45 803e a480 d83d d830 673d
00000280: 3cad 953e 0a8c 86be 852d bdbe 40a1 b03e
00000290: 2d8a 873e e930 1abe 1d0e b2be c5ea 04be
000002a0: ce05 7cbe d766 b5be 765e 6ebd 3a2b 56be
000002b0: ad53 893e cff7 b43c 33c2 b2be faf0 a53e
000002c0: f7b3 30be 0238 33be 9b1c 9dbe 4749 e83e
000002d0: dd6f 6ebe e75e debe 3cbd 333e f377 cebe
000002e0: 4be5 333e 8391 b63c 7380 0b3e 80d4 5b3e
000002f0: f084 89be 7c14 66bd 87b4 21be 4bd2 4b3e
00000300: 8fcd 3bbe 33ff f73c 55b6 103d 7f7e 06be
00000310: 2068 06be 1c71 8dbd be47 d9bd c616 f13d
0.5207359 0.27571827 0.07215744 -0.14059202 -0.7961299 0.06517936 -0.3312423 -0.10982714
0.18782264 -0.024975624 0.6710322 0.58016473 0.10543963 -0.33427897 0.18648809 0.13735186
-0.5019953 0.292591 0.30164567 -0.012095473 0.10338711 0.14717494 -0.012276528 0.14051637
0.12229793 -0.22281137 -0.48262092 -0.13885304 -0.2770759 -0.0031073466 0.23644795 0.2743451
-0.08684295 0.19561575 -0.26624 -0.3908378 -0.056392062 -0.28312182 -0.122250795 -0.05980655
0.27646518 -0.28454357 -0.042028163 -0.21793547 0.123665765 -0.22516319 -0.070488274 0.10971128
0.14303577 -0.03522285 -0.2915537 -0.20679194 -0.4459738 0.4686744 -0.21945181 -0.09351814
0.14374556 -0.53698057 0.12909465 0.062594205 0.4788103 -0.1319437 -0.26618916 0.05408931
0.051808175 0.646845 0.0146969175 -0.33061633 -0.16742711 0.24461958 -0.14477174 -0.29585668
-0.13003138 -0.6836668 -0.002243109 0.18709305 -0.21303369 -0.32534748 0.19931127 -0.30292284
-0.4678019 -0.59815764 -0.27904847 0.00508537 0.21025297 0.1146829 2.0780582e-05 -0.4868025
0.17057252 -0.038575258 -0.18661956 0.009405889 -0.30614582 0.08124903 0.24222863 0.4842997
0.3658203 0.016709113 0.21091768 -0.8523211 0.32339528 0.36951482 0.2044873 0.22026391
0.13152213 -0.06599851 0.24104954 0.27428016 0.41537887 0.21312031 -0.04761854 -0.13162859
-0.13412973 0.031146921 0.0753198 -0.24650156 -0.19121388 -0.3107991 -0.21077985 -0.022459896
0.024226436 -0.33344007 0.021845607 0.045719497 -0.17061369 -0.16817327 -0.09473291 -0.31905234
-0.065739915 -0.047440954 -0.18006831 0.233235 -0.33120063 -0.055515107 -0.28344977 -0.24760988
0.5932803 -0.28621235 0.02655164 0.13876294 -0.10175448 0.29769844 0.046536375 -0.14857909
0.11647112 -0.22652046 0.27445766 0.26283562 -0.21460345 -0.27984494 0.15940389 -0.11862653
-0.101269424 0.16577592 0.08882678 0.5564121 -0.0655768 0.25052962 0.10571411 0.056443065
0.2923373 -0.26278716 -0.3694879 0.34498024 0.26472607 -0.1505772 -0.34776393 -0.12980182
-0.2461159 -0.35430023 -0.058195554 -0.20914927 0.26821652 0.02209082 -0.34913787 0.32410413
-0.17256151 -0.17501834 -0.30685887 0.45368406 -0.2328486 -0.4343178 0.17552656 -0.4032589
0.17567937 0.022286182 0.13623218 0.21467781 -0.26859236 -0.05617188 -0.15791522 0.19904439
-0.18340133 0.030273056 0.035330135 -0.13134192 -0.13125658 -0.069063395 -0.10609387 0.11771922

conv.0.bias f4 [8]
00000000: 5dd3 b03a ee46 bc38 a71c 923b e924 8bbd
00000010: ae9a 39bd 0893 d53d 9304 22bd 25ca d6bc
0.0013490726 8.97775e-05 0.004458982 -0.067941494 -0.04531353 0.104284346 -0.039555144 -0.026219437

conv.1.weight f4 [8]
00000000: 91e8 613f 61b6 9d3f ea3f 8a3f 4139 933f
00000010: d1e9 8d3f 662f 843f cee1 3d3f b39d 8b3f
0.88245493 1.2321283 1.0800755 1.1501848 1.108698 1.0326965 0.74172676 1.0907501

conv.1.bias f4 [8]
00000000: 89f6 82bd 3ba8 483c 2ce1 9e3d d8e0 1b3d
00000010: 655b 9fbd b25c 5ebd d364 2fbd d158 a73c
-0.06394679 0.0122471405 0.07757792 0.038056225 -0.07781104 -0.05428762 -0.042820763 0.020428093
