checkpoints/Archive/audio_classifier_colab_300.pt (torch, 372445 bytes, 86 tensors)

conv1.weight f4 [8, 1, 5, 5]
000000 ea 85 b6 be ba f5 89 bd 03 05 a4 be d7 d2 4d be
       -0.35649043 -0.06736322 -0.32035074 -0.2009996
000010 55 35 f5 3d 0f 5e af bc 99 cd b6 bc 48 8b f9 3d
       0.11973063 -0.021407155 -0.022314833 0.12184769
000020 62 6e 8a be a9 dd 52 3e 49 b9 c9 3e 3e 19 14 be
       -0.2703734 0.20592369 0.39399174 -0.14462754
000030 e3 e2 c6 bc 1f db 9a 3e 03 da 99 be 5a 31 2d be
       -0.02427811 0.302453 -0.30049142 -0.16913357
000040 c5 3f 53 bf 90 b4 15 bf a3 c4 38 be 03 3b 01 3d
       -0.8251918 -0.5847864 -0.18043761 0.03155042
000050 0f dd aa bd 8a 67 91 be 61 74 9e bd b5 f6 23 3e
       -0.08342945 -0.28399307 -0.07737041 0.1601208
000060 56 72 27 be 88 86 ea be 65 be ac be fd d2 04 bd
       -0.1635221 -0.45805764 -0.3373901 -0.032427777
000070 3b 6a 0a bf 8c 45 59 bd b6 bd ae 3e 29 75 84 3e
       -0.54068345 -0.05304484 0.34129113 0.25870636
000080 23 17 ec 3a 48 38 df 3e cf 0b 13 be ad 71 85 3e
       0.0018012266 0.43597627 -0.14359973 0.2606329
000090 05 c7 a9 3d 4f 64 0f be ba e4 6b bd 70 08 d6 bc
       0.08289913 -0.14003108 -0.057591178 -0.02612707
0000a0 da aa c8 3c 94 e0 94 3e f6 b1 0d 3f f5 09 98 3e
       0.02449553 0.2907759 0.5534967 0.29695097
0000b0 28 68 ea 3e 5b c2 3c 3e 75 a7 b6 bd 7e 58 15 be
       0.4578259 0.18433516 -0.08918659 -0.14584538
0000c0 bf 90 af 3d 92 e4 18 be f0 41 89 be 6c fa bb be
       0.0857253 -0.14930943 -0.2680812 -0.36714494
0000d0 df ae 13 bf 07 6b 52 be 8a 44 20 bd c5 95 30 3d
       -0.5768871 -0.2054864 -0.039127864 0.04311158
0000e0 7d d3 56 be ee 8c 91 bc 33 ec fd bc a3 87 8a 3e
       -0.20979114 -0.017767396 -0.030996418 0.27056608
0000f0 85 81 65 bf 85 73 9a 3d 7f f1 ba 3e 6d 0a d1 3e
       -0.89650756 0.07541565 0.36512372 0.40828267
000100 29 9b 83 3e 06 7b eb bd e5 d8 b9 3e 80 64 64 3c
       0.25704315 -0.11498074 0.3629829 0.013939977
000110 c1 64 31 3d 44 c5 a8 3e aa e9 c0 bd 3e 26 c5 be
       0.043308977 0.32963002 -0.09419568 -0.3850574
000120 34 7f ee 3e fa 67 9b 3e cf 0b 95 be 17 0c ae be
       0.46581423 0.30352765 -0.29110572 -0.339936
000130 0e e3 0b bf f1 bd 88 be 3e df 71 be 92 dc 20 bf
       -0.5464333 -0.26707414 -0.23620316 -0.62836564
000140 07 75 24 be 65 9e 07 3e 0c 20 46 3e fc 9d 3d be
       -0.16060267 0.13244016 0.19348162 -0.18517298
000150 f1 ac be 3e 6c 29 4f be 95 16 85 3e d4 70 f6 bd
       0.3724132 -0.20230645 0.2599379 -0.12033239
000160 14 21 4a 3e 02 30 a6 3d 48 27 be 3e c0 3a 23 3e
       0.19739181 0.081146255 0.37139344 0.1594038
000170 ac d3 18 bc 57 0a 12 be 55 4b 6b 3e 35 d0 fd 3e
       -0.00932781 -0.14261757 0.22977956 0.49572912
000180 01 65 9d 3d 87 5d f2 3d 70 1a cf 3d 48 48 09 bf
       0.076852806 0.11834245 0.101124644 -0.5362592
000190 65 0e 91 3e de 4e ee 3d 06 ef cf be b3 69 d8 3c
       0.28331295 0.116361365 -0.40612048 0.026417589
0001a0 05 2c 6b be b3 3d ca be 82 cd 23 bf 6a 58 dc 3d
       -0.22966011 -0.39500198 -0.63985455 0.10759051
0001b0 17 3c d6 be 40 29 d8 bd b5 a5 03 3d 7a a1 b5 3d
       -0.4184272 -0.10554743 0.032140452 0.0886869
0001c0 24 75 16 3e c7 df b9 3e 70 22 17 3e 6a b8 c6 3c
       0.14693123 0.3630354 0.1475923 0.024257857
0001d0 34 43 a3 3e 4a 5f aa 3e c2 b1 1f 3e 50 70 32 3e
       0.3188721 0.33275825 0.15595153 0.17425656
0001e0 d5 2b cd 3d 23 d6 4b 3e f8 f6 36 3e d2 f3 b4 3d
       0.10018126 0.19905905 0.17867649 0.088355675
0001f0 16 63 25 3e 6f 00 6d bd 56 98 86 bc 0b 88 17 3e
       0.1615108 -0.05786174 -0.016430061 0.1479799
000200 ac d1 46 3e 35 fe 48 3e b5 56 0b be ab eb 01 3e
       0.19415921 0.19628222 -0.13607295 0.12687556
000210 f9 da 01 3e 09 66 d9 3d 9f a4 8c 3e d6 78 90 3e
       0.12681188 0.10615165 0.27469346 0.2821719
000220 fb 4c 0f 3c 00 d4 10 be 2c 89 e6 be 23 7e a0 3d
       0.008746381 -0.14143372 -0.4502653 0.07836559
000230 a0 58 30 bf b0 aa 58 bc 9c 9e e4 bd 64 12 a7 be
       -0.6888523 -0.013224289 -0.11163065 -0.32631218
000240 1b d3 37 bf 95 e9 86 be 55 da 7d be 03 f7 66 3d
       -0.71806496 -0.26350084 -0.24790318 0.056387912
000250 b5 8d ea 3e e5 8d 18 3d 15 25 ac bd 05 72 84 be
       0.4581124 0.037244696 -0.0840551 -0.2586824
000260 a3 32 d9 3d d0 64 86 be dc bd b0 3e e6 fa c9 3d
       0.10605361 -0.2624879 0.3451985 0.09862308
000270 a6 aa 2a 3e 6f 7a 8d 3e ec 78 a2 3e 92 f5 e7 3d
       0.1666666 0.27632472 0.3173288 0.11326136
000280 2c 0c 5b 3e 66 8a 6a 3d 56 fb 3c 3e 46 ba 7e bd
       0.21391362 0.057260893 0.18455252 -0.062189363
000290 b4 3f c6 bd d4 aa 55 bf 87 c3 2b bf 04 7e 62 bf
       -0.09680119 -0.8346379 -0.67095226 -0.88473535
0002a0 fc 49 19 bf 19 97 0a bf ed fe 84 3e 7d 59 b1 3d
       -0.59878516 -0.54136807 0.25975743 0.08659647
0002b0 6c c5 0f 3f 13 bb 05 bf 8a 1b b8 be 41 1f 86 3e
       0.56160617 -0.5223858 -0.3595851 0.2619572
0002c0 67 ed 97 3e eb 2d 11 bd 58 d6 c6 3c 57 f5 b1 3d
       0.2967331 -0.03544418 0.024272129 0.08689373
0002d0 4a a5 a2 be a7 0a d9 bd ff a4 18 3f bd 8f eb be
       -0.3176673 -0.10597735 0.59626764 -0.460081
0002e0 e8 f9 35 bd 72 71 37 bf 74 d3 06 bf 16 37 81 be
       -0.044427782 -0.7165748 -0.526664 -0.2523734
0002f0 ca 29 f8 be 9c 88 c4 3d 60 64 75 3e 0a b1 da be
       -0.48469383 0.09596369 0.23964071 -0.42713195
000300 7a c8 eb bd 63 9e 66 bd 79 35 fd be 9f 68 25 3f
       -0.11512847 -0.056303393 -0.4945486 0.64612764
000310 5f cb 39 3f 3a 87 00 bf d6 09 3d 3e 7b 1d 2f 3d
       0.72575945 -0.5020634 0.18460783 0.042752724

conv1.bias f4 [8]
000000 42 98 0f be af 91 20 bd 7a 9b 3d 3d 39 19 d6 3c
       -0.14022925 -0.039201435 0.046290852 0.026135074
000010 95 b8 dc bd cb 44 23 bd 09 3d 11 3d 40 8a 43 bb
       -0.10777394 -0.039860528 0.0354586 -0.0029837042

bn1.weight f4 [8]
000000 6e 72 8d 3f 8d 22 81 3f 0c 7d 5e 3f 4a cd 7e 3f
       1.1050546 1.0088669 0.86909556 0.99531996
000010 fb 4f 80 3f 21 ff 7a 3f 34 28 82 3f b6 3e 68 3f
       1.0024408 0.98045546 1.0168519 0.9072069

bn1.bias f4 [8]
000000 a8 67 c6 bc c3 78 96 bc 72 e2 f4 3d 82 52 00 3d
       -0.024219349 -0.01836813 0.119572535 0.031328686
000010 19 70 67 3c 5e 94 a5 3d ef 28 19 3e ef 47 9a 3c
       0.014125847 0.080849394 0.14957021 0.018833129

bn1.running_mean f4 [8]
000000 bc 47 14 be 32 37 4c bd f8 24 05 3d 64 5a 90 3b
       -0.1448049 -0.049857326 0.03250596 0.0044053067
000010 2b 12 e3 bd 4a 5c 16 bd f8 30 1b 3d 57 ac b0 bc
       -0.1108745 -0.036709107 0.037888497 -0.021566553

bn1.running_var f4 [8]
000000 46 9e b8 40 de 9b 9d 3f 9a 41 c5 3f aa 15 8d 3f
       5.7693205 1.2313192 1.5410645 1.1022236
000010 d4 2e dc 3f 20 97 c2 3f f5 ab a9 40 17 bc 0b 40
       1.7201791 1.520237 5.302241 2.183355

conv2.weight f4 [16, 8, 3, 3]
000000 b2 4f 5c 3e 54 96 83 3e fa b8 da 3d a6 90 2b 3e
       0.21514776 0.2570063 0.10679813 0.16754398
000010 58 16 50 3e a5 25 69 3e 6a e0 e2 3d 70 17 88 3e
       0.20321023 0.22768266 0.1107796 0.2658038
000020 6d 96 94 3e 51 20 89 3d 60 96 80 3e 6f e2 4c 3e
       0.29021016 0.06695617 0.25114727 0.20008253
000030 60 4a e6 3d 79 ec cc 3b 81 78 ed 3c e3 ca fb bd
       0.11244655 0.0062537757 0.028988125 -0.12294557
000040 2a ed 6d be 56 0d 91 be a9 4c ae 3d 99 3a 80 3d
       -0.23235002 -0.28330487 0.085107155 0.062611766
000050 58 dd 17 bd 13 a0 e3 3c 94 7d 5e 3e 25 13 31 3e
       -0.037076324 0.02778629 0.21727592 0.1729246
000060 fa 37 aa 3d 31 3e c0 b9 82 cc 8e bd 17 d6 ba be
       0.08311458 -0.0003666743 -0.069726005 -0.36491463
000070 8d 07 64 be 7f b9 b0 bd 7a 6b a0 be 30 4d cc bc
       -0.22268505 -0.086291306 -0.31331998 -0.02493915
000080 3c 0a 47 be 62 10 93 3d 19 a3 8c be 91 7c 75 be
       -0.19437498 0.07180859 -0.27468184 -0.239733
000090 77 ed 4b be a0 10 c0 be e9 b8 5a be e9 08 a9 3e
       -0.19914804 -0.37512684 -0.213596 0.3301461
0000a0 ab f3 fa 3d 6e 8e 87 3b 46 fb c0 3d d4 75 47 3e
       0.12253507 0.004136852 0.094229266 0.19478542
0000b0 de 35 93 3d f2 dc b6 bc ed 9c 0e 3d 8b ba b5 bd
       0.07188009 -0.022322152 0.034817625 -0.08873471
0000c0 2f fd 0e be 2e 36 87 be 51 f7 8e be 4c cc ba bd
       -0.1396377 -0.26408523 -0.27923062 -0.09120998
0000d0 74 b3 11 be 69 62 d2 bd 27 55 55 3e 5d dd 75 be
       -0.14228612 -0.102726765 0.20833264 -0.24010225
0000e0 3f a8 be 3d e5 9a f8 bd a7 63 47 3e e2 e7 a2 ba
       0.09309434 -0.12138919 0.19471608 -0.0012428726
0000f0 d7 12 93 be 5c 70 95 3d 0d 6e b9 be fd 99 f7 bd
       -0.2872531 0.072968215 -0.36216775 -0.12089918
000100 f2 da bb bd f4 13 1f 3d 71 23 1c be 8d 29 1a bd
       -0.0917262 0.03883739 -0.15247895 -0.037637282
000110 e7 4e 43 3d 3b 90 b5 3c 7c 78 da 3d 13 51 19 3e
       0.04768267 0.022163501 0.10667512 0.14972334
000120 0a e4 85 3e 33 e0 1c 3e c1 9f 27 3e 4a 3a dd bd
       0.26150542 0.153199 0.16369535 -0.108021334
000130 3c e6 82 3d b5 3b 2d 3d ed 37 a1 3e 1a 55 1c be
       0.0639157 0.04229327 0.3148798 -0.15266839
000140 c7 74 89 3e 5b 76 e0 bd 01 e2 50 be 20 12 ec bc
       0.26846907 -0.109600745 -0.20398714 -0.028817236
000150 be 8b 3f bd 2a 35 8f 3e 6f 54 b8 3e 3a 99 b1 bd
       -0.046764128 0.27970248 0.36001918 -0.08671804
000160 c7 ce 7e 3d 89 c9 ad 3c 85 ed 66 bc d5 da 05 bd
       0.062208917 0.021214264 -0.014094715 -0.032679398
000170 9e 59 e5 bd ce 3c 10 be 2a 79 b3 bd 93 bc 8a 3d
       -0.11198734 -0.14085695 -0.087633446 0.06774249
000180 96 8f ca bb 82 e9 e4 bd d8 0c 1a bd 9a 3a ac ba
       -0.0061816676 -0.111773506 -0.037609905 -0.0013140023
000190 9e 30 83 bd ad 7f d8 bd c6 20 cf bd b2 5d 64 be
       -0.06405757 -0.10571227 -0.10113673 -0.22301367
0001a0 39 a8 0f be 86 b6 09 3e 1d 19 08 be 27 6d 06 3c
       -0.14029016 0.13448533 -0.1329083 0.008204735
0001b0 a1 a0 09 bd 4c 1e 83 3c 88 1d 80 bc 68 75 04 3e
       -0.033600453 0.016005658 -0.015639082 0.12935412
0001c0 b3 10 03 bd 7a 2d 67 3e c2 9b 17 be 71 e3 a5 be
       -0.031998347 0.22575942 -0.1480551 -0.32400087
0001d0 f3 33 80 be 27 3e 21 be ff f5 95 be 6e 7c 09 be
       -0.25039634 -0.15746365 -0.29289243 -0.13426372
0001e0 c3 37 8b be 18 57 c9 3d 76 88 d0 be 25 83 43 3e
       -0.2719098 0.09831065 -0.4072911 0.19092996
0001f0 24 1d 43 3e d1 b9 7c 3c de 5e f5 bd 86 11 09 bc
       0.19054085 0.015425161 -0.11980985 -0.008365994
000200 e9 47 81 3d c7 9a 50 bd a1 be 99 be a0 50 e7 bd
       0.06312544 -0.050928857 -0.3002825 -0.11294675
000210 dc 16 16 be 64 f7 83 be eb bf 8a be 75 20 c8 bd
       -0.14657158 -0.25774682 -0.27099547 -0.09771816
000220 ae eb b7 bd f1 c0 1b be c2 df 99 be e9 cd c1 bd
       -0.08980499 -0.1521032 -0.30053526 -0.09463102
000230 cf 5e 10 3e b6 65 63 bd b2 2a b3 be 11 a6 62 bd
       0.14098667 -0.05551692 -0.3499351 -0.055334155
000240 bb fa be bb 14 ae ea bc f9 d6 a7 bd 95 56 fd be
       -0.0058282292 -0.02864746 -0.081953 -0.4948012
000250 42 af 33 be 52 db 23 be f5 48 e0 3d ab d0 d6 bd
       -0.17547324 -0.16001633 0.109514154 -0.10489019
000260 9d 21 15 bf 9a 95 27 be 16 73 1f be 7e 1d 22 be
       -0.58254415 -0.16365662 -0.15571246 -0.15831563
000270 96 61 01 bc e2 34 5f be cd bb 70 bd 04 11 da bd
       -0.007896801 -0.21797517 -0.05877285 -0.10647777
000280 86 f2 8f 3d 93 c9 f1 bd 42 43 c2 bd 58 85 86 be
       0.070286795 -0.11806025 -0.09485485 -0.26273608
000290 33 9a e4 3d 60 80 7c 3e dd a8 2e 3d 59 a9 cf bd
       0.11162224 0.24658346 0.04264151 -0.101397224
0002a0 5a c6 6c bc 97 91 9f 3e 5d 56 4c be ab 6f 2f be
       -0.014451588 0.31165764 -0.1995482 -0.17132442
0002b0 06 36 26 3e e1 5a 2c 3e ed b4 f5 bd 20 8b 8d 3e
       0.16231546 0.16831543 -0.119973995 0.27645206
0002c0 4e 87 eb bd 71 9e a0 3d 94 d4 6c bd 81 9c e5 bd
       -0.11500417 0.0784272 -0.057819918 -0.112114914
0002d0 a1 d0 a1 3d f3 6c 99 3e 00 77 82 be 2e 7a 9a 3e
       0.07901121 0.29965934 -0.25481415 0.3017134
0002e0 6c 9e 9c bd a0 68 42 be 6b db b0 be 46 58 08 3d
       -0.07647404 -0.18985224 -0.34542403 0.03328731
0002f0 08 65 8e 3d 86 88 8d 3e 7c 2d dc bc 0f fc c3 3c
       0.06952864 0.27643222 -0.026877157 0.023923902
000300 2b fe cb bd 7e d9 8b 3e d8 14 b5 bc 03 72 b0 3d
       -0.09960588 0.2731437 -0.022104666 0.08615496
000310 75 0b 80 bd b8 15 e4 3d 91 78 05 bd 36 fa 7c 3d
       -0.06252185 0.11136955 -0.032585684 0.061762057
000320 63 0e 51 bc 10 13 30 be 07 e2 75 3e 4d ef 7a 3e
       -0.012759778 -0.17194772 0.24012004 0.24505349
000330 d6 a9 9e 3d ea f8 62 3e 67 52 ca 3c 79 e1 0d be
       0.077472374 0.22165266 0.024697496 -0.13855542
000340 a9 00 e6 3d ed 3b 3b 3a 3b 2e 05 3e 17 66 20 be
       0.11230595 0.00071424135 0.13005917 -0.15663944
000350 94 69 2b 3e d6 05 8f 3e e9 f1 29 3d d6 66 12 be
       0.16739494 0.2793414 0.04149047 -0.14297041
000360 15 80 3d 3e 00 7e 38 3e 55 10 2b 3e 0f f8 85 3d
       0.1850589 0.18016815 0.16705449 0.06541454
000370 7a 6e f1 3e 54 3f 8c 3e 7f 10 71 3c 46 a3 f9 3d
       0.471546 0.27392066 0.014713406 0.12189345
000380 71 ed 5b bd 89 9c ad 3b af e3 0a 3d 03 a5 a9 bd
       -0.05369324 0.0052982015 0.033908542 -0.082834266
000390 eb 96 be be ca 27 be bd 1d 4d 90 bd 40 e2 b0 3d
       -0.37224516 -0.09284933 -0.07045958 0.08636904
0003a0 4e 30 c3 3e cf 01 93 bd f8 b9 20 3e 39 75 f0 3d
       0.3812279 -0.07178079 0.15695941 0.117411084
0003b0 86 ac 05 3e 03 e4 26 be 94 03 db bd b3 49 74 bd
       0.13054094 -0.16297917 -0.10694042 -0.059640598
0003c0 63 df 86 3e 4c c0 bb 3e ba d3 09 3e 32 17 80 be
       0.26342306 0.36670148 0.13459674 -0.25017697
0003d0 46 78 4b bd c8 43 07 3e 31 cb 9b bd 70 cf 08 3e
       -0.04967525 0.1320945 -0.07607115 0.13360381
0003e0 cb d2 3a 3d 64 8b 9f be 0a ec 92 be 74 7c bf be
       0.045611184 -0.31161034 -0.2869571 -0.37399638
0003f0 15 02 83 3c 9c 27 9d bd f0 a2 34 be 80 f7 ab bd
       0.015992204 -0.076735705 -0.1764028 -0.08396816

conv2.bias f4 [16]
000000 fc c7 40 3c f3 61 4f 3d dd 4f 67 3c d0 9f fa 34
       0.01176643 0.05063052 0.014118162 4.6682408e-07
000010 78 64 11 be 9b 8b c1 bd 4a 92 97 bd 28 1c eb 3a
       -0.14198482 -0.09450456 -0.07400949 0.0017937468
000020 3b 47 6d 3d bc 88 84 bd 9e 21 e9 bc b3 b1 62 3c
       0.05792926 -0.064713925 -0.028458413 0.013836312
000030 3d 82 d9 bd d4 98 32 bd 59 62 4d 3d 7e a7 bc bc
       -0.10620544 -0.04360278 0.05014262 -0.023029085

bn2.weight f4 [16]
000000 32 e4 6e 3f e0 d3 80 3f 77 44 80 3f 83 00 82 3f
       0.9331695 1.0064659 1.0020894 1.0156406
000010 61 85 79 3f 02 3d 80 3f 55 a6 61 3f cf 95 88 3f
       0.97469145 1.0018618 0.8814443 1.0670718
000020 1e a0 a5 3f a8 8c 85 3f f2 23 6f 3f cf 7c 7a 3f
       1.2939489 1.043355 0.93414223 0.9784669
000030 ea 47 78 3f 99 7c 6f 3f 8b 5e 77 3f 49 a4 87 3f
       0.9698473 0.93549496 0.96628636 1.0597011

bn2.bias f4 [16]
000000 c7 dc 89 be 36 3f 7f be 50 ce 76 bd 9c 94 90 be
       -0.26926252 -0.24926457 -0.06025535 -0.2823838
000010 88 30 98 be 05 3b 92 bd d9 19 92 be 19 80 82 be
       -0.29724526 -0.07140163 -0.28535345 -0.25488356
000020 1f 72 e4 3e 87 e9 b5 3d 4c 6b 39 be 2e 88 8e be
       0.44618317 0.088824324 -0.18107337 -0.27838272
000030 2c 7c e7 bc 65 3c 54 be 25 37 2a 3d c7 8e 93 bd
       -0.028257452 -0.20726164 0.041556496 -0.07204967

bn2.running_mean f4 [16]
000000 c1 af 0e be 2b d9 12 bf 21 a6 70 3d 4e a9 93 be
       -0.13934232 -0.5736262 0.058752183 -0.28840107
000010 38 da a3 bc ea 6d d9 be 11 58 41 bf c3 ca a2 be
       -0.020001516 -0.4246667 -0.75525004 -0.3179532
000020 4d 52 dc be 80 69 10 3f 5a ef a8 3d e4 6e 06 be
       -0.4303154 0.5641098 0.08248778 -0.13128239
000030 cb c5 48 be 0d e1 04 3f fb e8 49 3f 84 ab 2f be
       -0.19606702 0.519059 0.78871125 -0.17155272

bn2.running_var f4 [16]
000000 b8 26 23 3e 26 bb ab 3e 31 a7 c7 3e 74 53 9f 3e
       0.15932739 0.3354122 0.38994744 0.31118357
000010 0a 0f 94 3e b0 1c 2f 3f c5 06 19 3f b2 51 45 3e
       0.28917724 0.6840315 0.59775954 0.19269446
000020 94 61 5a 40 cc 1f 16 40 c7 38 6e 3f 77 44 0a 40
       3.4122057 2.3456907 0.93055385 2.1604288
000030 f8 53 8f 3e 79 9b 03 3f ca 22 f7 3f 3e e8 8d 3e
       0.2799375 0.5140911 1.9307492 0.2771625

conv3.weight f4 [32, 16, 3, 3]
000000 c6 35 a9 ba 92 b7 80 3c 0a 6a 1c ba 24 11 14 3e
       -0.0012909702 0.015712533 -0.0005966729 0.14459664
000010 c6 e7 ee 3d c7 93 72 3d 4c d1 13 be a7 48 5b be
       0.11665301 0.059222963 -0.14435309 -0.21414433
000020 3f bb 58 bd 7b fa b6 3c 97 a7 85 3e 05 82 11 3b
       -0.052912947 0.022336235 0.26104423 0.0022202742
000030 74 79 a5 bc cf 63 6b 3d bb a0 19 3e e1 25 09 3e
       -0.020199515 0.05746823 0.1500272 0.13393356
000040 cb e0 9d 3d c0 e4 b2 3b bb e2 94 bd dd 06 a7 bc
       0.077088915 0.005459398 -0.07269808 -0.020389015
000050 b9 61 da bd 87 a6 83 bd a0 60 06 be c1 51 f5 ba
       -0.1066317 -0.06428247 -0.13122797 -0.0018716381
000060 69 e8 7d be de 90 4a be 9b a2 8c be 84 4e 36 bd
       -0.24795689 -0.19781825 -0.27467808 -0.044508472
000070 20 25 da bd d6 44 3e be d3 5c 09 3f 8a 20 f9 3e
       -0.10651612 -0.18580946 0.53657264 0.48657638
000080 76 20 e1 3e 4d 3a 28 3d e7 b6 47 3e da 5e b3 bb
       0.43970078 0.041071225 0.19503365 -0.0054739537
000090 50 09 3e bd 03 4f c7 bd 08 63 cf bd bf 32 19 3d
       -0.0463956 -0.09731867 -0.101263106 0.03740191
0000a0 ab 74 59 3e 85 b2 88 3e 7b d0 61 3d 2c d9 a2 3b
       0.21235912 0.266987 0.055130463 0.0049697366
0000b0 7a 43 bb 3d 23 1e 1b 3e 5f bb 53 3e 0f 23 4b be
       0.091437295 0.15148215 0.20676945 -0.19837593
0000c0 46 4f 20 3e 65 f1 4a 3e da ca 99 3e a8 23 27 3c
       0.1565524 0.19818647 0.30037576 0.010201372
0000d0 11 b2 18 3b 5c b0 11 be 00 6b 31 bc 1e 05 fa 3c
       0.0023299495 -0.14227432 -0.010828733 0.030520018
0000e0 3d b6 d5 bd 10 96 ef 3b 9c 8b f3 b8 15 3d 2e 3d
       -0.1043515 0.00731159 -0.00011613147 0.04253872
0000f0 f7 85 b6 3e 80 f8 64 3e 44 63 97 3e 42 14 45 3e
       0.35649082 0.2236042 0.2956792 0.19246009
000100 8c 3f f2 3b 61 42 b1 bc 30 1e 15 be d2 c0 ec bd
       0.0073928293 -0.021638097 -0.14562297 -0.11560215
000110 e1 94 7c be f8 86 08 3e ec c3 e1 bd 97 e6 df bb
       -0.24666168 0.13332736 -0.11023697 -0.0068329084
000120 8d 16 07 be 7d 90 cf bc 47 88 dc 3d b9 ec be 3d
       -0.13192196 -0.025337452 0.1076818 0.09322495
000130 8b 9f e2 bd c3 4a 0a be 69 c6 a6 bd 76 13 d6 be
       -0.11065587 -0.13505082 -0.081433125 -0.41811723
000140 3f 6d 14 be 74 fa de 3d 8a 2b 70 3d dd 8b ee 3d
       -0.14494799 0.10887614 0.058635272 0.116477706
000150 4c 7a 29 be 36 40 d6 bd 5a c1 0b be fb 1e b6 bd
       -0.16550559 -0.10461466 -0.13647977 -0.08892628
000160 b5 20 8f 3d b8 76 d6 3d 9d 8a c0 3d 69 4a 8b be
       0.0698866 0.104718626 0.094014384 -0.27205208
000170 b1 0e b0 bd 80 33 97 bd c0 1e 29 3d c8 4c 45 3e
       -0.08596552 -0.0738287 0.04128909 0.19267571
000180 47 10 fe 3d 43 be 2b bb 3e d6 a4 3d 2c fb ee 3d
       0.124054484 -0.0026205934 0.08048676 0.11669001
000190 94 1e ca 3d ce b6 c1 3d a9 b7 53 3e 5f 97 c2 39
       0.098691136 0.09458695 0.2067553 0.00037115344
0001a0 c8 60 72 3c c8 8f 26 bd ba 3e 87 bd bb be c0 bd
       0.014793582 -0.040664464 -0.06603761 -0.09411379
0001b0 ed 9d 87 3d f6 ac 05 be 2b 2c 41 3c c8 e0 86 3d
       0.06621919 -0.1305426 0.011790316 0.06585842
0001c0 ed e0 2f ba b4 46 4e 3c 64 80 b4 3c 2c 56 48 3e
       -0.0006709237 0.012590099 0.022033878 0.19564122
0001d0 f0 43 8b 3d e7 33 2e be aa ee fb bd e2 24 b3 bd
       0.068000674 -0.17011987 -0.12301381 -0.08747269
0001e0 c8 f5 2d bd 48 66 cd bd 36 c1 bd 3d c9 96 f0 3d
       -0.042470723 -0.10029274 0.09265368 0.1174751
0001f0 7e 98 1a be f9 17 ee bd c7 f7 cc bd 67 ea 99 bd
       -0.15097234 -0.11625666 -0.10008197 -0.07515412
000200 56 99 81 3d 64 26 69 bd 3e df d4 bc 77 cd a4 bd
       0.06328075 -0.056921378 -0.025985356 -0.08047002
000210 75 31 df 3c 93 6b ab bd 86 a7 84 3d fa 96 43 be
       0.027245263 -0.083701275 0.06477265 -0.19100562
000220 9a ac 73 bd 94 52 84 be b6 7d 3b bc 83 1c f8 bd
       -0.059490778 -0.25844252 -0.011443546 -0.12114813
000230 b4 e8 68 bc c0 6d d6 bd 28 0a e8 3d 96 77 91 3d
       -0.014215637 -0.10470152 0.11330062 0.07102887
000240 fd 07 a8 39 e1 52 0f be 90 53 08 be 58 e2 53 be
       0.0003204941 -0.1399646 -0.13313127 -0.20691812
000250 23 be 74 3c 83 9b 3a 3e de 86 96 3e 27 7b 37 3e
       0.01493791 0.18223386 0.2939977 0.17918073
000260 89 3a 4e 3e 16 59 fe 3d e2 cf b0 3c 43 ac ab bd
       0.20139517 0.124193355 0.021583501 -0.08382466
000270 e0 1c 94 bd a1 dd 02 be f5 42 fc bb dd 3d 99 bd
       -0.0723207 -0.12779857 -0.0076984116 -0.074825026
000280 c7 74 b4 bd cb d4 25 3d 8c c3 c3 3d 62 a1 8f bd
       -0.08811336 0.04048614 0.09558782 -0.07013203
000290 c3 c6 03 3e 8a 7c ee bc 86 1b c0 3d b9 3a f4 3d
       0.1286879 -0.02911212 0.0938025 0.11925263
0002a0 5c fa 1c be 12 90 68 bd 60 b6 da bd 12 81 83 bd
       -0.1532988 -0.05677802 -0.106793165 -0.064211026
0002b0 7e 36 1e 3e 3b 40 39 3e 8c 1c 4b 3d 80 4d ca 3d
       0.15450475 0.18090908 0.04958777 0.09878063
0002c0 8b 79 ac 3c ca bd 99 be 2d 00 92 bd b2 8a 0d be
       0.02105405 -0.3002761 -0.0712894 -0.1382244
0002d0 e6 31 c6 3d 2c 1f ab 3d e9 57 a6 3d 54 cb 0a bd
       0.09677486 0.08355555 0.08122236 -0.033885315
0002e0 cc 10 36 bd eb 97 49 be a0 44 73 3e fc e8 0a bd
       -0.044449612 -0.19686858 0.23756647 -0.033913597
0002f0 a5 0f fb bc ec 7f 98 3c 49 36 ad 3d fb 9a c0 3d
       -0.030647108 0.018615685 0.0845762 0.0940456
000300 8f 8d af 3d da fd a1 bd 42 16 3f be ee b4 fd 3d
       0.08571922 -0.079097465 -0.18660834 0.12388025
000310 c4 95 6a 3d c7 4f 34 3d 99 0f 83 3d d5 9e 0d 3e
       0.057271734 0.044021394 0.063994594 0.13830121
000320 d2 76 29 3e f9 cd 25 be a8 3d 26 3e 96 d0 b2 3b
       0.16549233 -0.16191854 0.16234457 0.0054569943
000330 1d 0f 9a 3e bc 56 c5 3e 9e 79 8a 3e 2d db 7c 3e
       0.30089656 0.38542736 0.27045912 0.24692984
000340 11 12 73 3d 4f e2 58 bc 18 57 06 bd ef 93 d8 3d
       0.0593434 -0.01323755 -0.032797903 0.10575091
000350 22 c0 ac bd d9 d3 18 3e ee ec 8f bd 0b c1 cf bd
       -0.08435084 0.14924563 -0.070276126 -0.10144242
000360 5d 79 90 bd 0e 46 96 3c d7 8a fc 3c 4e 4d d9 3d
       -0.07054398 0.018343952 0.030827923 0.10610448
000370 25 dc 80 3e f7 af e8 bd c5 ab 26 be 38 1a 60 be
       0.25167957 -0.11361688 -0.16276462 -0.21885002
000380 3b 31 70 3d cf bc 09 be 7a 0f b5 bd 19 9b 36 be
       0.0586407 -0.13450931 -0.088408425 -0.17832603
000390 58 e2 1f bd ff 60 12 bd 8a d1 e6 3d c4 24 46 3d
       -0.039034218 -0.035737034 0.11270435 0.048374906
0003a0 99 08 b1 bd 0c c0 94 bd 02 de a1 be 4d 72 bd bd
       -0.08644218 -0.072631925 -0.3161469 -0.09250317
0003b0 34 7a 67 be 6d fc 9f bd a3 d3 c3 bd e7 e2 26 be
       -0.2260521 -0.07811818 -0.09561851 -0.16297494
0003c0 37 89 52 3e f3 0a 98 3c eb 86 35 3c 76 b9 98 bb
       0.20560156 0.018559908 0.01107953 -0.0046607805
0003d0 2a ae 65 be 49 c6 07 bd a4 fb c8 3d da bd c2 3d
       -0.2242972 -0.033148084 0.09813622 0.095088676
0003e0 bb 1c eb 3d be 78 38 3d 95 44 a6 3d a7 03 19 be
       0.11480089 0.045037024 0.0811855 -0.149428
0003f0 c3 3b 37 be 2f e1 3f 3d fc ed 13 3e 2a 7b 1f bd
       -0.17893891 0.04684561 0.14446253 -0.038935818

conv3.bias f4 [32]
000000 09 7f 07 bc 02 25 19 3d bf 36 ad bb 6a 1c 27 bc
       -0.008270034 0.03738881 -0.0052860673 -0.0101996455
000010 43 23 b3 3c 87 89 82 3c d0 87 fc 3d 23 2c 2b 3c
       0.0218674 0.015934719 0.12330592 0.010447535
000020 4c c6 7f 3d 30 66 dd 3c 2f 68 14 bd 11 2d df 3c
       0.06244497 0.027026266 -0.03623217 0.027243169
000030 70 e8 92 3c 41 31 8a 3d 4d 67 47 3d 34 40 40 bb
       0.0179331 0.06747676 0.0486825 -0.0029335143
000040 bd 7a d6 3a 81 91 f1 bb 44 b0 a5 bb ef b1 96 bc
       0.0016363483 -0.0073720817 -0.005056413 -0.018395392
000050 26 5a ac bc 51 d4 8a bc b6 82 78 3c d0 21 f4 bb
       -0.02103908 -0.016946943 0.015167883 -0.00745032
000060 1d 46 08 3d ab de ab bc 49 56 61 3c ac 2d 86 bd
       0.03326999 -0.0209802 0.013753482 -0.0655168
000070 e3 0e ca bc 7c e3 9a bc c1 85 21 3d f3 40 e0 3c
       -0.024665302 -0.018907301 0.0394342 0.02737472

bn3.weight f4 [32]
000000 5f c9 1a 3f 78 b0 5b 3f 7f 5d 30 3f c9 ab 86 3f
       0.6046352 0.85816145 0.68892664 1.0521175
000010 79 26 36 3f 7f 95 5d 3f 48 9e 8e 3f 09 42 5c 3f
       0.71152455 0.8655624 1.1142054 0.8603826
000020 de e3 53 3f 6e b1 89 3f 33 6a 9c 3f dd 4e 81 3f
       0.8276957 1.0757272 1.221991 1.0102192
000030 aa 02 7c 3f af 19 55 3f 2b 90 89 3f 61 4f 7c 3f
       0.98441565 0.83242315 1.0747122 0.9855862
000040 97 f3 15 3f 74 2e 8e 3f 3b 41 39 3f 3f 00 9b 3f
       0.58574814 1.1107926 0.7236516 1.210945
000050 2c 75 87 3f 90 c0 93 3f e7 cf 5f 3f 1d fc 7e 3f
       1.0582633 1.154314 0.8742661 0.99603444
000060 7a 7f a1 3f 3a 5d a5 3f c7 cc 7a 3f 76 41 77 3f
       1.2617028 1.2919075 0.97968715 0.9658426
000070 8e 94 9f 3f 4d 2a 89 3f d2 8b 92 3f 23 c4 85 3f
       1.246721 1.0716034 1.144892 1.0450481

bn3.bias f4 [32]
000000 19 e9 e4 bd a6 7b db bb 31 3e b5 3c ff 4e 11 be
       -0.11177272 -0.0066980897 0.022124382 -0.14190291
000010 29 73 b1 bd d4 89 19 be 74 c9 85 be 44 ec 7a be
       -0.08664543 -0.14993984 -0.2613026 -0.2450419
000020 73 75 05 be 3c 0b 11 be f4 06 4e be c0 9b 0c be
       -0.13033085 -0.14164442 -0.2011984 -0.13731289
000030 97 88 3c 3d 30 4e ef bd 1a 07 a1 bc 8a e7 fc be
       0.0460287 -0.11684835 -0.019656707 -0.493954
000040 03 af e7 bd d5 8b f4 bd 3a 08 c6 bd 3d 97 79 be
       -0.11312678 -0.11940733 -0.09669538 -0.24374099
000050 9c 0d 0e be b4 a7 fe 3d f9 87 9a be b9 37 97 be
       -0.13872379 0.124343306 -0.30181864 -0.295347
000060 7a 12 23 be 5b 98 30 be 8b 35 b2 bd 49 8d a4 bd
       -0.15925017 -0.17245619 -0.08701619 -0.080347605
000070 26 f9 f0 bd 81 52 8e 3d 50 6c f8 bd 3f 60 ce bd
       -0.11766271 0.0694933 -0.12130034 -0.10076951

bn3.running_mean f4 [32]
000000 f2 16 ef be 9e 98 90 bd 05 c4 53 bf 14 86 34 3e
       -0.46697193 -0.070603594 -0.8272098 0.17629272
000010 48 76 16 3e 06 5d eb 3d 16 2b 7d 3f b9 68 2e 3f
       0.14693558 0.11492352 0.9889387 0.68128544
000020 c0 17 08 3e b2 1b 83 bd ab b9 f9 be 42 cd 01 be
       0.1329031 -0.06401767 -0.48774466 -0.12675956
000030 70 97 09 bf 32 dd a9 3e 91 4e b7 be c2 0c 9c 3f
       -0.537467 0.3317657 -0.3580213 1.2191393
000040 2c cf 0a bf 6d c1 b8 bf b6 e6 e8 be 9f 5b 68 3f
       -0.5422237 -1.4434029 -0.45488518 0.907648
000050 98 59 df 3f 4b f7 17 bf f8 ec 4c bb 64 1b 22 3f
       1.7449217 -0.59361714 -0.0031269174 0.63323045
000060 cc 9b 44 3e b1 c9 74 3e 6d 35 4f be ed 61 99 bd
       0.19200057 0.23905064 -0.20235224 -0.07489381
000070 f6 83 d4 bb 81 d9 80 be f7 45 47 3e 0b 38 7e be
       -0.0064854575 -0.25165942 0.19460283 -0.24826066

bn3.running_var f4 [32]
000000 50 2e 6a 3f 00 fe 09 40 36 0d 07 40 6f 4f c3 3f
       0.9147692 2.156128 2.1101813 1.5258616
000010 f0 a5 1e 40 fd b3 6d 3f f6 03 1a 3f ff 06 01 3f
       2.478878 0.92852765 0.60162294 0.504013
000020 cf 20 1f 3f 68 ea e0 3f 1a 46 6a 3f b7 d5 88 3f
       0.62159437 1.7571535 0.91513216 1.069022
000030 95 4c 90 3f 1f 01 5a 3f c1 96 24 40 cb 02 ef 3e
       1.1273371 0.8515796 2.5717013 0.46681818
000040 d4 b6 05 40 17 74 3c 40 6f 12 77 3f 00 35 b0 3f
       2.089284 2.9445856 0.965125 1.3766174
000050 04 f5 dd 3f a6 01 4e 40 07 89 28 3f 63 df f3 3e
       1.7340398 3.2188506 0.6583409 0.47631368
000060 20 1a ad 3f 8b 3c 16 40 37 54 45 3f a1 de 2c 3f
       1.3523598 2.3474452 0.77081627 0.67527205
000070 5b 06 6e 40 c1 0a 9b 40 1a 35 8f 3f 11 27 d1 3f
       3.719138 4.8450627 1.118808 1.6340047

conv4.weight f4 [64, 32, 3, 3]
000000 39 67 81 bd 2a db fe bd fa 4a 5e bd 8b 0e ec bc
       -0.06318516 -0.12444146 -0.054270722 -0.028815528
000010 85 b1 c0 3d 95 c6 ba 3b db 82 b7 bd 85 19 c8 bc
       0.09408859 0.0056999424 -0.089605056 -0.024426231
000020 70 c9 28 be 61 22 d2 bc 41 36 90 3c b2 3f 5d bd
       -0.16483092 -0.025651159 0.017603995 -0.054015823
000030 c3 a3 22 be a0 fd cc bd 18 9b c2 bd 9e 6f 57 3d
       -0.15882783 -0.10009313 -0.09502238 0.05259668
000040 e2 07 e8 bc 0a c6 24 bd cd 69 e1 3c ea 93 10 bd
       -0.028324071 -0.040227927 0.02751627 -0.03529731
000050 44 d5 4e bd 22 68 40 3c e5 80 1b bd 23 fc 50 3c
       -0.050496355 0.011743577 -0.03796472 0.012755427
000060 18 cc 62 bd a5 df 24 be 9c 0a b4 bd 84 3b d8 3d
       -0.05537042 -0.16100939 -0.08791086 0.10558227
000070 25 84 86 3e 17 a4 0f 3e 1a 96 8d 3c 91 99 a5 bd
       0.26272693 0.14027439 0.017283488 -0.08085931
000080 8f a5 62 3c 96 bb 15 3e 1c 52 40 3e 32 0c 3e 3e
       0.013833418 0.1462234 0.18781322 0.1855934
000090 18 3f e1 bc ab a8 f1 bc 3c 56 ce bc fd 19 ce bd
       -0.027495906 -0.029499372 -0.025187604 -0.100635506
0000a0 23 85 7e bc e6 2d f0 3d 83 ea df bb aa be ae bd
       -0.015534672 0.117275044 -0.006833376 -0.0853246
0000b0 4a eb 35 be 8e f6 5f 3d 2d 95 c1 3c 7b 19 34 bd
       -0.17765537 0.054678492 0.023630703 -0.043969613
0000c0 94 db a6 bd ce 6a c6 bc 39 48 32 bb c3 2a 91 3d
       -0.0814735 -0.02422085 -0.0027203693 0.07088234
0000d0 97 99 fe bc 30 05 35 3c 72 af 03 be 70 89 9e bb
       -0.031079097 0.0110486 -0.12859896 -0.004838161
0000e0 65 63 7a 3d 81 03 98 3c c3 00 8c bc 3f 1c 3b bd
       0.061129946 0.018556358 -0.017090207 -0.045681234
0000f0 60 74 92 bd 9d 2f e8 bc 54 d2 33 3c 5b 3b 6c bd
       -0.07151103 -0.028343016 0.010975439 -0.057673793
000100 6e fb 2e bd 69 e9 c2 bd b0 0e 20 3e 91 6f 81 3e
       -0.04272025 -0.09517176 0.15630603 0.2528043
000110 08 b0 66 3e 59 72 14 bd 06 fa 7d bd 04 93 9a bd
       0.22528088 -0.036241863 -0.06200602 -0.07547572
000120 9c e3 a7 3d 21 e4 88 3d 75 49 0d ba bb b8 94 bd
       0.0819771 0.06684137 -0.0005389669 -0.07261797
000130 b9 16 00 be b2 08 61 bd 0d 3b 9f bc c3 29 26 3d
       -0.12508668 -0.054939933 -0.019437337 0.04056717
000140 4e 2e 30 3d a3 0a 2b bd 6d a1 c7 bd ef b2 1f bd
       0.04301291 -0.04175819 -0.097475864 -0.038989004
000150 b0 89 47 bc 36 fa 4f bd 90 73 c7 3c e5 59 24 be
       -0.012178823 -0.05077573 0.024347097 -0.16049917
000160 19 3c 48 be 89 1c 25 be 5d 3f 40 3d 56 ff db 3d
       -0.19554175 -0.16124167 0.046935428 0.10742061
000170 a3 c3 20 3d c9 52 da 3c 57 64 c4 3b 6c 02 17 3e
       0.039249074 0.026650803 0.0059934068 0.14747018
000180 4d f3 4f 3b d6 41 62 3d 17 91 56 3d d0 b6 06 3d
       0.0031730712 0.055238567 0.052384462 0.032889187
000190 bd b8 c3 3d 5c 80 8f 3d 41 da 6a 3e 50 5b 68 3e
       0.095567204 0.070069045 0.2293482 0.22691083
0001a0 90 26 88 3d 41 c1 8d 3d 4a 64 f7 3d 27 04 ec 3d
       0.0664798 0.06921626 0.120796755 0.115242295
0001b0 24 f6 1a be 9d 1b 3e be 10 34 37 bd bc 02 f3 bd
       -0.15132958 -0.18565221 -0.044727385 -0.11865756
0001c0 fb b5 c3 bd a4 1f 55 be 42 8a fb bd aa f9 fb bd
       -0.095561944 -0.20812851 -0.1228223 -0.12303479
0001d0 6e 5e 94 bc 9c 1c 18 3e aa a0 79 3e fc 5a 0a 3e
       -0.018111434 0.14854664 0.24377695 0.1351127
0001e0 d7 0d ac 3d 8e 4f a5 3d a1 10 b6 3d 23 1a 49 3e
       0.08401077 0.080718145 0.088898905 0.19638877
0001f0 8f 3a 6a 3e c1 7c cc 3d 89 35 44 3e 45 0a 15 3e
       0.22873901 0.099847324 0.19161047 0.14554699
000200 6f b3 09 3c 4f 18 61 3d ce ce 94 3d 12 76 c6 bc
       0.008404597 0.054954823 0.07266007 -0.024226222
000210 94 d3 5a 3e 2e 2e 14 3e 00 d1 0a 3e 1c 72 11 be
       0.21369773 0.14470741 0.1355629 -0.14203686
000220 13 35 46 be 91 f8 4e be 46 87 61 bd e7 6e d8 bd
       -0.19356184 -0.20212008 -0.055060647 -0.10568028
000230 c1 8e a6 bd 4b 83 ad bd bc 3e d4 bd 90 54 ad bd
       -0.08132697 -0.08472308 -0.10363528 -0.08463395
000240 7b 34 49 be 99 b7 52 be 41 73 91 bd f4 9d 62 bd
       -0.19648926 -0.2057785 -0.07102061 -0.055326417
000250 b3 0a 4d bd 35 92 0c be 77 7c 02 be f9 03 86 bd
       -0.05005903 -0.13727649 -0.12742792 -0.065437265
000260 89 96 be bd 9a 15 eb 3d d9 f4 0d 3e cd 71 8f 3d
       -0.09306056 0.114787295 0.13862933 0.07004128
000270 2b 5e d6 3d 1e ea 45 3e 06 1c 3c 3e 95 9a eb 3c
       0.1046718 0.1932759 0.18370065 0.028760234
000280 ea 34 e6 3d 8d 61 97 3d 6b c9 10 bd 82 d0 12 be
       0.11240561 0.07391653 -0.035348337 -0.14337352
000290 51 3c 0a be 95 67 25 3d ab 4b 22 3c e4 14 03 bd
       -0.13499571 0.040381987 0.009905736 -0.032002345
0002a0 ee e2 8b bd 30 29 b8 bd c3 33 02 be 1b 39 80 3d
       -0.06830393 -0.08992231 -0.12715058 0.06260892
0002b0 dc 22 02 3c ae 78 7a 3d 48 67 80 bd 97 f7 00 be
       0.007942881 0.061150245 -0.06269699 -0.12594448
0002c0 3f 43 30 be e5 fe ed 3c 8d ff fd 3c ea 51 0e 3d
       -0.17213152 0.029052207 0.031005645 0.034746088
0002d0 a4 c1 ab bc b3 a1 83 bd b0 ab b7 bd d8 1d db 3d
       -0.020966358 -0.06427326 -0.08968294 0.106990516
0002e0 e5 e6 36 3e dc 1e 25 3e d2 f2 e7 3d e0 9a 98 3d
       0.17861517 0.16125053 0.11325611 0.07451415
0002f0 89 99 23 3e 4a 9f 05 be 9f d2 25 be 1d 8e 29 be
       0.15976538 -0.13049045 -0.16193627 -0.16558118
000300 88 91 86 bd 73 40 09 be 2f 6b ff bc b6 42 a7 bd
       -0.06570727 -0.13403492 -0.031179039 -0.08167021
000310 5b 13 03 be 34 1c 0b be 94 64 a6 bd 9e 52 12 be
       -0.12800352 -0.13584977 -0.081246525 -0.14289328
000320 14 cd 6c bd 39 ae d5 bd 35 a1 ab bd 2b c7 d8 bd
       -0.057812765 -0.10433621 -0.08380357 -0.10584863
000330 c5 cd 01 be 7d 9a 43 bd 58 f0 61 3c d6 eb af bc
       -0.12676151 -0.047754753 0.013790213 -0.02147476
000340 b2 08 6c bc 18 d1 bc 3c 12 ac f7 3d d8 97 48 3d
       -0.01440637 0.023048922 0.12093367 0.048972934
000350 75 bc aa 3d fd 77 19 3d 19 3e a1 bd 7d 93 5c bd
       0.083367266 0.037467945 -0.07873172 -0.053851593
000360 94 38 29 3e 69 3c cd 3d 87 dc a1 3d a9 82 b6 3d
       0.16525489 0.10021288 0.079033904 0.0891164
000370 10 f6 00 3e 56 db b9 3d 3d 38 2b 3d 2f dc b2 3d
       0.12593865 0.09075038 0.04180168 0.08733403
000380 7d bd a7 3d ec 7d 0d 3e f0 63 86 3c 12 b6 40 3d
       0.08190439 0.13817567 0.016405076 0.047048636
000390 33 30 93 be b6 e5 84 be b3 e0 7b be a2 6b 56 3e
       -0.2874771 -0.25956506 -0.24597435 0.20939496
0003a0 1f 51 37 3d 2f 3a 20 3e fb ca ac bd f4 e2 55 be
       0.044755097 0.15647195 -0.08437153 -0.20887357
0003b0 85 18 26 be 1d 91 df bd b8 ef 2e be 6d e3 88 bd
       -0.16220291 -0.1091635 -0.17083633 -0.06684003
0003c0 45 25 88 bd 26 59 e8 bd 17 83 e6 bd 95 6c af bd
       -0.066477336 -0.11345129 -0.11255472 -0.08565632
0003d0 2c 6d 93 bd 99 7d 0e 3d 51 07 20 bc 50 f9 88 3d
       -0.07198557 0.034787748 -0.009767369 0.066881776
0003e0 9d c3 6d bc 44 85 18 bd c6 60 b7 bd 3c 5b 61 3d
       -0.01451197 -0.037236467 -0.08954005 0.05501865
0003f0 63 a2 08 be e2 31 ce be 93 4a b3 be f2 1d d5 3b
       -0.13343196 -0.40272433 -0.35017833 0.006503814

conv4.bias f4 [64]
000000 93 cc 9d 3c ed fa 88 3d 90 cd 3b 3c c3 9c 93 3d
       0.019262588 0.06688485 0.011462584 0.07207634
000010 e7 54 08 bd da a1 0c bd 96 1f 90 bd b6 c3 25 3d
       -0.033284094 -0.03433404 -0.070372745 0.040469848
000020 9b 80 80 3d 67 96 f8 ba ca af 68 3d 4c eb 3f 3d
       0.062745295 -0.0018965722 0.05680827 0.046855256
000030 61 ee 73 3d 14 51 98 3d a0 ac 07 bd b2 74 80 bc
       0.059553508 0.074373394 -0.033123612 -0.015680645
000040 6f c6 7a 3d 81 23 61 3d a7 4a 55 3d 3a ae 7c 3d
       0.061224397 0.0549655 0.052073147 0.061689593
000050 8b 15 50 3c 8d a9 ad bd c9 1a 88 3d 71 b4 46 3d
       0.012700449 -0.08479605 0.06645734 0.048511926
000060 ec 33 93 3d 07 87 c7 3c a9 24 ea 3d ae bd 20 3d
       0.07187638 0.024356378 0.114327736 0.039243393
000070 05 59 33 3c e9 4f c3 3c 0a bd 89 3d b3 88 9a 3d
       0.010946517 0.023841815 0.067255095 0.075456046
000080 93 af 5d 3d f2 08 d4 bd bf 45 f4 3c c6 07 86 3d
       0.05412252 -0.10353269 0.029818414 0.065444514
000090 e3 c6 81 bd 04 59 75 bc 83 be 44 3d c8 bc 21 3d
       -0.06336763 -0.014974836 0.04803325 0.039486676
0000a0 91 e6 c0 bd ad 33 f6 3a 13 9e 68 bc 56 94 2f 3c
       -0.09418977 0.0018783711 -0.014197844 0.010716518
0000b0 be a5 2f 3d 36 61 19 3d e8 f3 f6 3c 69 b1 83 3d
       0.042882673 0.037446223 0.0301456 0.06430323
0000c0 6e 7d 82 3d ce 22 b6 bc 83 1a b3 3c 67 93 8b 3a
       0.0637158 -0.022233393 0.021863228 0.0010648788
0000d0 e1 72 34 3d 94 1c 85 bd 57 67 5d 3d bb 78 ac bc
       0.04405487 -0.064995915 0.05405363 -0.021053663
0000e0 c3 c4 86 bd ac 70 41 bd 6d 56 54 bd e3 92 16 3d
       -0.06580498 -0.047226593 -0.051840235 0.036761176
0000f0 28 f8 d7 3d d3 08 ee 3c 30 ec 4e 3d e9 24 62 3d
       0.10545379 0.029056942 0.050518215 0.05521098

bn4.weight f4 [64]
000000 fc 90 47 40 43 36 51 40 1c b8 6b 40 67 8b 4e 40
       3.1182241 3.2689369 3.6831121 3.2272584
000010 a7 af 6a 40 38 29 37 40 ca 3f 44 40 00 ef 49 40
       3.666971 2.8618908 3.0663934 3.1552124
000020 34 8b 72 40 85 3a 60 40 20 1b 70 40 d9 0a 57 40
       3.7897463 3.5035717 3.7516556 3.360037
000030 72 61 79 40 e3 93 68 40 b1 9e 5a 40 67 a5 57 40
       3.8965726 3.6340263 3.4159358 3.3694704
000040 fd ca 4d 40 fc bd 55 40 f9 98 66 40 0d 18 7a 40
       3.2155144 3.3397207 3.6030867 3.907718
000050 d9 67 39 40 09 c7 3b 40 a4 d2 5b 40 f6 a0 51 40
       2.8969634 2.9340231 3.4347315 3.2754493
000060 bd fa 48 40 46 0f 52 40 5c 3b 58 40 c2 11 58 40
       3.1403039 3.2821822 3.378623 3.3760839
000070 7c b9 5d 40 38 f8 65 40 e0 f2 57 40 80 16 7e 40
       3.464446 3.593275 3.374199 3.9701233
000080 f2 91 70 40 83 76 38 40 ca 82 55 40 a0 de 55 40
       3.7589078 2.8822334 3.3361077 3.341713
000090 38 f0 20 40 e8 98 3d 40 a8 1e 40 40 9d 77 6f 40
       2.5146618 2.9624577 3.001871 3.7416756
0000a0 89 72 23 40 8a 11 77 40 37 6b 37 40 f6 81 6a 40
       2.5538657 3.8604455 2.8659189 3.6641822
0000b0 97 c1 63 40 53 c8 42 40 c0 78 68 40 6a 77 72 40
       3.5586908 3.0434768 3.63237 3.7885385
0000c0 16 f2 5a 40 cc ab 37 40 55 ca 3b 40 d9 21 5a 40
       3.4210258 2.8698606 2.9342244 3.408316
0000d0 b7 65 69 40 61 68 3c 40 27 eb 46 40 82 31 2e 40
       3.6468332 2.9438708 3.1081026 2.7217717
0000e0 e7 18 56 40 82 8c 3b 40 97 d7 4b 40 64 b5 4f 40
       3.34527 2.930451 3.1850336 3.2454462
0000f0 3c 00 4e 40 7f 9a 5c 40 1a d5 5c 40 7b 3e 50 40
       3.2187643 3.4469297 3.4505067 3.2538135

bn4.bias f4 [64]
000000 80 0c 37 3d 1f 63 1c 3c b8 d5 e1 bd 54 fc 1d 3e
       0.044689655 0.009545117 -0.11027092 0.15428287
000010 09 87 7d 3c c5 85 2a 3e fe 5b 90 3e cd 8a 75 3e
       0.015474089 0.16652592 0.28195184 0.2397873
000020 65 c5 08 3d ac e1 9e 3b e4 90 08 bd 8b 15 87 bd
       0.033391375 0.0048486795 -0.033341303 -0.06595906
000030 e8 e9 83 bc 69 b2 27 bd bb 28 53 3e f3 14 88 3e
       -0.016102746 -0.04094163 0.20621006 0.26578483
000040 80 55 06 3d 46 59 30 3d 87 02 e9 bc 69 96 4c 3b
       0.032796383 0.043053888 -0.028443588 0.003121758
000050 11 d6 60 3e 3b 35 a0 3e ad 55 1b 3d c6 c7 b9 3a
       0.2195666 0.31290612 0.037923504 0.0014173917
000060 3a 43 4f 3d d4 8e b8 3d 46 50 2d bd b7 9c 36 3e
       0.05060122 0.09011617 -0.042312883 0.1783322
000070 a8 5a f8 bd 2e af 63 3b 94 31 c3 bd 76 66 d6 3d
       -0.12126666 0.0034741866 -0.09530941 0.104687616
000080 e4 ad c1 3c a9 af ea 3e c2 df 94 3d 1a 3a 96 bd
       0.023642488 0.45837143 0.07269241 -0.07335301
000090 16 70 e3 3e cb f9 0f 3e 17 8e 13 3e 47 2d ab bd
       0.44421452 0.14060132 0.14409672 -0.08358245
0000a0 68 68 85 3e 7e b5 d7 3d cc e7 0c 3e b1 f4 5e bd
       0.26056218 0.10532664 0.13760298 -0.054432575
0000b0 ce 7b 71 3d d5 5b 0f 3e dc 8c ae bd ed 31 09 bd
       0.05895596 0.13999875 -0.085229605 -0.03349488
0000c0 23 b6 8d bd 13 b5 82 3e 2d d0 51 3e c1 4b 92 bc
       -0.069195054 0.25528774 0.20489569 -0.017858388
0000d0 41 c6 81 bc 4e b4 8c 3e 51 0e e1 bc 15 4a 74 3e
       -0.015841605 0.27481312 -0.027472647 0.23856385
0000e0 b8 9c ee 3c f3 18 88 3e b7 83 24 3e a1 b9 1c 3e
       0.029127464 0.26581535 0.1606587 0.15305187
0000f0 66 b5 3b bd 92 f7 28 3d 50 1f 98 3d 83 6f 59 3e
       -0.045827292 0.041251726 0.074278474 0.21233945

bn4.running_mean f4 [64]
000000 e1 1c da bd 3e f4 a4 3e 73 17 05 3e 5c 49 f4 3e
       -0.106500395 0.32217592 0.12997226 0.4771222
000010 c8 2d c9 be 0d 35 ee be 96 e5 0c bf 50 58 97 3e
       -0.3929274 -0.4652485 -0.5503782 0.29559565
000020 49 86 58 3e 75 af 59 be a3 ed 22 3e 4b f0 6a 3e
       0.21144976 -0.21258338 0.15910964 0.22943227
000030 12 68 59 3e d8 40 51 3e 08 b8 81 be 08 60 8e be
       0.21231106 0.20434892 -0.25335717 -0.2780764
000040 95 3f 4d 3d 44 55 3c 3e ec e2 83 3d cc dd ec 3d
       0.050109465 0.18391901 0.06439766 0.11565742
000050 33 66 f8 3c 77 bf 61 bf 62 75 e6 3e 88 ef 6b 3e
       0.03032217 -0.8818278 0.4501143 0.23040593
000060 a6 07 a4 3e 6e ee 73 bd ad 9d 03 3f 5f 5c 53 3e
       0.32037085 -0.059553556 0.5141247 0.20640706
000070 ad fd b1 be 1d da 47 3d e1 95 7c 3e d3 64 57 3e
       -0.34763852 0.048791993 0.2466655 0.21034555
000080 14 aa 31 3d 0e 70 21 bf cd cc 8d 3e eb fc be 3e
       0.04337509 -0.63061607 0.27695313 0.37302336
000090 45 f2 e0 be 07 ad 8c be 6a 7f 56 3e c3 16 da bd
       -0.43934837 -0.2747576 0.20947042 -0.10648873
0000a0 28 d2 46 bf 72 1b 2f be 98 c7 07 bf c8 07 b5 3c
       -0.77664423 -0.17100313 -0.5303893 0.022098437
0000b0 7c 3a 92 3c 4a b5 a6 3e 2b da 65 bd d2 f2 93 3e
       0.017850153 0.32560188 -0.056116264 0.28896195
0000c0 77 59 e2 3d 66 97 3d bd d9 1a 57 be 6d ff 16 3e
       0.1105222 -0.046286963 -0.21006335 0.14745875
0000d0 d5 49 7a 3e 3f cb 54 bf 23 52 31 3e 4e e1 09 bf
       0.24442227 -0.8312263 0.17316489 -0.5385941
0000e0 ea 49 19 bf b4 8a 21 bf a8 bf f4 be 6e 8c c5 3e
       -0.5987841 -0.6310227 -0.47802472 0.38583702
0000f0 e5 91 30 3f e7 21 05 be 93 9f d3 3d 8e 47 57 3e
       0.6897262 -0.13001214 0.10333171 0.2102339

bn4.running_var f4 [64]
000000 a9 e2 93 3e 53 a7 ba 3e f6 b9 e7 3e 74 73 84 3e
       0.28883865 0.36455783 0.45259064 0.25869334
000010 f6 59 07 3f 0a 66 c1 3e bc 0e 5f 3e e5 67 b8 3e
       0.52871644 0.37773162 0.21782964 0.36016765
000020 36 9a bf 3e 06 81 99 3e 3a aa c4 3e 71 4d e2 3e
       0.3742234 0.2998125 0.38411123 0.44199708
000030 3e 46 ad 3e 7a 56 9a 3e 58 c0 7a 3e f2 cf 92 3e
       0.33842653 0.301441 0.24487436 0.28674275
000040 49 65 a6 3e da bd 97 3e 9b d9 d0 3e 88 e0 cd 3e
       0.3249915 0.29637033 0.4079102 0.40210366
000050 97 35 4b 3e a5 fb 56 3e 08 fe b1 3e 22 9b c2 3e
       0.19844662 0.20994432 0.34764123 0.38008982
000060 30 34 86 3e d0 b6 9a 3e 46 66 97 3e d0 23 6a 3e
       0.2621169 0.302176 0.29570216 0.22865224
000070 ce 71 b6 3e 25 77 b6 3e a2 9b 96 3e d2 2e d0 3e
       0.356337 0.35637775 0.29415613 0.4066072
000080 71 99 cf 3e 31 c4 7a 3e b7 4d 3e 3e d7 ff af 3e
       0.40546754 0.24488904 0.18584333 0.34374878
000090 8e fc 1c 3e 7b e8 a2 3e 0f 05 82 3e 48 36 7c 3e
       0.15330717 0.31817994 0.25394484 0.24630082
0000a0 c4 50 83 3e d9 7a df 3e 83 cc 78 3e 40 99 f3 3e
       0.25647557 0.43648413 0.24296765 0.47577858
0000b0 45 e5 ba 3e c7 1b b2 3e 7a e1 7a 3e ce f0 c8 3e
       0.36503044 0.34786817 0.24500075 0.3924622
0000c0 1c 50 c2 3e 73 a9 30 3e d0 ff 92 3e 43 12 e1 3e
       0.37951744 0.1725214 0.28710794 0.43959245
0000d0 df 04 19 3f 29 53 8b 3e 21 95 93 3e f9 14 5c 3e
       0.5977306 0.27211884 0.28824714 0.21492375
0000e0 4a df 6e 3e b0 48 38 3e b4 85 a7 3e 1d 11 c1 3e
       0.23327366 0.17996478 0.32719195 0.3770837
0000f0 ae fd 74 3e f2 35 8a 3e 04 b9 ca 3e e7 af 7e 3e
       0.23924896 0.26994282 0.3959428 0.24871789

lin.weight f4 [36, 64]
000000 5c 5b ae 3e 24 d7 12 be cd d3 65 bf 25 7e 61 be
       0.34054077 -0.14339882 -0.8977631 -0.22020777
000010 61 74 27 3e b4 64 64 3e 0b 24 b8 3e 43 5d 59 3e
       0.16352989 0.2230404 0.35965 0.21226983
000020 e8 3c e0 3d 61 15 96 bd 63 1b d2 be 42 e8 8a be
       0.10949117 -0.073282965 -0.4103652 -0.27130324
000030 e0 30 db 3d 4a 20 65 3d b5 15 2e 3e c7 ba 5f 3e
       0.107026815 0.055938996 0.17000468 0.21848594
000040 60 75 eb be 16 d8 68 3d 37 c2 75 be 61 a3 90 3e
       -0.45987988 0.0568467 -0.23999868 0.28249648
000050 7c 6f 78 bf b2 4d bc 3e fa 3f 29 3e 9a 4d 1a be
       -0.9704511 0.36778027 0.16528311 -0.15068665
000060 fc a1 f4 be ce 17 b9 3e d3 54 11 bf 6d a2 8f be
       -0.47779834 0.36150974 -0.56770056 -0.2805361
000070 62 88 bb ba 34 4d cc 3e 05 09 8a 3b 97 c8 08 3e
       -0.0014307613 0.3990265 0.004212501 0.13357769
000080 c0 53 b8 3e 4c 8e a1 3e c1 e7 ae bf ce 8f 13 bf
       0.36001396 0.31553876 -1.3664476 -0.57641304
000090 0c 8f 65 bc a5 1a 6f 3e f3 69 93 be 93 4c 77 bf
       -0.014011156 0.23350008 -0.2879177 -0.9660122
0000a0 09 7b 4e 3e 9e 2d a6 bd 40 c1 49 3e 93 14 d0 be
       0.20164122 -0.081141695 0.19702625 -0.40640697
0000b0 34 61 00 3e 60 80 b4 be cc 31 55 be 12 36 55 bf
       0.1253708 -0.35254192 -0.20819777 -0.8328563
0000c0 a7 2d ad 3e 87 5a 22 bf 0b 1a 21 3d 38 96 59 be
       0.33823892 -0.63419384 0.039331477 -0.2124871
0000d0 64 95 c1 be 1e 1d 90 3e a8 01 00 bf 5d 75 20 3e
       -0.37809289 0.28147215 -0.5000253 0.1566977
0000e0 fd 85 8d 3e 7e fd 8c 3e 0a 88 c4 3e 42 94 79 bf
       0.27641287 0.2753715 0.3838504 -0.9749185
0000f0 ac 6b 9d 3d 40 c7 39 3d 57 f1 f0 3e 3e 1e 9a be
       0.076865524 0.045356035 0.47059128 -0.30101198
000100 72 7a 84 bf ad 7b f3 bd 43 48 e6 3e 0f a7 b3 3e
       -1.0349867 -0.11888824 0.44977006 0.35088393
000110 6d 25 0b bf e2 43 ca be 48 81 33 bf 83 ab 69 3e
       -0.5435398 -0.39504915 -0.7011914 0.22819333
000120 a6 2c 4c 3e 88 b2 08 3e cc 63 ee bc d8 d2 25 bf
       0.19938907 0.13349354 -0.029100321 -0.6477485
000130 1b 23 5f bf 80 88 97 3e ae 71 93 bf 60 8f 18 3f
       -0.8716294 0.2959633 -1.1519067 0.5959377
000140 fe 9d 46 bd cc cc 96 be 2d 7c 5d be 4f 23 5b bf
       -0.048490517 -0.29453123 -0.216294 -0.8560075
000150 3c 6c bf 3e 2e 58 de be d0 0f 02 3f 57 c6 1b bf
       0.37387264 -0.4342665 0.5080538 -0.6084952
000160 2a 3d 2b be 55 85 8d be 05 c5 a1 3e 4f 49 c0 3e
       -0.16722551 -0.27640787 0.31595626 0.3755593
000170 4c 54 ef 3e 5b 63 81 be f3 20 e3 3e f8 d3 ed be
       0.46744 -0.25271115 0.44361076 -0.46450782
000180 b7 88 89 bd 88 40 9c bf 01 31 f6 be 57 65 08 bc
       -0.067155294 -1.2207193 -0.48084262 -0.008324943
000190 65 2f 88 bf 8f 60 fe 3e 0a e2 ee 3d 2e 0b 34 3e
       -1.0639464 0.49683043 0.11664207 0.1758239
0001a0 57 aa 20 be 48 77 15 3f 0e c2 30 bf 00 40 fd bb
       -0.1568998 0.58385134 -0.69046104 -0.0077285767
0001b0 a7 f4 d7 be 4b 23 d3 3d e3 27 e9 3e 91 d1 4c 3f
       -0.42178842 0.10309466 0.45538244 0.8000727
0001c0 3e c5 d4 be d5 53 9a 3e 1d 1f dd be 48 dd 01 bf
       -0.41556734 0.30142084 -0.431878 -0.50728273
0001d0 cc bc 51 be 33 89 60 be d9 78 33 3e 15 24 af bd
       -0.20482177 -0.21927337 0.17526568 -0.08551804
0001e0 7a 44 18 bf 96 6b 8d be a5 5c 53 3e 5a f8 44 3e
       -0.59479487 -0.27621144 0.2064081 0.19235364
0001f0 b9 dd 3e bf fb 3d f5 be dc 9f c4 3e 69 db 09 3f
       -0.7455707 -0.4789885 0.38403213 0.5385042
000200 02 72 4b bf 9f 71 86 3d bd 40 1b 3f 70 3b 6a 3e
       -0.7947084 0.0656464 0.6064566 0.22874236
000210 0b 5f 3b bf f1 54 27 bf b7 02 f8 be ac 08 1a 3d
       -0.731919 -0.65363985 -0.4843957 0.037605926
000220 4c 3b c5 3d 86 74 55 bf b3 6d 07 bf c5 8b 71 bf
       0.096304506 -0.83380926 -0.5290176 -0.94353896
000230 92 1f 39 bf 56 00 44 3f c3 cd 55 bf 4e 1d 3b 3f
       -0.723138 0.7656301 -0.8351709 0.7309159
000240 8d 6c 06 bf 56 49 a7 be 9e ca 56 bf a6 81 0e bf
       -0.52509385 -0.32673138 -0.8390292 -0.5566658
000250 5d 66 34 bc b9 3e cc be ff 25 35 3f 89 be 54 be
       -0.011010733 -0.39891604 0.707611 -0.20775808
000260 25 b9 f7 3e a2 f0 21 bf d6 c4 32 3f 55 f1 e6 3d
       0.48383442 -0.632578 0.698316 0.11276499
000270 70 56 05 bf d4 f5 2a bf 60 c0 12 3f 03 f6 c4 bf
       -0.5208502 -0.66781354 0.5732479 -1.5387577
000280 aa 90 01 bf cf 72 9d be 1d 47 a3 3d 48 50 fd 3e
       -0.50611365 -0.30751655 0.07972548 0.49475312
000290 51 8f f0 be e6 82 22 3e f0 19 e8 be f0 e3 b2 3e
       -0.46984342 0.15870246 -0.4533229 0.34939528
0002a0 b3 64 90 3d 05 91 c5 bd 5b ef a0 3e 8f d8 2e 3e
       0.07050457 -0.09646801 0.31432614 0.17074798
0002b0 ee 1b 81 be 87 82 48 3e 17 51 e6 3e c5 9a 27 3f
       -0.2521662 0.19581042 0.44983742 0.65470535
0002c0 c3 4d 06 bf 5b 88 3c be 4e 27 a7 3e 40 e2 0a bf
       -0.52462405 -0.1841139 0.32647175 -0.5425148
0002d0 f2 4b 94 bf 0b 5d ae be 97 80 f3 3d 38 4c d0 be
       -1.1585677 -0.3405536 0.11889761 -0.4068315
0002e0 bc cf 95 bf 16 95 4a bf a4 76 1e bf 78 14 93 3e
       -1.170402 -0.7913374 -0.6189978 0.28726554
0002f0 63 bb e6 3e 99 d7 6d bd b2 12 13 3f b8 d6 8e 3e
       0.4506484 -0.058066938 0.574504 0.27898192
000300 c7 ec 15 bf fe f1 81 3e 96 60 17 3f 54 42 b2 3e
       -0.5856442 0.25379938 0.59131753 0.3481623
000310 22 44 2f bf 70 1e a3 be 77 5b 1a be 74 1b 44 3e
       -0.6846334 -0.3185916 -0.15073954 0.19151098
000320 96 65 c7 3e 06 6a ae bf 93 a8 be 3d 9d 3b e5 be
       0.3894469 -1.3626106 0.09309497 -0.44772044
000330 8e 03 f8 3e 90 bf a6 be f4 71 53 bf 19 bc 0f 3f
       0.48440212 -0.32568026 -0.82595754 0.5614639
000340 3f c4 b2 bd 07 78 41 3e 7b 2f 38 bf c5 b6 31 bf
       -0.08728837 0.18893443 -0.7194745 -0.6941951
000350 6f e0 39 3e fa 24 ac be 81 13 18 3f a1 d5 62 be
       0.18152021 -0.3362196 0.5940476 -0.22151805
000360 47 92 11 be ed 96 2c bf f0 74 34 bd 57 4b 08 bf
       -0.14215957 -0.67417794 -0.044056833 -0.5323996
000370 8c 2b 33 bf 75 1f 19 bf c2 7f e6 be 4f 1b b3 bf
       -0.6998832 -0.59813625 -0.45019346 -1.3992709
000380 ce 0c 95 bd 64 83 4c 3e 2f a2 3f be 61 21 e7 3e
       -0.07277833 0.19971997 -0.18714212 0.45142654
000390 b5 c8 26 be 25 1f e4 3b bf 8a b7 be dc d7 b8 bd
       -0.16287501 0.0069617205 -0.35848042 -0.09025547
0003a0 42 eb f8 bd b9 19 8c bf d8 2b a1 3e ea 28 a6 be
       -0.12154247 -1.094535 0.31478763 -0.3245309
0003b0 45 2a a2 3d 5e 15 78 3e 3c 5c 1d 3f 59 f7 81 be
       0.079182185 0.24226901 0.61468863 -0.25384024
0003c0 86 81 b9 3e 88 83 0a 3e 26 a8 d4 3e 7b a7 b7 3d
       0.3623163 0.13526738 0.41534537 0.08967491
0003d0 8f e9 87 bf 38 13 3d be 1b 4c 66 3e d1 0b a2 be
       -1.0618151 -0.18464363 0.2248997 -0.3164964
0003e0 7c b7 25 bf eb fc 4a be b4 e2 28 3e 00 95 48 3e
       -0.647331 -0.19823043 0.1649273 0.19588089
0003f0 ce d2 a1 3e 5f 2d 4b 3e 6a a3 e8 3e e7 57 d9 bd
       0.31606144 0.19841526 0.45437175 -0.10612469
