checkpoints/Archive/audio_classifier_100.pt (torch, 361629 bytes, 86 tensors)

conv1.weight f4 [8, 1, 5, 5]
000000 a3 09 85 3e 6d 70 66 be 9b 67 de be 84 1b c8 bd
       0.25983915 -0.22503825 -0.4343842 -0.09770873
000010 0a 37 18 bf de b5 5a 3d 07 83 a2 be 36 4e 99 bc
       -0.5945898 0.0533961 -0.3174059 -0.018714052
000020 b6 e6 b8 3d 25 51 b5 3e 2a 2b e0 bd 70 5c 1a 3f
       0.090283796 0.3541347 -0.10945733 0.602973
000030 32 50 bb 3e 78 0b 29 bd 8f 9a ec 3e 48 f3 21 bd
       0.36584622 -0.041270703 0.4621167 -0.03953865
000040 fc 2a a6 3d 00 e1 15 3e f4 d3 22 3e b7 58 cc 3e
       0.08113667 0.14636612 0.15901166 0.39911434
000050 ee 6a 28 3e 39 5b c6 bd 07 6c b0 be f5 b1 5d be
       0.1644704 -0.09685368 -0.34457418 -0.21649916
000060 3e 04 68 be b5 07 6f be 68 61 5a be 26 c6 e1 be
       -0.22657868 -0.23342784 -0.2132622 -0.44096488
000070 3a c5 ac be 2f 78 64 bd 39 d1 05 3e 46 d3 33 3e
       -0.33744222 -0.05577868 0.13068093 0.17561063
000080 13 b9 26 3e d2 dc 10 3f 18 33 d7 bd bc b7 1a 3e
       0.16281538 0.56586945 -0.10507792 0.15109152
000090 15 60 d5 3e 14 b8 7f 3a ac 9e 07 bf c3 1d e5 3e
       0.41674867 0.0009754908 -0.5297649 0.4474927
0000a0 ac ea c6 3d 50 1f 19 bf 4a d6 91 be 2d 69 e4 be
       0.09712729 -0.59813404 -0.28483802 -0.44611493
0000b0 0e ab 91 be 50 11 01 3f 41 02 b2 be 72 90 32 be
       -0.28450817 0.5041704 -0.34767345 -0.17437914
0000c0 af e5 b2 be 65 ed d6 be 2d 84 0d be 38 99 09 3f
       -0.3494086 -0.41977993 -0.13819952 0.5374942
0000d0 ec 82 b1 be 0b c7 97 be 72 6b 5d 3e 59 1c d4 3e
       -0.34670198 -0.29644045 0.21623018 0.41427878
0000e0 cd 67 d4 be dd 32 d3 be 10 c8 2c be 99 06 85 bd
       -0.41485444 -0.41249743 -0.16873193 -0.06495399
0000f0 d8 57 9e bd 6a d6 88 3e 5f 93 d8 3e 95 54 b6 3b
       -0.077315986 0.26726085 0.42299935 0.005564282
000100 4e ac 50 3d b2 76 9c be 8e b4 a3 be 8c a4 fa be
       0.050945573 -0.30559307 -0.3197369 -0.48953664
000110 01 08 64 3d aa a6 5b 3e 38 f8 ad bd 7a 93 b6 3d
       0.055671696 0.21450296 -0.084946096 0.08914848
000120 c5 57 b5 be 24 aa 83 3d c1 18 d4 3e 90 72 17 3c
       -0.35418525 0.06428936 0.41425136 0.009243622
000130 5d be 68 be ca ee 2a 3e 7c ff a8 bd 77 95 ee bd
       -0.22728868 0.16692653 -0.08251855 -0.11649602
000140 ff f0 47 bf 1e 00 63 3e 51 f4 1a bf 43 06 74 be
       -0.78102106 0.22168013 -0.6052905 -0.23830514
000150 83 ba e7 3c 01 3f 0c bd a9 e5 3e 3d ce 1b 04 3e
       0.028287178 -0.034239773 0.04660574 0.12901232
000160 b8 a8 91 3e 01 e9 00 be 0a b4 18 bd c7 24 86 be
       0.28449035 -0.12588884 -0.037281074 -0.26199934
000170 a6 0e a0 3c 3e 75 85 3d 25 83 a6 3e b0 3d 3c 3d
       0.019538235 0.06516503 0.3252193 0.045957267
000180 1b b5 81 bd 60 b3 54 bd ab cd c2 3d 80 5c 0a 3f
       -0.06333371 -0.051928878 0.09511884 0.54047394
000190 11 41 15 bf 10 bb dc 3d 42 7c 75 be c0 5b f4 3e
       -0.5830241 0.10777867 -0.23973182 0.4772625
0001a0 9a 52 97 bd c4 ac 4a 3e 1b 52 6f be de 7a ca be
       -0.07388802 0.19792467 -0.23371165 -0.39546865
0001b0 0d 59 92 3e fa b3 09 bb 94 2b ae 3d 96 33 4d be
       0.28583565 -0.0021011815 0.085044056 -0.2003921
0001c0 ae b4 31 3e 3b e4 72 bb 23 f3 91 3e b0 eb 50 be
       0.1735408 -0.0037062305 0.2850581 -0.20402408
0001d0 32 91 ae be 87 77 7f be 04 6b 61 be f5 bc 2a 3e
       -0.3409515 -0.2494794 -0.2201348 0.16673644
0001e0 78 eb 82 3e 2c bd d7 be 1a 2e 8f bd 68 c8 15 bf
       0.25570273 -0.42136514 -0.06991215 -0.5850892
0001f0 6c 58 81 be 1b 7b 1a be 45 9e 09 bf d3 7d 5e be
       -0.25262773 -0.15086024 -0.53757125 -0.21727686
000200 37 9c ca be 62 85 b5 3e 09 9f 4c be be 94 28 bf
       -0.39572307 0.35453326 -0.19982542 -0.6585196
000210 76 48 b6 3e 63 28 11 bf ec 7d ab bd d0 ad 8f be
       0.35602158 -0.5670225 -0.08373627 -0.28062296
000220 d0 7b 1a 3e 92 c9 af be fe 88 91 be 58 38 9b 3e
       0.15086293 -0.34333473 -0.2842483 0.30316424
000230 2e 02 be 3e 7e 5f 12 3f 3f fe 1c 3e 5c 54 f3 bc
       0.37111038 0.5717696 0.15331362 -0.029703312
000240 b8 dd 5f 3e 27 96 60 bf 4b bb af 3d 68 5e 04 be
       0.21861923 -0.87729114 0.08580645 -0.12926638
000250 33 27 ab bd 0f 21 9b be 3d b1 cd 3e 71 40 ae 3e
       -0.08357086 -0.3029866 0.40174285 0.3403354
000260 ab f2 48 3e bd de 2c 3e 12 cf e5 3e 44 e1 9a bd
       0.1962382 0.16881843 0.44884545 -0.07562497
000270 eb c5 a1 be f1 d9 ee bd c6 58 4d 3c 84 2a 27 3e
       -0.31596312 -0.11662663 0.012533372 0.16324812
000280 97 aa 68 3e 61 55 1b be a8 b3 a4 3e 2b 36 9b 3c
       0.22721325 -0.15169288 0.32168317 0.018946728
000290 05 b4 10 bd 67 20 bc 3d 15 eb 8a bd 9e 5a 96 bd
       -0.03532793 0.09185868 -0.067831196 -0.073415026
0002a0 0b 95 cd 3e f7 b2 03 3e c5 ce 42 3e 4a ee 58 bf
       0.40152773 0.12861238 0.19024189 -0.847386
0002b0 39 31 9d be 3e 8c 41 be 99 b8 07 3e 34 e7 bb 3e
       -0.30701616 -0.18901154 0.13254012 0.3669983
0002c0 72 25 5e 3c a4 d4 95 be 1a 95 80 be cb 12 c7 3d
       0.013558732 -0.29263794 -0.25113755 0.09720381
0002d0 f3 38 30 3e f3 cb f4 bc e9 96 c6 bc 38 5f 02 bb
       0.17209224 -0.029882407 -0.024241881 -0.001989318
0002e0 ee ef 3b bf 75 64 c4 3e 03 04 82 be 96 95 18 3f
       -0.7341298 0.38357893 -0.25393686 0.5960325
0002f0 b7 38 ec 3d fc f4 dd be 66 46 dd 3d 79 9f 8c 3e
       0.11534255 -0.4335097 0.10804443 0.27465418
000300 8b 3e c4 3e 51 0f e4 3d f7 0e db be c9 9c 87 3e
       0.38328966 0.11135734 -0.42784855 0.26486805
000310 9a b2 ef 3e da 09 a2 3d 1a 5a 16 3f 47 00 42 3e
       0.4681595 0.07912035 0.58731234 0.18945418

conv1.bias f4 [8]
000000 5f 06 e6 bc 4b a3 15 bd e8 ea 2f bd 55 b9 92 3d
       -0.02807921 -0.03653268 -0.042948633 0.071642555
000010 32 c2 35 bc 79 4d cd 3b 51 0c 97 3c f9 99 e6 3b
       -0.011093663 0.006265339 0.01843849 0.007037398

bn1.weight f4 [8]
000000 07 69 68 3f 01 c6 98 3f b9 70 87 3f 5a c4 7b 3f
       0.9078526 1.1935426 1.0581275 0.98346484
000010 4f 83 90 3f 6c e5 a0 3f 3f 6d 69 3f 42 1c 7e 3f
       1.1290072 1.2570014 0.9118232 0.9926187

bn1.bias f4 [8]
000000 69 47 ff 3d 61 5d bf 3d 69 b3 6c bd ee 87 c6 bd
       0.12464792 0.093439825 -0.057788286 -0.09693895
000010 76 e7 83 3c 8d 68 de 3d 73 ee 1c bb c3 9b 0f be
       0.01610158 0.10859785 -0.0023945838 -0.14024262

bn1.running_mean f4 [8]
000000 85 3c cd bc d3 c6 c7 bc 49 d1 5d bd c0 e3 4c 3d
       -0.025053272 -0.024386799 -0.054154668 0.050021887
000010 e8 49 61 bc 1b 00 fd bb e2 b1 ba 3c 5d 47 f0 3c
       -0.013750531 -0.00772096 0.0227899 0.029330904

bn1.running_var f4 [8]
000000 cd d7 d4 3e e6 e6 8a 40 02 4d 51 3f 83 df 8e 3f
       0.41570893 4.340686 0.8175813 1.116196
000010 28 d3 64 40 d2 59 b0 40 c2 07 b3 3f d2 b3 76 40
       3.575388 5.5109644 1.3986742 3.8547254

conv2.weight f4 [16, 8, 3, 3]
000000 68 b3 2d be 57 b4 5b be 91 2e f3 bc 5a 92 ae be
       -0.1696297 -0.21455513 -0.02968529 -0.34096032
000010 42 3e 84 be ba 52 8d bd 77 28 e2 3d ef fb 87 bd
       -0.2582875 -0.069005445 0.11042874 -0.066398494
000020 9b 19 15 3e 54 01 7b 3e 99 45 ee bc 4c 2a 82 3e
       0.14560549 0.24512225 -0.029085921 0.25422895
000030 22 fc c4 3d 61 12 b6 3b fd f4 85 3e 2f bf 91 3e
       0.09618403 0.00555639 0.26163474 0.28466174
000040 4b 74 3e be 98 d6 cb bd 4f b9 49 be 77 0e 94 3e
       -0.1859905 -0.0995304 -0.19699596 0.28917286
000050 9b c9 03 3d 49 e9 03 be 7b 7f fd bd 60 18 fb bc
       0.032174688 -0.1288196 -0.123778306 -0.030651271
000060 d2 b2 a8 be 52 7f a4 be fd 1a 99 3e d2 7c 67 bd
       -0.3294893 -0.32128388 0.29903403 -0.056515522
000070 27 31 bc bd 68 14 35 be 80 f8 9f 3b bf b7 74 3c
       -0.091890626 -0.17683566 0.0048819184 0.014936387
000080 0a aa 17 3e ba 53 79 3e 75 40 70 bc 3d a2 5d be
       0.14810959 0.24348345 -0.014663805 -0.2164392
000090 8a c8 c8 be b8 eb 0c be 70 00 07 3e 6d 47 26 3d
       -0.392155 -0.13761795 0.1318376 0.04059546
0000a0 20 cf 2d 3e 97 04 93 be 0f 71 a4 3e d3 c9 2b be
       0.16973543 -0.2871444 0.32117507 -0.16776209
0000b0 c8 e1 23 3e d9 b5 a5 3d cf 54 aa bc 8b dd 85 3d
       0.16004097 0.08091325 -0.020792393 0.065363966
0000c0 b5 0d 60 3e 5f ee 04 3e cc 33 ad bd 23 66 fa bd
       0.21880229 0.12981556 -0.08457145 -0.12226512
0000d0 a3 43 ed bc ea fe 71 3d e7 37 ee 3c af 48 aa 3e
       -0.028962916 0.059080996 0.02907939 0.33258578
0000e0 28 c6 a0 3e 83 c0 89 bd be 99 17 3c f9 c7 11 bc
       0.3140118 -0.06726172 0.009252964 -0.008897775
0000f0 ea 62 04 be 33 1e 22 be 91 26 90 bc 8f bb ec bb
       -0.12928358 -0.15831833 -0.017596515 -0.007224507
000100 2f 5d 37 3e 35 ba ae bc 04 d3 dd bc 62 bc 64 3d
       0.1790664 -0.021329025 -0.02707816 0.05584372
000110 fa 34 60 be 06 63 c1 3d 8a 95 f5 3c ab 9d 8c 3d
       -0.21895209 0.09442715 0.029978532 0.0686601
000120 aa 3f d3 3d 20 ea 14 bd 1e 3b 08 be 7a e9 2f 3d
       0.10314877 -0.03635609 -0.13303801 0.04294727
000130 f3 50 1d bc 29 89 a9 3c ee 48 9b 3d 48 2e 46 be
       -0.009601819 0.020695286 0.075822696 -0.19353592
000140 9d b2 22 be b3 ca 1a 3e f9 30 8f 3e 3a 5f 96 bb
       -0.15888448 0.15116386 0.2796705 -0.0045889886
000150 f7 1f 83 3e 12 ca f2 bd 14 0a 77 be 96 eb 56 be
       0.25610325 -0.11854948 -0.24124938 -0.20988306
000160 91 7d 91 bd 2a 26 d8 3d ee 54 0e 3e 19 ec a0 be
       -0.07104028 0.10554154 0.13899586 -0.31430128
000170 11 cd b6 be 83 2a 5f bd 8d 6f 1a be 14 4f 57 bd
       -0.35703328 -0.0544839 -0.15081616 -0.05256565
000180 a2 fd 96 bd 78 05 a3 be 06 8f 97 be af 22 0f 3e
       -0.07372595 -0.3184011 -0.29601306 0.13978074
000190 a2 2e 8d be dd 1b 12 bf 30 f3 32 3e f2 4c 30 3c
       -0.2757464 -0.57073766 0.17475581 0.010760533
0001a0 bb 9a 0b be 76 07 11 3e 44 3e 85 3c b8 1f cc 3e
       -0.13633244 0.14163002 0.016265042 0.3986795
0001b0 63 64 7b 3c cc 07 8a be d7 4b a7 be 94 c5 1f be
       0.015343758 -0.26959074 -0.3267505 -0.15602714
0001c0 d9 c1 80 3e c0 c6 f9 bd ad fd cb be 4e 4f cd bd
       0.25147894 -0.12196112 -0.39841977 -0.10024892
0001d0 93 e1 50 3d bf 4f 78 3d 6a d4 7c 3e e6 0a 1d 3e
       0.050996374 0.060622927 0.24690405 0.15336189
0001e0 0f c6 83 be 47 c9 95 be 8c 5d 7a be a6 86 79 be
       -0.25737044 -0.29255125 -0.24449748 -0.2436777
0001f0 01 52 0a 3e 1e 2f e1 3c 13 17 84 3c 67 4b 79 be
       0.13507845 0.027488288 0.016124284 -0.2434517
000200 6f 58 e8 bd c1 85 7c bd 18 36 c0 3c eb b4 12 3e
       -0.11344992 -0.061650995 0.023463294 0.14326827
000210 e6 2d 52 3e 1c 5e e3 3d 64 31 83 3d 18 5f e7 3a
       0.20525321 0.11101934 0.06405905 0.0017652242
000220 a6 96 95 3c ce 6f 93 3e 5e 19 47 3e 25 bf ff bd
       0.018260311 0.28796238 0.1944327 -0.1248763
000230 1f b2 7f be b0 2b 39 3d d1 05 7a 3e 5a 17 8d 3c
       -0.24970292 0.04520768 0.24416281 0.017223049
000240 cb 12 70 3d 2f 57 07 3e c0 f5 1f bd 43 eb 29 3d
       0.058611672 0.13216852 -0.039052725 0.04148413
000250 2a a8 2d be 42 2e 41 3d 44 d2 0c bd 69 8d d0 3d
       -0.16958681 0.047163256 -0.034380212 0.10183222
000260 8d a2 3f 3e 8c 2f c4 3c 31 09 82 be 04 84 a8 be
       0.18714352 0.023948453 -0.25397637 -0.3291322
000270 47 06 80 bd 0e 40 27 be 43 8d 8b bc df 10 13 be
       -0.06251197 -0.16333029 -0.017035132 -0.14361905
000280 11 88 18 3e 1a d9 85 3e b3 51 cd 3b 81 87 e8 3d
       0.14895655 0.26142198 0.006265843 0.1135397
000290 c2 f5 d6 3e ea e6 53 be 1d 16 27 3e eb ef 6b bc
       0.41984373 -0.20693555 0.1631703 -0.014400463
0002a0 78 23 e7 3c 11 75 a8 3d 40 bf 56 3e d1 37 8a 3e
       0.028215155 0.08225454 0.20971394 0.2699571
0002b0 8e 5f 64 3d 14 71 1c be ad d2 44 3e 83 c1 4e 3e
       0.05575519 -0.15277511 0.19220991 0.20191006
0002c0 8c 80 83 3c ea 5d 85 bd 05 7f 85 3d 30 7e 84 3e
       0.016052507 -0.06512053 0.06518368 0.25877523
0002d0 3e 07 18 be 9c 23 90 3e a9 23 48 3d 52 73 6f be
       -0.14846513 0.28152168 0.048862133 -0.23383835
0002e0 46 a9 ca 3d 75 b6 00 be 3b 87 88 bd 79 e4 36 be
       0.098955676 -0.12569602 -0.06666418 -0.17860593
0002f0 7b 80 1e be ef 43 2f 3c 6d 61 81 be cc c7 77 3e
       -0.15478699 0.010697349 -0.25269642 0.2419731
000300 08 e7 73 be 1d 6c 91 be a4 eb e6 3c 41 f2 a5 ba
       -0.238186 -0.28402796 0.028188534 -0.0012660698
000310 e3 40 d4 3d c3 f4 55 3d cf 95 ae 3e 63 3f 2b bd
       0.10363939 0.052235376 0.3409867 -0.041808497
000320 0f 74 6d be 5d fe a7 bd d0 1f e3 3e 73 73 40 bb
       -0.23188804 -0.08202813 0.4436021 -0.0029365688
000330 99 23 2c be af 05 8a bd df 9d 73 3c 34 10 80 bd
       -0.16810454 -0.06739365 0.014869182 -0.062530905
000340 33 97 a5 3e 6d 21 3e be 41 fa 91 bd d6 27 da bc
       0.32341918 -0.18567438 -0.0712781 -0.026630323
000350 a2 01 03 3d 4e bd 9c 3e 1d 47 76 3d 98 f7 d6 3d
       0.03198398 0.30613178 0.060126413 0.104964435
000360 0d b9 f1 bd f1 55 ec bd 0c 5e 20 3e 76 9c f4 bd
       -0.11802874 -0.115398295 0.15660876 -0.11943905
000370 d5 5a 36 be 0f 39 20 3e 69 cb 09 be b3 d0 4a 3d
       -0.17808087 0.15646766 -0.13456501 0.049515437
000380 19 c4 2b 3d 7f 2d bb be f5 e3 5d 3e ef 18 90 be
       0.04193506 -0.36558148 0.2166899 -0.28144023
000390 df b0 89 3b 00 1a 5d bd d2 89 82 be f3 70 02 be
       0.004201993 -0.053979874 -0.25495774 -0.12738399
0003a0 78 44 ef 3d 1b b1 8c bd 52 b7 1f 3e 4e 00 ad be
       0.11682981 -0.06869718 0.15597275 -0.33789295
0003b0 ca e3 37 3e 14 c1 59 bd 33 fb 61 3e ed b1 9b bc
       0.17957988 -0.05316265 0.22068481 -0.01900574
0003c0 c9 5a 07 3e 73 c1 81 3d a2 f3 04 be 44 35 93 bd
       0.13218226 0.06335726 -0.12983564 -0.07187894
0003d0 0e d3 26 be a2 7d 89 be 00 b5 0f 3e 0f 97 96 3e
       -0.16291448 -0.26853663 0.1403389 0.29412124
0003e0 63 db 64 3e 75 60 7b 3e 7c f5 55 bd a5 fa 92 be
       0.22349314 0.24548514 -0.052236065 -0.28706852
0003f0 35 d6 43 3e 63 b3 13 bc e4 52 22 be 73 bc e6 bb
       0.19124682 -0.009014937 -0.15851933 -0.007041508

conv2.bias f4 [16]
000000 7d 94 b9 3d 2f 72 4f bd 1d 4d c0 3c fc 4b d7 bd
       0.09061525 -0.050646003 0.02347427 -0.1051254
000010 b9 94 f3 bb f2 61 11 3c 94 01 cd bc 54 09 d4 bb
       -0.0074335006 0.00887345 -0.025025167 -0.0064708386
000020 ef ab 47 3d 45 dc d8 3c 8e 87 57 3d b2 c2 c6 3c
       0.048747953 0.02647222 0.05261951 0.02426276
000030 f4 f4 81 3d f4 ba 0b bd 32 93 82 3c 43 24 c9 3c
       0.06345549 -0.03411384 0.015939329 0.024553424

bn2.weight f4 [16]
000000 0e 3c a1 3f 03 41 52 3f 8d 4b 6c 3f 18 f7 81 3f
       1.2596452 0.8213045 0.9230278 1.0153532
000010 ed 3f 6b 3f d2 85 78 3f 1e 3d 6a 3f 10 86 8b 3f
       0.9189442 0.97079194 0.9149951 1.0900288
000020 e1 31 71 3f 70 5f ad 3f 55 e0 9b 3f fe ba 9f 3f
       0.94216734 1.354475 1.2177836 1.247894
000030 e4 85 7b 3f 3a 59 80 3f ef 19 8a 3f 27 46 80 3f
       0.98251176 1.002723 1.0789164 1.0021409

bn2.bias f4 [16]
000000 1c 1b b2 3c f6 1a 04 bd cc f0 05 be 31 e4 58 3d
       0.021741442 -0.032252274 -0.13080138 0.052951995
000010 e6 44 4c bd 0d 61 82 be 20 5b 6e bd fa 0a e9 3d
       -0.049870394 -0.2546467 -0.058192372 0.11379047
000020 bc cc ac 3c a5 78 f6 bc d0 ec 37 3e 51 d1 47 3d
       0.021093719 -0.030086825 0.1796143 0.048783604
000030 43 a3 ac 3d 62 6a c7 3d a0 7c 9d bd 78 e4 08 3e
       0.08429577 0.09737088 -0.07689786 0.13368404

bn2.running_mean f4 [16]
000000 00 b0 78 3e 56 50 36 bf 4e db b6 3d 84 40 4d bf
       0.24285889 -0.7121633 0.08928548 -0.8017657
000010 b0 9c ed be df bc 55 3f 56 8b 9a bf db 87 1f bd
       -0.46408606 0.8349132 -1.2073772 -0.03894792
000020 81 79 2c be eb 5e 9b 3f 1e bf 90 3e dc 02 bb 3e
       -0.16843225 1.2138342 0.2827081 0.3652562
000030 d0 e8 f2 3e 2c 39 7c be 4d 07 0a 3f 35 0f 45 bf
       0.47443247 -0.24631184 0.5391739 -0.7697633

bn2.running_var f4 [16]
000000 12 65 ed 3e e4 de dc 3e a2 cf 5c 3f a0 d6 52 3f
       0.46366173 0.43138802 0.8625432 0.8235874
000010 39 d9 28 3f d4 58 56 3f f5 49 97 3f 6c 8c c6 3e
       0.65956455 0.8372929 1.1819445 0.38779008
000020 4f 0c 86 3f 80 b8 fc 3e 8c 0a a9 3f 95 e9 6c 3f
       1.0472506 0.49359512 1.3206344 0.9254392
000030 47 4b d0 3e c6 fb f9 3e 24 cd 61 3f 28 d9 1a 3f
       0.40682432 0.488249 0.88203645 0.60487604

conv3.weight f4 [32, 16, 3, 3]
000000 1c f5 4b be 4e 5d 31 3e 65 c6 1b be cf ea 89 3d
       -0.1991772 0.17320749 -0.152124 0.06734239
000010 b5 48 0b 3e fa d9 05 3e b3 24 a2 3d c0 a2 02 3d
       0.13601954 0.13071433 0.07917156 0.03189349
000020 38 6d d1 bc 16 32 ee bd 60 8a 2f 3d fb 96 ec bd
       -0.025564775 -0.11630647 0.042856574 -0.11552235
000030 9f 56 c7 bc 63 b9 f9 bd c0 a1 f4 3d 36 bf 56 3d
       -0.024333296 -0.12193563 0.11944914 0.052428447
000040 89 1e 80 3e 8b 2d 21 3c 3e 1d 6f be 00 28 42 be
       0.25023296 0.009837518 -0.23350999 -0.18960571
000050 ec 35 08 bd 94 f3 b5 3d f3 e0 39 3e 69 1a bc 3d
       -0.03325455 0.088843495 0.18152218 0.09184725
000060 19 74 87 bd 33 3d de 3d 3d 0d d3 bd c5 28 60 be
       -0.06613941 0.108515166 -0.103052594 -0.21890552
000070 eb d0 02 be 4e ee 14 3e e6 63 68 3d f0 90 a9 bd
       -0.12775008 0.14544031 0.056735896 -0.08279598
000080 d7 5c f9 bd 64 bc cf be 52 07 6e be 12 25 66 bd
       -0.12175911 -0.40573418 -0.2324498 -0.056187697
000090 44 e5 27 3e f0 82 0d be ea 1d 04 be 02 a0 2e be
       0.16396052 -0.1381948 -0.12902036 -0.17053226
0000a0 87 74 45 be f4 77 bc 3b e6 64 f0 3d 70 59 9e be
       -0.19282733 0.005751604 0.11737995 -0.3092761
0000b0 4e fd 18 be 1f 98 be bd f3 d4 93 bd 66 fb 01 be
       -0.14940378 -0.093063585 -0.07218351 -0.12693557
0000c0 da 0e ab bd e7 d9 18 bb 4e 00 7b 3e 19 0b ad 3c
       -0.08352442 -0.002332324 0.24511835 0.021123456
0000d0 b1 64 fc bd 62 fa 91 be 0e 62 ae 3d d5 55 6d ba
       -0.12323893 -0.2851134 0.08514796 -0.00090536225
0000e0 d3 9b 31 39 77 46 80 be 11 0b 1b 3b 39 5d 0b 3e
       0.00016938084 -0.2505376 0.002365772 0.1360978
0000f0 f5 bd 92 3c 7a bf 10 be 3a 12 1e be 90 86 c4 3d
       0.017912844 -0.14135543 -0.1543664 0.09595978
000100 54 9c b2 3d a9 db 82 bc 2f 6a 4c be 91 8c c2 bd
       0.087212235 -0.015973883 -0.19962381 -0.09499467
000110 0f b0 d6 bd bc 39 03 be 4f bf fb bd b4 2c 26 bc
       -0.10482799 -0.12814993 -0.122923486 -0.010142494
000120 1c a1 08 3d b4 77 96 bb ae b5 01 be a2 ef f5 bd
       0.03335677 -0.0045919064 -0.12666962 -0.12008597
000130 64 56 03 be 88 9d b0 3c cb f7 60 3d 55 03 28 3e
       -0.12825924 0.021559492 0.054923814 0.16407521
000140 73 b7 85 be c6 6a 98 3d 12 05 21 3e 6e d2 5d 3e
       -0.26116523 0.074422404 0.1572459 0.21662304
000150 56 36 2e bd a6 f7 06 be af 27 18 be cc ad 4d 3d
       -0.042532288 -0.13180408 -0.14858888 0.050214574
000160 ff 84 81 3d c8 6a b1 3d be 8b 95 bd c8 27 5f 3e
       0.06324195 0.08662945 -0.07302044 0.21792519
000170 a2 7d 61 bd c3 d9 2b 3e 10 a9 b5 3d 86 6b 39 3e
       -0.055051453 0.16782288 0.08870137 0.18107423
000180 df 3b d2 3d 3e 9f e7 be ba 96 26 3e 71 73 50 3d
       0.10265326 -0.4523868 0.16268435 0.050891344
000190 4e 2f 04 be 67 44 22 be 15 04 ad 3c 55 14 18 3e
       -0.1290867 -0.15846406 0.02112011 0.14851506
0001a0 5a a0 aa bd d1 4d dc bd 04 09 26 be 63 d6 ad be
       -0.08331366 -0.1075703 -0.16214377 -0.33952627
0001b0 7f a6 f8 bd d9 82 90 3e bf 8b 13 3c 2f 35 c6 bd
       -0.121411316 0.2822483 0.009005486 -0.09678113
0001c0 d6 95 cf be d4 0f 68 3b d0 08 cd 3d 6d 52 4b 3e
       -0.40544003 0.0035409825 0.100114465 0.19855662
0001d0 a6 86 a3 be 41 b4 49 be b9 22 22 be f2 0c 6f be
       -0.31938666 -0.19697668 -0.15833558 -0.23344782
0001e0 d3 45 8a 3e c9 e7 8b bd 4d 0e 2b bc 62 11 0e 3e
       0.27006397 -0.06831319 -0.010440421 0.13873819
0001f0 7e be 59 3d 2c fc e9 bc 0f a2 ad be 64 69 0a be
       0.053160183 -0.028562628 -0.33912703 -0.13516766
000200 95 cb 35 be ca 81 9d 3d 55 07 73 3b b1 fa 02 3e
       -0.17753442 0.07690771 0.0037083228 0.12790944
000210 e4 41 14 bd 43 2c 34 3e ff 16 e6 bd 6c 8f 85 be
       -0.03619565 0.1759501 -0.11234855 -0.26085985
000220 fc 75 ae 3d 36 3a a8 bd eb 52 16 bc f7 4c f0 bc
       0.085185975 -0.08214228 -0.009175043 -0.029333575
000230 58 92 3b bd d5 ff 18 3d d9 8a e0 ba d2 1a 48 3e
       -0.04579386 0.037353355 -0.0017131224 0.19541481
000240 1d 5a 14 3e 05 8c 72 bd f3 fe 8f bd b1 57 bc 3d
       0.144875 -0.059215564 -0.070310496 0.09196413
000250 16 3d 34 3d 76 64 53 be a4 0e 65 bd 8a 1a 11 39
       0.04400357 -0.20643792 -0.055922166 0.00013838164
000260 cf 22 6b 3e 18 4a f7 3d d5 6a 3b 3d 56 33 d0 3d
       0.22962497 0.12074679 0.04575618 0.101660416
000270 a7 e0 d3 3d de 75 77 be 33 59 5a be 78 37 a5 bd
       0.103455834 -0.24166057 -0.2132309 -0.080672204
000280 fd 6e 02 be 7e 1f c4 bd d1 fc ed 3d 2d cd be bc
       -0.12737651 -0.09576319 0.116204865 -0.023291195
000290 0d 80 13 3d d9 61 d4 3d 99 91 1d 3d e1 9c 6b bd
       0.03601079 0.103702255 0.03846893 -0.05752266
0002a0 ec 6f d6 bd 43 58 37 3e f4 3d f1 3c f9 94 e0 bd
       -0.10470566 0.17904763 0.029448487 -0.10965914
0002b0 6f ed 91 be 61 2a 13 3e 15 01 bf bc a8 86 70 3d
       -0.2850146 0.14371635 -0.023315946 0.05872217
0002c0 4b 44 03 3e 2c c7 ca 3d 62 9d e4 bd 5a 23 2d 3e
       0.1281902 0.0990127 -0.11162831 0.16908017
0002d0 2f 95 2d bc 4f 4c 59 bc da f5 1a 3e 79 04 63 3e
       -0.01059465 -0.013262822 0.15132847 0.22169675
0002e0 18 00 90 bd 72 ee db 3d 80 7a 41 bd 84 11 d6 bb
       -0.07031268 0.10738839 -0.047235966 -0.0065328497
0002f0 32 c3 06 be a2 be 2c 3d 0c 40 81 be ae 57 4b 3c
       -0.13160399 0.04217399 -0.25244176 0.012411041
000300 19 50 0c 3e 77 47 0a be 43 59 46 be a3 d7 40 3e
       0.1370243 -0.13503824 -0.19369988 0.18832259
000310 37 73 20 3e 19 b5 4c 3c c4 f8 ad bc d1 c7 39 3e
       0.15668951 0.012494349 -0.021236785 0.1814263
000320 0c 05 82 3d 2a a6 83 bb d7 64 2b bd 34 72 f2 bd
       0.06348619 -0.004017611 -0.041844215 -0.11838189
000330 d8 64 61 3c 33 58 a2 be 92 15 38 3d 97 d8 55 3d
       0.013756953 -0.31707916 0.044942446 0.05220851
000340 10 d8 6c 3e 60 c3 1e 3e fe 08 ff 3c 65 ec 2f be
       0.23129296 0.15504217 0.031132217 -0.17180021
000350 ab d3 2f be 0f 3b 1e 3c d9 f6 7e 3d 20 b9 3e be
       -0.17170589 0.009657635 0.06224713 -0.18625307
000360 4d f6 03 be 6c f9 4a bc 84 6f 95 be 6d ff 89 3d
       -0.12886925 -0.012388568 -0.29186642 0.06738172
000370 c9 82 19 be e6 e2 55 bd c6 6d 18 3d 6d e5 f7 bd
       -0.14991297 -0.05221834 0.037214063 -0.12104306
000380 7c 0a 3f bc 77 8a 84 3d 9c f4 c0 bc b9 7f 98 bd
       -0.0116602145 0.064717226 -0.023554139 -0.07446236
000390 67 c9 69 3d 18 54 43 3c 25 82 ec bd 42 00 12 bd
       0.057076838 0.011921905 -0.115482606 -0.035644777
0003a0 99 1c f9 bd 69 c3 90 3d 42 cf a2 bd 46 9e a4 3d
       -0.12163658 0.070685215 -0.079496875 0.08038001
0003b0 62 9f 9d 3e 92 41 78 3d 66 11 2c be 83 d6 06 bd
       0.30785662 0.060609408 -0.16803512 -0.032919418
0003c0 96 bf e7 3d 9a 3f b8 3c 7e 6e dd 3d 23 8f 62 be
       0.11315839 0.022491265 0.1081209 -0.22124915
0003d0 d4 1d b8 3d 36 a0 75 3e a5 46 d3 3d f5 06 f0 3d
       0.08990064 0.23986897 0.10316209 0.11720077
0003e0 d3 53 66 be 8e b3 d6 3d 40 08 9e 3c c4 73 2a be
       -0.22492914 0.10483466 0.019291043 -0.16645724
0003f0 b8 60 f6 bc 38 0a 22 bc f8 48 d8 bc 55 a9 03 be
       -0.030075416 -0.009890132 -0.026401982 -0.12857564

conv3.bias f4 [32]
000000 85 21 db bc 6b dd 21 bd dd 57 80 bd e5 5f e1 3c
       -0.026749382 -0.0395178 -0.062667586 0.027511546
000010 ca a6 3f 3d e9 85 7e 3c a7 76 a3 bb 60 ca 1b 3d
       0.04678992 0.015534856 -0.0049885097 0.038034797
000020 7b e9 4b bd 3c 32 cc 3c 9a 95 ad bd ab 06 c5 3d
       -0.04978321 0.024926297 -0.084758 0.096204124
000030 8e 50 7f 3c d7 f0 b0 3c a7 0b ad 3d 83 bd 22 bd
       0.015583171 0.021599216 0.08449488 -0.039731514
000040 89 5e cd bd d6 e8 8a 3d 27 8b a5 bd 41 72 92 3d
       -0.10027797 0.06782691 -0.08083182 0.071506985
000050 de 07 40 3d 41 b2 5d 3d 0b 84 a7 3d ab 9d 04 be
       0.046882503 0.054125074 0.08179482 -0.1295077
000060 06 b5 0b bd 5a cf a9 3d 43 9a a3 3d e0 a8 f8 3c
       -0.034108184 0.08291502 0.079884075 0.030353963
000070 96 4b 69 3d 27 10 49 bc c0 0a 82 3d bd 6d 60 3d
       0.05695685 -0.012271917 0.06349707 0.054792155

bn3.weight f4 [32]
000000 37 97 9c 3f 3f b2 8b 3f e1 d2 81 3f de b6 a0 3f
       1.2233647 1.0913771 1.014248 1.2555807
000010 16 50 6a 3f 01 24 8f 3f 6d ed 58 3f 59 fc 53 3f
       0.9152845 1.1182863 0.84737283 0.82806927
000020 cf 3f 6b 3f dc b0 48 3f 8c 77 8c 3f 19 4c 9b 3f
       0.9189424 0.78394866 1.0973983 1.2132598
000030 41 c7 83 3f 13 c9 7b 3f c3 03 7b 3f 2a b2 41 3f
       1.0295182 0.9835369 0.98052615 0.7566248
000040 55 27 7f 3f bc f8 69 3f f3 dd 93 3f 3a 2d 88 3f
       0.9966939 0.91395164 1.1552109 1.0638802
000050 a1 a5 93 3f 4c 8b 76 3f 71 88 4e 3f 56 98 83 3f
       1.1534921 0.963063 0.80676943 1.0280864
000060 a4 14 99 3f 11 5a 5b 3f 51 be 72 3f 8f 0d 81 3f
       1.1959424 0.85684305 0.9482165 1.0082263
000070 93 bc 8c 3f a8 f9 6e 3f bd 70 6c 3f 1d 48 91 3f
       1.0995048 0.93349695 0.92359525 1.1350132

bn3.bias f4 [32]
000000 2b ff ed 3d fd 09 fd bd 8c f4 74 bd 57 f1 53 be
       0.11620935 -0.12355421 -0.05980353 -0.20697533
000010 e9 f6 d0 bc 96 cc 9d bd 46 ba ab bd a7 0c 4d be
       -0.025508361 -0.07705037 -0.08385138 -0.20024358
000020 db 5a bb bd d2 38 41 be 16 90 c8 bd 23 85 50 3b
       -0.09148189 -0.18869331 -0.09793107 0.0031817637
000030 a4 ce f9 bc 2f cb a8 bd 23 52 98 bd 9b 5e 28 be
       -0.030494042 -0.08241879 -0.07437541 -0.16442339
000040 da ff 85 be a4 df 10 be 2f 80 78 be ee f9 07 be
       -0.26171762 -0.14147812 -0.24267648 -0.13278934
000050 84 b0 2a bd fe e8 17 be 58 7d b9 bd a9 9a 1b be
       -0.041672245 -0.14834973 -0.090571105 -0.15195717
000060 ad 13 09 3e 23 70 20 be f1 bf a4 bd 9e a3 37 bd
       0.13386412 -0.15667777 -0.080444224 -0.044833772
000070 d5 36 3c be f7 2a 56 be 20 c3 4a be 97 3d ae bb
       -0.18380292 -0.20914827 -0.19800997 -0.0053174007

bn3.running_mean f4 [32]
000000 97 85 44 bf c8 4b 1d be 3c dd a1 be d0 1e 1e be
       -0.7676634 -0.1536094 -0.316141 -0.15441442
000010 9c 33 a3 be 5f eb 1e 3e 8a 7c 2f 3d 14 71 a2 3e
       -0.31875312 0.15519474 0.04284338 0.31726897
000020 40 f9 bf bf 37 1d d6 3e 95 a8 a0 3e 6f b2 95 3f
       -1.499794 0.41819164 0.31378618 1.1695079
000030 b9 e7 5d bd cd 5c 1c 3f 20 a0 b3 be 02 d9 bf be
       -0.054176066 0.610791 -0.35083103 -0.3747025
000040 34 6c a4 3e 31 e7 17 3d 99 da 3a 3f a3 fb 45 3f
       0.32113802 0.037085716 0.72989804 0.7733709
000050 90 4b 4d 3d 69 2b 62 3e 7c 62 33 3f b6 85 23 3e
       0.05012089 0.22086872 0.7007215 0.15968975
000060 3c 37 42 be c0 20 d5 be de 52 d8 3e 56 43 1d bf
       -0.18966383 -0.4162655 0.42250723 -0.6143087
000070 d8 84 d4 be 54 24 7e 3f a8 6e 2d bf 3f 79 94 bd
       -0.41507602 0.9927418 -0.67746973 -0.07249688

bn3.running_var f4 [32]
000000 d7 2f 57 3f 5d 6c 07 3f b9 06 92 3e 33 be da 3e
       0.8405737 0.52899724 0.28520754 0.42723235
000010 52 47 e1 3e cd 35 08 3f ec 84 93 3e 29 12 d7 3e
       0.43999726 0.53207093 0.2881235 0.42006043
000020 08 5e 07 3f 7e 7a 27 3f 74 18 c8 3e 30 5f 4b 3f
       0.52877855 0.65421283 0.39081156 0.7944212
000030 81 d2 13 3f 92 9a d4 3e 21 79 b3 3e 0a ef 35 3f
       0.5774308 0.41524178 0.35053352 0.7106787
000040 01 ed e8 3e 56 29 1b 3f f0 c9 47 3f d7 09 ee 3e
       0.4549332 0.6060995 0.7804251 0.46491882
000050 18 3f 5b 3f 51 3d fe 3e be 27 ca 3e 7b 44 d8 3e
       0.8564315 0.49656156 0.39483446 0.42239746
000060 d1 70 f9 3f 07 bc dd 3e ff 49 e3 3e 28 39 4a 3f
       1.9487554 0.43307516 0.44392392 0.78993464
000070 c1 49 d3 3e 57 38 b1 3e 1a 89 e8 3e 6b 79 8c 3f
       0.41267207 0.34613296 0.454171 1.0974554

conv4.weight f4 [64, 32, 3, 3]
000000 e9 27 b9 bd 3a 26 3d bd 25 a6 f3 bd f9 ef 39 bd
       -0.090408154 -0.046179034 -0.11896924 -0.04539487
000010 7f fe b1 bd 8c e4 f8 bc fa 70 82 bc 48 fd 1c bd
       -0.086911194 -0.030382417 -0.015923012 -0.038327485
000020 02 51 c5 bd 9c 26 a9 3d f9 bb 9c bd 33 2b 73 3a
       -0.09634592 0.08259317 -0.076530404 0.00092761515
000030 f1 82 de 3c 1c e6 60 3d f3 4b 4c 3d ff 52 16 3d
       0.027162047 0.05490695 0.04987712 0.036700245
000040 06 ff b5 bb d6 08 d6 3d 47 da 03 be 65 e4 fe 3b
       -0.005554083 0.10450904 -0.12876235 0.0077786916
000050 bf 61 16 be 33 45 3f bc 05 89 eb 3d e0 e7 af 3d
       -0.14685725 -0.011674213 0.11500744 0.085891485
000060 89 9f 25 be 6d cc 77 3d 1d 8b e2 bd c1 f0 4b 3d
       -0.16174139 0.06049769 -0.1106169 0.049790148
000070 90 2a a3 3c 6f 73 7d 3d 9d 66 9a bd 41 73 f2 bd
       0.019917756 0.061877664 -0.07539103 -0.11838389
000080 b3 4a 00 be 8a 8a 8e 3d 5c 77 d4 3d 87 21 b9 3d
       -0.12528495 0.06960018 0.103743285 0.09039598
000090 0e 96 c2 bd 26 bb cd 3d bc 16 bd bd 9e 06 71 3d
       -0.09501277 0.10045461 -0.09232852 0.0588442
0000a0 7b 1b 0c bd 4a 7d 18 bc 38 ee 72 bc ae f3 08 3e
       -0.034205895 -0.009307215 -0.014827304 0.13374206
0000b0 6c d0 aa bd 79 3b 4b 3d 3b eb 95 3b bc 57 29 3d
       -0.083405346 0.049617264 0.004575161 0.041343436
0000c0 47 31 bf bd d4 be 13 bd 54 46 99 bd b7 81 9c 3d
       -0.09335571 -0.03607066 -0.07484117 0.07641929
0000d0 eb 44 6e 3c ec e6 89 3d aa 7b 42 be 92 94 7e ba
       0.0145427985 0.06733498 -0.18992487 -0.000971147
0000e0 1c 71 32 be 5a 31 dc 3c 0f 73 6a bd 53 11 c1 3c
       -0.1742596 0.026879001 -0.057238635 0.023567831
0000f0 a8 2e 56 be ed 90 a0 bc 0e 98 02 be f9 36 28 bc
       -0.20916235 -0.019600356 -0.12753317 -0.010267013
000100 c4 01 89 3d d8 5f 69 bd 36 dc 76 3c 0b 4c 5a 3d
       0.0668979 -0.05697617 0.015067151 0.053295176
000110 fe 1a 25 3d 3e 36 80 bd 1f 60 8b bd d3 ae b0 bd
       0.040308945 -0.06260346 -0.06805443 -0.08627095
000120 34 73 51 bd c4 18 ae bb 7f 3a 04 3c a8 87 67 3d
       -0.051135257 -0.005313011 0.008070587 0.056525856
000130 b7 ec 31 bd 8b c7 4b bd 8e fc 3a 3d 02 e4 67 3d
       -0.04343864 -0.049750846 0.04565101 0.05661393
000140 3c 3d bf bc 90 3b 13 bd ce 90 6a be ec 0b 05 3d
       -0.023344629 -0.035945475 -0.22906801 0.032482073
000150 03 ce 70 bd 08 39 ff 3c 18 c3 d0 bd fb d8 bb bd
       -0.058790218 0.031155124 -0.10193461 -0.09172245
000160 04 bf 42 be fe 21 9c 3d b9 6f 4c 3e 31 e6 77 3d
       -0.19018179 0.07623671 0.19964494 0.060522262
000170 76 7e e5 3d a3 76 8b 3d a3 b3 b3 bd da ff 2f 3d
       0.11205761 0.068097375 -0.08774497 0.04296861
000180 3c 43 ab 3d ef 91 87 3a a6 6e 9f 3d 79 d8 3f bd
       0.08362433 0.0010343174 0.077847764 -0.046837304
000190 f8 73 da 3d 3d ca 2b be af ca 0b bb f3 4a 02 be
       0.106666505 -0.16776367 -0.0021330526 -0.12723903
0001a0 0f 88 f6 3d 5d 73 a7 bd dd 10 dd 3d 0b 41 d3 bd
       0.1203767 -0.08176301 0.10794232 -0.1031514
0001b0 de ec 82 3d 90 98 04 3e 26 f4 ac 3d 52 9d 2b be
       0.06392835 0.12948823 0.08445005 -0.16759232
0001c0 fc 00 ab bc 48 e2 d3 bd 95 61 07 3c 39 26 01 3e
       -0.020874493 -0.10345894 0.008263011 0.12612237
0001d0 ec cd 3a 3b 34 1a 87 3e 15 04 2e 3e e7 86 f4 3d
       0.0028504087 0.2638718 0.16993745 0.11939793
0001e0 51 c7 0c 3d 03 f7 f9 3b 41 cc 2f 3c f4 a1 87 3e
       0.03436977 0.007628323 0.01072985 0.26490748
0001f0 0f 33 ef 3d 62 18 42 3e 86 c0 28 3e 9b 10 77 3e
       0.116796605 0.18954614 0.16479692 0.24127428
000200 23 ed 14 3d b6 30 4f 3b 52 92 9a 3c db b2 92 bd
       0.036358964 0.0031614727 0.0188686 -0.0716302
000210 00 df 88 3e fb a5 1d 3e 01 07 3f 3e fe 65 4b 3d
       0.26732635 0.15395348 0.18655016 0.049657814
000220 31 16 23 3e cb ea 1d bd 66 df eb 3b 66 a2 e7 3b
       0.15926434 -0.038553994 0.007198262 0.00706892
000230 47 a5 80 3d 86 29 1f 3c 00 23 ac 3d 6e 4e 1c 3d
       0.06281524 0.00971449 0.08405113 0.038160734
000240 b8 f5 46 3d 1e ab ae 3d ab a6 42 bd b7 25 56 bd
       0.04857418 0.08528732 -0.04752223 -0.05228206
000250 a1 1f 89 3d 1a 3e 87 bc 79 c8 50 bd ed 0f 17 3e
       0.06695486 -0.016509105 -0.050972436 0.14752169
000260 27 f7 f4 3d 9c c2 d4 3d 63 6d 0a 3e 8a 1a 36 3e
       0.11961203 0.10388681 0.1351829 0.17783561
000270 51 e9 1c 3c 08 d7 6c bd 69 3f 30 be 0b 16 2f 3d
       0.009577111 -0.057822257 -0.17211689 0.04274563
000280 ab a9 2a 3d a7 23 66 3d 82 86 16 bc a8 2b ab be
       0.041665714 0.056186344 -0.009187343 -0.33431745
000290 90 07 0c 3d 22 49 29 bd 73 74 9c 3c 3f 90 8c bd
       0.0341869 -0.04132951 0.019098496 -0.0686345
0002a0 ac 53 84 bc 54 19 76 be f0 31 7b 3d 68 e4 1d 3d
       -0.01615318 -0.240331 0.06132692 0.038547903
0002b0 53 c8 28 bd d9 f0 ba 3c 7d 62 2b 3e f5 94 8b bc
       -0.04120667 0.022819923 0.16736789 -0.017038802
0002c0 2f 0b 12 3e 26 ad 6e 3d b6 0a c9 bd c0 17 8a 3d
       0.14262079 0.058270596 -0.09816496 0.06742811
0002d0 fe 17 85 bc 47 53 08 3e f6 99 af bc a2 f9 27 3e
       -0.016246792 0.13313018 -0.021435719 0.16403821
0002e0 f9 82 a4 bc 39 f2 44 3e 59 1e 74 3d eb 7f 28 3e
       -0.020081984 0.19233026 0.059599254 0.16455047
0002f0 b7 16 84 bd 24 de 1c bd fb 1c 2e 3b 8f 1f 95 bd
       -0.06449645 -0.038297787 0.0026567567 -0.0728141
000300 c5 41 1c bd a0 2f 39 bb 1f 6f a3 bd 13 e1 79 bc
       -0.03814866 -0.0028257146 -0.07980179 -0.015251416
000310 65 6e 83 3b ed 37 dd bd f5 76 ac 3c 5a 77 1b be
       0.004010963 -0.108016826 0.021052817 -0.15182248
000320 c3 df 2b 3c 1a b9 67 3d 80 ed 34 3c 82 22 a3 3d
       0.010490361 0.05657301 0.011042953 0.07965566
000330 2f c4 85 3d fb f2 94 bd ce db 58 3d fc 80 ab bc
       0.0653156 -0.07272907 0.052943997 -0.020935528
000340 0f 4b 36 be b0 84 19 be d4 99 17 3d a9 59 9c bd
       -0.1780207 -0.14992023 0.037011936 -0.07634289
000350 fe 27 20 3d 97 5b 91 bd f0 32 ff bd cb a5 1d be
       0.03910064 -0.070975475 -0.124608874 -0.15395276
000360 97 a9 8d bd 7a 10 8f 3d 0b 3f 2e 3d 9a 41 3d bd
       -0.06917112 0.069855645 0.04254059 -0.04620514
000370 2c fb 8c bd 8e c6 be bd 61 18 1a bd ec f4 d7 bd
       -0.06883845 -0.09315215 -0.037620906 -0.10544762
000380 fb 61 f5 3b 6e 46 8a 3d 6a 78 7a bc 61 a1 d2 bd
       0.007488487 0.06751715 -0.015287498 -0.10284687
000390 16 a1 f0 3d d7 23 5b 3d 79 17 26 bd 71 97 20 3d
       0.11749475 0.053500976 -0.04054973 0.039206926
0003a0 15 f2 bf 3d 6e 28 2d bc f9 58 29 3c c3 c4 1b 3d
       0.09372345 -0.010568721 0.010336154 0.038029443
0003b0 ef ac 1e 3d 84 68 d7 3d 05 e9 7b b8 78 84 0e 3e
       0.03873914 0.10517982 -6.006008e-05 0.1391772
0003c0 7d 20 fc bc 06 73 f6 3d 95 ac 9d 3d b7 ae 59 3e
       -0.03077721 0.12033658 0.07698933 0.21258055
0003d0 ae 07 10 3e d2 33 2b 3e 1a 2c 91 bd 16 42 83 3d
       0.1406543 0.16718987 -0.0708849 0.06409089
0003e0 e2 f3 f3 bd 1f 28 d6 3d 3d bf aa 3d 8f 6f bc bc
       -0.11911751 0.10456871 0.08337257 -0.023002414
0003f0 3a 83 4a 3d b1 14 fc 3d 25 9e c1 bc 92 48 0d 3e
       0.049441554 0.12308634 -0.02363498 0.13797215

conv4.bias f4 [64]
000000 ef 57 88 3c 78 31 f3 3c 39 81 93 3c 9c df 4a 3d
       0.016643493 0.029686674 0.018005954 0.049529657
000010 4d 0d 1a bd 01 c6 37 bd d7 0e c8 3c 53 2d c5 3c
       -0.03761034 -0.044866566 0.024421139 0.024069464
000020 01 1f ea bc 82 97 0f bc bd 9a 5f 3c 05 83 1f 3d
       -0.028579237 -0.00876415 0.013647732 0.03894331
000030 29 8a d1 bc 36 8c fa 3c 88 0b 9b bd d2 be 7c 3d
       -0.025578575 0.030584436 -0.07570559 0.061705418
000040 ee 8c 4d 3d 08 e3 f5 3c 36 b8 9f 3b 89 90 f2 3c
       0.05018323 0.030015483 0.0048742546 0.029609935
000050 72 49 02 bd f3 a9 00 bd 63 1d 95 bc 09 8b 88 3c
       -0.031808324 -0.031412076 -0.01820249 0.01666786
000060 c1 11 7b bc 0f fe 46 bd 4a 1e 80 bd 7c 19 bc 3c
       -0.015324057 -0.048582133 -0.06255777 0.02296137
000070 3b 39 75 bb 3a a5 38 bc f5 31 9d 3c 8d f6 27 ba
       -0.0037418145 -0.011269862 0.01918886 -0.00064072834
000080 dc 59 07 bd c2 2a 98 bc e3 34 80 bc 4a 70 b5 3b
       -0.03304468 -0.018575076 -0.015650218 0.0055370675
000090 b7 ee 8d 3c 55 74 0a 3d 3a 8e 8b bc 9b f8 80 bd
       0.017325742 0.03380235 -0.017035592 -0.06297418
0000a0 b2 4a da 3c e4 04 76 3c e4 65 b1 bb 2a f3 86 bd
       0.026646946 0.015015814 -0.0054137576 -0.065893486
0000b0 80 1b dd ba ac 4f 0e 3d e0 82 87 bc 4e ea d3 bc
       -0.0016869158 0.03474395 -0.016541898 -0.025868561
0000c0 9e 28 2e bb 4f f5 ba 3c ed 7a aa 3c 13 4a 81 3b
       -0.0026574503 0.02282205 0.020810569 0.003945598
0000d0 90 66 50 3c ea 73 4a bd 2f 1d 6a bd bb 72 ae 3d
       0.012719765 -0.04942695 -0.057156738 0.08517977
0000e0 a6 54 1e bd 1f 3d d4 bc aa 6f a5 bb 78 34 05 bc
       -0.038654946 -0.025908051 -0.005048712 -0.008130185
0000f0 d4 b2 4f bb 85 e5 70 bc 87 db 72 bd b3 55 65 bd
       -0.0031692283 -0.014703159 -0.05929139 -0.055989932

bn4.weight f4 [64]
000000 3c 70 0d 40 ec 86 0a 40 f6 66 ef 3f 81 3b 02 40
       2.2099752 2.164485 1.8703296 2.0348818
000010 7e 13 13 40 28 53 10 40 18 21 11 40 43 df 0c 40
       2.2980647 2.2550755 2.267645 2.2011268
000020 d9 d6 07 40 a6 ec e7 3f a1 14 04 40 b9 cf 0f 40
       2.1224883 1.8119094 2.063759 2.2470534
000030 2f 6e 09 40 ce 04 05 40 92 53 01 40 11 94 0a 40
       2.14735 2.0784183 2.0207257 2.1652873
000040 91 b9 0c 40 3a b7 15 40 35 02 10 40 6f 4f 05 40
       2.198826 2.3393083 2.2501347 2.0829732
000050 f3 e2 14 40 12 67 06 40 93 8f e4 3f 0a 2e 0c 40
       2.326352 2.100041 1.7856315 2.19031
000060 5b de e9 3f dc bd f2 3f 2d da 03 40 99 90 ef 3f
       1.8270983 1.896419 2.0601914 1.8716003
000070 3e 8b f2 3f a0 ad 02 40 3b 4b e9 3f 64 6f 11 40
       1.8948743 2.0418472 1.8226084 2.2724237
000080 92 b5 06 40 04 bc 01 40 a8 f7 11 40 76 d0 0e 40
       2.1048322 2.0271006 2.2807407 2.2314734
000090 19 b0 e1 3f 89 2c 0f 40 5a e6 06 40 d3 d0 03 40
       1.7631866 2.2370932 2.1078095 2.0596206
0000a0 41 1a 0a 40 8a 39 10 40 43 99 0c 40 c6 9c 06 40
       2.1578524 2.253512 2.1968544 2.1033187
0000b0 9b e6 0f 40 10 a9 16 40 b4 61 0d 40 db 0b ff 3f
       2.24845 2.3540688 2.2090883 1.9925493
0000c0 51 36 f9 3f d1 56 ec 3f c8 7b ed 3f f1 a2 eb 3f
       1.9469701 1.8463994 1.85534 1.8409101
0000d0 28 75 1b 40 e0 0e ec 3f 62 5a 11 40 56 36 0d 40
       2.4290257 1.844204 2.2711415 2.2064414
0000e0 12 32 0b 40 a3 dc 10 40 d3 e6 0a 40 c7 7a 0e 40
       2.174931 2.2634666 2.1703384 2.2262437
0000f0 44 f9 0b 40 f5 09 0b 40 de 93 0b 40 f0 af 18 40
       2.187089 2.1724827 2.1809 2.3857384

bn4.bias f4 [64]
000000 90 51 dc 3e 97 24 ae 3e 21 1f c0 3e 5b a4 b5 3e
       0.43030977 0.3401229 0.3752375 0.35476956
000010 dd 04 ba 3e 5f d4 f1 3e a9 63 c0 3e a2 15 06 3f
       0.36331835 0.4723234 0.37576035 0.5237676
000020 1f c9 c1 3e b6 a7 4b 3e 87 04 c5 3e b8 a5 8f 3e
       0.37848756 0.19888195 0.38480017 0.2805612
000030 14 da a0 3e 62 05 c8 3e 3c 1f a5 3e a2 83 03 3f
       0.3141638 0.39066607 0.32250392 0.5137273
000040 f2 22 bf 3e af 0d a4 3e 1d 14 7a 3e ea 0a c2 3e
       0.3733135 0.3204169 0.24421735 0.37898952
000050 c1 cb 89 3e 6e 3e de 3e 4b 1e 15 3f 9c c6 f2 3e
       0.26913264 0.43407005 0.5824935 0.47417152
000060 c8 a1 01 3f 27 54 af 3e 2e 17 5d 3e 49 85 17 3f
       0.50637484 0.3424389 0.21590874 0.5918775
000070 58 80 2a 3f 31 a7 16 3f 2d ac 09 3f 8e 9e c3 3e
       0.6660209 0.58848864 0.53778344 0.38206905
000080 1c f7 c5 3e 25 94 92 3e 63 ce 9f 3e e5 b3 bb 3e
       0.38665092 0.2862865 0.31212148 0.36660686
000090 62 a4 06 3f 16 fd be 3e ca c7 bf 3e 6e 39 05 3f
       0.5259458 0.37302464 0.37457114 0.52040756
0000a0 93 c7 9c 3e 8d fd b6 3e f5 be 75 3e b7 ca 9f 3e
       0.30621013 0.3574032 0.23998626 0.31209347
0000b0 2f 8d c2 3e ed 6d c2 3e c2 98 a6 3e a4 6d df 3e
       0.3799834 0.37974492 0.3253842 0.43638337
0000c0 21 c9 24 3f 87 f5 1a 3f 73 78 10 3f a4 42 1e 3f
       0.643694 0.60530895 0.5643379 0.61820436
0000d0 c4 ec d4 3e ed 05 0f 3f f4 9d ce 3e cf 2c de 3e
       0.41586888 0.5586842 0.40354884 0.4339356
0000e0 da 22 97 3e b8 cb fb 3e 8d 69 de 3e bb a7 b4 3e
       0.29518777 0.49178863 0.43439904 0.35284218
0000f0 45 7b 90 3e 04 bd 03 3f 35 44 ac 3e 9d bb 9f 3e
       0.28219047 0.5146029 0.33645788 0.31197825

bn4.running_mean f4 [64]
000000 48 09 df 3e 76 0c c1 bd c6 5d 12 3e 71 65 ea 3e
       0.4356177 -0.09426205 0.14293584 0.4578052
000010 79 6c 15 3f 11 2b 2c 3e d0 00 5b 3f 07 23 65 bd
       0.5836864 0.16813304 0.85548115 -0.055941608
000020 31 72 95 3f 64 2e 34 3e dd aa ba 3d 2b ee 82 be
       1.1675473 0.17595822 0.09114621 -0.25572333
000030 89 63 3d be 3e eb a8 3e c9 45 52 3e 31 de f1 bd
       -0.18495001 0.32991976 0.20534433 -0.11809958
000040 6e 97 12 bf 00 e2 8f 3e 15 7e 57 3f cc e5 98 3f
       -0.57262313 0.28102112 0.8417676 1.1945128
000050 96 7a da 3e 89 0d 14 3e ed 58 60 3f cf f9 f0 3d
       0.4267165 0.14458288 0.8763569 0.11766397
000060 6c 3e 96 be cb ac 7d be 03 85 31 bd 6f 34 25 3e
       -0.293445 -0.24772947 -0.04333974 0.16133283
000070 bf 16 a2 3e e6 9e 8e be e7 91 85 3d a6 7d 18 3e
       0.3165798 -0.27855605 0.06521969 0.14891681
000080 8b c9 8d be 20 78 27 3f be 7f e0 3e 50 82 e0 bc
       -0.27692828 0.6541767 0.4384746 -0.027405888
000090 8f 6e 1f 3e 94 e4 31 bf c6 65 d5 3e e8 c3 43 bf
       0.15569519 -0.6948941 0.4167921 -0.76470804
0000a0 a7 a3 1e 3e 43 fd 56 3f 5f ae 07 be fb 6f b2 bd
       0.15492116 0.83980197 -0.13250111 -0.08712765
0000b0 95 ea ef bd 8b 11 d3 3e e1 68 f3 bd 51 a1 f2 3e
       -0.11714665 0.41224322 -0.118852384 0.473887
0000c0 7f 4d 0b bf a8 ab d9 3e 4c 9f c7 3e 5c 88 db 3e
       -0.54415125 0.42513776 0.3898872 0.4287747
0000d0 5d 4e d0 3e 80 48 96 be 14 08 61 3f c3 66 59 be
       0.40684786 -0.29352188 0.8790295 -0.21230607
0000e0 99 1b 02 3f 9b 8a 36 3d 28 89 02 be 0e 78 ef be
       0.5082336 0.04456578 -0.12747633 -0.46771282
0000f0 49 bc 93 3e 4e 26 e0 3e 88 16 97 3e be da ae be
       0.28854588 0.43779224 0.29509377 -0.34151262

bn4.running_var f4 [64]
000000 f9 41 e8 3e 9b 5a c6 3e 46 fd e0 3e 3f 8c e8 3e
       0.45362833 0.38741 0.43943232 0.454195
000010 81 a3 b7 3e c8 9e 98 3e 74 c2 eb 3e d5 d9 74 3f
       0.3586693 0.2980864 0.46046793 0.95644885
000020 d6 94 e8 3e 8a 3a cf 3e 1e 69 16 3f 23 54 d7 3e
       0.45426053 0.4047435 0.58754146 0.4205638
000030 8f c8 f2 3e 62 09 b4 3e bc 00 7f 3e d8 c7 c0 3e
       0.4741864 0.3516341 0.24902624 0.3765247
000040 8c c0 9c 3e 58 14 cb 3e 62 0c 0d 3f b8 e5 c1 3e
       0.30615652 0.3966396 0.5509702 0.37870574
000050 15 90 ff 3e de 9e 00 3f fa f6 e8 3e c6 dc cd 3e
       0.49914613 0.5024241 0.45500928 0.402075
000060 22 40 cc 3e ab b2 ab 3e 65 4c 9a 3e 1e a3 b5 3e
       0.3989268 0.3353475 0.3013641 0.3547601
000070 17 dc 03 3f 0c 3a c9 3e ea 0d 18 3f bc d4 ca 3e
       0.51507705 0.393021 0.5939623 0.39615428
000080 c4 0b c0 3e 86 61 a8 3e d3 8a 01 3f 03 4e cf 3e
       0.37508976 0.32886904 0.50602454 0.40489206
000090 ec 39 d4 3e a7 a7 dc 3e 35 2a bd 3e 36 f5 cc 3e
       0.4145044 0.4309666 0.36946264 0.4003083
0000a0 b5 c3 8c 3e 12 14 dc 3e 98 46 e1 3e 23 b8 b1 3e
       0.27493063 0.42984062 0.4399917 0.34710798
0000b0 49 f6 c2 3e 52 4f a0 3e 5b 79 a5 3e 8c 64 cf 3e
       0.38078526 0.31310517 0.3231915 0.405064
0000c0 08 18 c9 3e f8 f2 f7 3e be 4d f6 3e 61 c5 a6 3e
       0.39276147 0.48427558 0.48106188 0.32572463
0000d0 3b d3 dd 3e 8e 78 a1 3e 82 89 1a 3f bd 87 b2 3e
       0.4332522 0.31537288 0.6036607 0.34869185
0000e0 d2 b1 09 3f ac 17 e3 3e c6 e2 ca 3e 2e 46 f3 3e
       0.5378696 0.44353998 0.3962614 0.4751448
0000f0 a1 e5 0c 3f 9c 1a 0a 3f 64 de ff 3e 6c a5 c7 3e
       0.55037886 0.5394685 0.49974358 0.38993394

lin.weight f4 [36, 64]
000000 f6 27 3d 3e 61 ac 4d 3e 47 78 31 3e 0e d5 e9 bd
       0.18472275 0.20085289 0.17331038 -0.1141759
000010 c8 f1 b6 be ec 03 db be 62 1f 01 bf 42 a9 90 3e
       -0.3573134 -0.4277643 -0.5043851 0.28254133
000020 52 b0 a4 be 45 b6 9a be c8 36 27 3e 79 d4 40 3e
       -0.32165772 -0.30217186 0.16329491 0.18831052
000030 c3 06 e2 be ab 3c 6c 3e 47 d9 39 3e b4 4b 42 3e
       -0.44145784 0.23070018 0.18149291 0.18974191
000040 0e 92 27 3e 73 40 dc be b4 22 e3 be 04 07 36 bf
       0.16364309 -0.4301792 -0.44362414 -0.71104455
000050 f5 a7 04 bf e3 ef 1c 3e 18 5c a2 bd e1 f2 f1 bb
       -0.5181878 0.15325885 -0.07927722 -0.0073836897
000060 98 3c a3 3e 3e 13 e3 3d 14 26 b8 3d 4c c4 a2 bd
       0.31882167 0.110876545 0.08991638 -0.07947597
000070 32 4c c9 3d a6 18 b5 3e 59 12 8b 3d 04 75 25 be
       0.09828986 0.35370368 0.06790609 -0.16157919
000080 62 fe 13 be e9 f2 d5 be 03 82 8b be 72 c8 53 be
       -0.14452508 -0.41786888 -0.2724763 -0.20681933
000090 6b 6e 84 3e f3 4f e1 3d 91 2e 1c bd e0 c1 df 3e
       0.25865492 0.11001577 -0.038130347 0.43702602
0000a0 d3 ff 17 bd 46 02 0f bf a0 c4 b4 bc 0d 62 8a 3d
       -0.037109207 -0.55862844 -0.022066414 0.06756983
0000b0 a4 7c 37 3d fb e1 04 be 0a 74 f5 bd d0 d7 9e bd
       0.0447966 -0.1297683 -0.11985023 -0.07756007
0000c0 25 62 7f 3e 51 b8 00 3d f9 2b 8b bd 7c cd 8a bd
       0.24939783 0.031425778 -0.067954965 -0.06777474
0000d0 1a c6 e5 3c 58 e6 0f 3e 16 04 04 bf ce de 0f 3e
       0.028048564 0.14052713 -0.51568735 0.14049837
0000e0 70 72 bb be cf 3b 8a 3e 4d 1f 34 bc 74 46 02 3e
       -0.36610746 0.26998755 -0.010993791 0.12722188
0000f0 bc 89 ef 3d 46 4e 69 be bc 36 da be d9 65 9a be
       0.116961926 -0.22783765 -0.42619884 -0.3015583
000100 64 d8 c9 3e 86 5e ad be 52 3a 67 3d 4f 12 65 39
       0.39422905 -0.33861178 0.056452103 0.00021845962
000110 ca 6f df be df c9 bb 3e cf bf bf 3e bb 8c 05 bf
       -0.43639976 0.36677453 0.37451026 -0.5216786
000120 b7 dd df 3d b6 71 af 3e 97 0b 2b be 57 09 bb 3e
       0.109309606 0.34266442 -0.1670364 0.36530563
000130 60 21 99 3e 7a 9c 8f be 82 f4 9e 3e 71 f8 e8 be
       0.29908276 -0.2804907 0.3104592 -0.45502046
000140 f2 89 20 bd 6f 56 c4 3c a1 1b 6e be 5c 05 53 3e
       -0.039194055 0.023966996 -0.23252727 0.20607513
000150 56 a5 24 bd 74 4d db bd 97 dc fc be 9d 56 dc be
       -0.04019674 -0.107081324 -0.49387047 -0.4303483
000160 d5 68 c2 bd 0d 10 0c 3e 0f 47 fd 3e 37 b5 82 bd
       -0.094926514 0.13677998 0.49468276 -0.0638222
000170 7f de 11 bf d8 fb 97 be 67 73 b6 be 17 45 c1 3e
       -0.5698013 -0.2968433 -0.3563492 0.37748024
000180 88 02 09 bf 1c 81 1d be cb ca 7a 3e 65 b3 b0 3e
       -0.5351949 -0.15381283 0.24491422 0.34511867
000190 65 72 a4 be dc c1 a2 be 2f 65 27 3e 80 ea c7 be
       -0.32118526 -0.31788528 0.16347192 -0.39046097
0001a0 ad 70 64 be eb 30 9e 3e eb 7e b0 bd 9e b7 08 be
       -0.22308607 0.30896696 -0.08617958 -0.13351294
0001b0 a9 f9 50 3d 31 04 90 3e 89 6e 24 3e 07 87 83 be
       0.051019344 0.28128198 0.16057791 -0.25688955
0001c0 79 9f d5 be e0 e4 d7 be e3 9c 24 be 1f 01 10 bf
       -0.4172323 -0.42166805 -0.16075473 -0.5625171
0001d0 09 09 2c 3e 0a b4 e9 be fb 66 85 3e f2 fb e2 3c
       0.16800322 -0.4564517 0.2605513 0.027708028
0001e0 a2 24 e5 3d 0f d8 7f be 0e 47 91 3e ce ab 06 bf
       0.11188628 -0.24984764 0.28374523 -0.52605903
0001f0 03 11 3b bc 9f 9c b9 3e 1d 7e 3a 3e 14 86 ea bd
       -0.01141763 0.36252305 0.18212171 -0.114513546
000200 64 c7 51 3e 82 27 87 b8 0a 9f 06 3d 22 1d a0 3e
       0.20486218 -6.4446605e-05 0.032866515 0.31272227
000210 f1 17 a5 be 61 4f 03 bc f8 81 be ba 51 22 78 be
       -0.32244828 -0.008014531 -0.0014534583 -0.2423184
000220 9b 4a 2b 3e 08 31 8d 3e 3e c9 99 be f6 89 96 be
       0.16727678 0.2757647 -0.30036348 -0.2940213
000230 01 b8 67 be b9 6f e4 3e 58 5b 9a 3d 83 e9 97 3e
       -0.22628786 0.44616488 0.07536954 0.29670343
000240 41 32 52 bd 3e 93 1b bf e8 35 e4 be cf e3 42 ba
       -0.051317457 -0.6077155 -0.44572377 -0.0007434459
000250 56 5c 08 be 92 da 70 3d da e5 4f be 29 40 4b bb
       -0.13316473 0.058802195 -0.20302525 -0.0031013584
000260 3e 09 72 be 55 8e 75 be 39 f5 f4 3e fb 61 7b be
       -0.23636338 -0.23980077 0.4784334 -0.24549095
000270 fa be af be 4f 0d 9f be 7e 5b e5 bd 65 3f df 3e
       -0.3432539 -0.3106484 -0.111990914 0.43603054
000280 a6 f8 40 3e 2a 1d 8e bc 84 bf 83 3e a6 80 b6 be
       0.18844852 -0.01734789 0.25732052 -0.35645026
000290 e0 e3 b3 be c0 34 63 be c3 07 ac 3e b2 6e 80 be
       -0.35134792 -0.22188091 0.33599672 -0.25084454
0002a0 44 30 cd 3d e9 b7 4a 3d 6c 18 82 be d5 cb 17 bf
       0.100189716 0.049491797 -0.25409257 -0.592954
0002b0 2f e7 30 be cb 03 d4 be ea 33 f7 3e ff 06 0a 3e
       -0.1727569 -0.41409144 0.48281795 0.13479231
0002c0 5f c8 4e be f6 c3 98 be 28 e8 e2 3c 5a dc 80 be
       -0.20193623 -0.29837006 0.027698591 -0.25168115
0002d0 c1 16 fd bd a6 7c 19 be a5 dd 6a 3e bd 95 63 3d
       -0.123578556 -0.14988956 0.22936113 0.055562723
0002e0 96 e3 4e 3e 26 dd 2b 3d 2a 17 87 3e b6 bb cb be
       0.20204005 0.04195895 0.2638486 -0.3979165
0002f0 ac 88 12 be 4b 51 e3 3d e4 4b 08 be 6c f8 6d 3e
       -0.14309949 0.1109949 -0.133102 0.23239297
000300 28 30 26 3e 76 15 06 bf e2 08 17 bb f2 0a 22 bc
       0.16229308 -0.52376497 -0.0023046066 -0.009890305
000310 32 d9 a4 be af 45 04 3e 3e 04 97 3e 28 fe c0 be
       -0.32196957 0.12917207 0.29495424 -0.37693906
000320 4c 18 b6 3e cb d3 82 3e 8c 4f b4 be a7 d3 0c bf
       0.35565412 0.2555221 -0.3521694 -0.55010456
000330 b7 69 b8 be 6a 63 0e bc 9d a5 8d bd 79 1e 98 3a
       -0.36018154 -0.008690694 -0.06916354 0.0011605761
000340 c4 7e 38 be cc cf 90 be a3 4f 9e bd 08 4d 76 3d
       -0.18017107 -0.28283536 -0.07730033 0.060132056
000350 24 ff fa bd 10 59 94 3c 82 4a ca bd f2 19 f3 bd
       -0.122556955 0.018108875 -0.098774925 -0.11870183
000360 d2 b3 34 3a 29 8d b6 be 2f 42 cb bb bc cc 01 bd
       0.00068932504 -0.35654572 -0.006202958 -0.03168939
000370 26 87 98 bd c4 89 0e bd 03 a3 84 be aa 2a 82 3e
       -0.074476525 -0.034799352 -0.25905618 0.25423175
000380 87 88 96 be 91 e9 f5 bd 39 a4 b3 3b d6 dd 8f be
       -0.29401037 -0.1200744 0.0054822234 -0.28098935
000390 fc 8e 16 be 97 62 de be a0 3d 31 3e 91 05 bb bc
       -0.14702982 -0.43434593 0.17308664 -0.022829803
0003a0 a2 7f 3b be 6a b5 0e 3e 87 3e 7d bd f1 c8 fa 3d
       -0.18310407 0.13936391 -0.06182721 0.12245358
0003b0 19 f7 f8 bd a6 5f 1a 3e 94 5a 52 3e 42 48 87 3e
       -0.12156505 0.1507555 0.20542365 0.26422316
0003c0 63 49 62 bd 28 e1 34 bd 6a e5 12 be f4 4f ce 3a
       -0.05524577 -0.04416004 -0.14345327 0.0015740381
0003d0 85 a3 06 be 41 62 f9 3c c6 d8 92 3d af 22 e7 3d
       -0.13148315 0.030442359 0.071702525 0.11285912
0003e0 e1 ad 9c 3d 54 79 ba bd 49 b6 d5 3d 3c c0 d8 be
       0.07650352 -0.09105173 0.10435159 -0.42334163
0003f0 1c 1d cb 3d 89 42 99 3e f6 67 1a bd cc 1e cc 3d
       0.099176615 0.29933575 -0.0376968 0.099668115
