checkpoints/Archive/linear_spec_fft=512.pt (torch, 367389 bytes, 86 tensors)

conv1.weight f4 [8, 1, 5, 5]
00000000: 3dfc c43d affc eabd c021 ffbe 179a d83e
00000010: 7768 b7bd 08da 86be 2455 53be e678 b0be
00000020: 39ea b9bc 6aca 61be 2096 8bbd 2f8a 98be
00000030: b9dc 63be 9fda 2b3e 1e96 49be 46c6 e8be
00000040: 25ca c8be caf0 1bbf febb afbe de87 b9be
00000050: f49a a03d c9af 4cbe bcc7 aabe 6c1d bebd
00000060: 60d2 07bd ee33 88be 0da2 bebe 7b9f 493e
00000070: 7695 b2be 3fb6 21be 42f8 0ebc d787 53be
00000080: b3f2 d6be 5090 26bf ff62 c2be 495e 153e
00000090: 9b30 303e 63ca 8c3d f40c ef3c 4a11 323c
000000a0: 919b 833e ac5e 1b3e dc6e c63d 0f80 09be
000000b0: 8a89 dfbe 4f01 91be 842e 55be 14ad be3e
000000c0: e1de c6be 4f10 92be b911 e4bd 0277 fabe
000000d0: a941 e1be 8a63 c43b f954 0dbc 0cca 073f
000000e0: 8974 61be 91a0 cd3d f2d7 393e 140f 153e
000000f0: cb62 c03e 26e6 073f 3cc2 203f 8173 bd3e
00000100: 3767 193f c23f 55be 3d99 083d 0478 263d
00000110: 934d 0bbd ea58 943e 3c51 6d3d 88ca 143f
00000120: a775 423e ee2f 8dbe 6d45 d2bb a21d e9bd
00000130: 13f5 ea3e 6338 9cbc f643 ee3d 6141 283f
00000140: d444 cdbd 0162 333f 655d e13c 97e5 c63e
00000150: dacb 08bc 64ab ac3e 0021 253f ab09 6c3e
00000160: c1e3 773b 3903 a93e ee3c bbbb b319 08bd
00000170: a3c4 3b3d 5696 b13d eb33 06be c9a8 f13d
00000180: f126 983d c4fb 953d e2a8 0bbd 673b 9abe
00000190: df0a 173e 24f5 f0bb 1962 2bbe 28c3 60bb
000001a0: c7aa 053c 03d3 bbbd 9b48 4fbe 3780 20be
000001b0: e9f1 e0be 3525 33bf ab8e 33bd 3ad6 013e
000001c0: e5b5 da3d 6805 cd3e 1810 793c a3a8 833e
000001d0: af9a 9e3e fcf2 e53e edfa 2c3f cc3a 4d3f
000001e0: 1721 063e b59f f23e 7e8e 723d ca16 0ebd
000001f0: 6e61 34bc ee6b ebbc c692 59bd ab0e ed3d
00000200: 4791 2abe 16d3 db3e b730 22be aff0 efbd
00000210: 69f8 cdbe fa69 8b3e d890 523d 82df 5bbe
00000220: 9db2 a7be c7eb 9a3e cd60 1f3e 08ca fd3c
00000230: bc81 cfbe 184d 07bf a995 1c3e a587 b33d
00000240: c585 2f3d 2d45 4bbf d799 2abf 4518 503e
00000250: 22b4 0fbe d07f e5be 37b4 50bf 1c9a 62bf
00000260: 505f 4ebe 996e cbbe 108c 8c3e 6bb3 c8be
00000270: 795e 3fbd 1320 b9bd 2909 9d3e 30b0 513e
00000280: be42 f2be f92d acbe 2132 10bf 32b0 a5bc
00000290: 41a3 a43e 73b6 a5be 14dd 21bf 2f1f 5ebd
000002a0: 36be 0fbe 6a7a 65be 3fd2 c3bd 9ffb 15bd
000002b0: 7500 113e a229 3b3e dafa 8e3e 1d99 1d3e
000002c0: 6af8 f23e 53b2 e03e ccd0 a53d d4b1 7c3e
000002d0: 7b1c f13e fb61 e83d 6015 f73e caec 64bd
000002e0: f22e e1bd 79cd aebe 124c 06bf 0622 83be
000002f0: 5796 6e3e f8dd 04be 5168 8ebc ddb7 803e
00000300: b941 aa3d 30d3 603e 2a1e 32be 4886 513f
00000310: fa23 333f b155 003f 2945 afbc 7d5a d73e
0.09618423 -0.11473977 -0.49830437 0.4230506 -0.08955472 -0.2633822 -0.20637947 -0.34467238
-0.022694694 -0.22049871 -0.068157434 -0.29792926 -0.22252168 0.16782616 -0.19686171 -0.4546377
-0.39216724 -0.6091429 -0.34323114 -0.3623647 0.07842055 -0.19988932 -0.3335551 -0.092829555
-0.033159614 -0.2660212 -0.3723301 0.19689743 -0.34879655 -0.15792178 -0.008726181 -0.20657288
-0.4198204 -0.65063953 -0.37966153 0.14586748 0.17206042 0.0687454 0.029180981 0.01086838
0.25704625 0.15172833 0.096891135 -0.13427757 -0.4365962 -0.2832131 -0.20818526 0.37241423
-0.38841918 -0.28528067 -0.11136193 -0.4891892 -0.43995407 0.0059933113 -0.008626216 0.53042674
-0.22017111 0.10040391 0.18148783 0.14556533 0.37575373 0.53085554 0.6279638 0.37002185
0.5992312 -0.20825103 0.033349264 0.0406418 -0.034009527 0.28974086 0.0579388 0.5812154
0.18990193 -0.2757563 -0.0064169676 -0.11382605 0.45890102 -0.019069856 0.11634056 0.6572476
-0.100228935 0.7007142 0.027510354 0.38847038 -0.008349383 0.3372451 0.6450348 0.23050563
0.003782496 0.3301027 -0.0057140505 -0.033227634 0.045841824 0.086712524 -0.13105743 0.11799771
0.074293025 0.07323411 -0.034096606 -0.30123445 0.1475024 -0.007353442 -0.1673664 -0.003429601
0.008158392 -0.09171107 -0.2024254 -0.1567391 -0.43934563 -0.6997865 -0.04383723 0.12679377
0.10679225 0.40043187 0.015201591 0.25714597 0.3097739 0.44911945 0.6757038 0.8016784
0.1309856 0.47387472 0.059217922 -0.034689702 -0.011009557 -0.028737988 -0.05311849 0.11575063
-0.16656981 0.42934483 -0.15838896 -0.117158286 -0.40228584 0.2722929 0.051407665 -0.2147198
-0.3275346 0.3025801 0.1556427 0.030980125 -0.40528667 -0.5285201 0.15291466 0.087661065
0.042852182 -0.7940243 -0.6664099 0.20321758 -0.14033559 -0.44824076 -0.81524986 -0.885164
-0.20153546 -0.39732817 0.2745061 -0.39199385 -0.046720956 -0.09039321 0.3067105 0.20477366
-0.47316545 -0.33628824 -0.5632649 -0.020225618 0.32155803 -0.3236576 -0.63227963 -0.054228958
-0.14037403 -0.22409979 -0.09561586 -0.036616918 0.1416033 0.182776 0.2792576 0.1539044
0.4745515 0.4388605 0.080964655 0.24677211 0.4709204 0.11346813 0.48258495 -0.055889882
-0.10995282 -0.34141138 -0.52459824 -0.25611895 0.23299538 -0.129753 -0.017383726 0.25140277
0.08313317 0.21955562 -0.17394319 0.8184552 0.6997677 0.50130755 -0.021395283 0.42061225

conv1.bias f4 [8]
00000000: a7b2 09bd 914a 4dbd 790d dc3c e409 113d
00000010: c0d0 38bd a68a 4fbd 4637 cd3d 0219 1dbd
-0.03361764 -0.05011994 0.026861893 0.035409823 -0.045120955 -0.050669335 0.10020308 -0.038353927

bn1.weight f4 [8]
00000000: 8e01 8e3f a937 8a3f a5f8 823f 9025 4d3f
00000010: 5ef3 913f 9915 4c3f 99da 643f ccd4 753f
1.1094224 1.0798236 1.023213 0.8013544 1.1402395 0.79720455 0.89396054 0.9602783

bn1.bias f4 [8]
00000000: dedf f23d 58f7 9f3d 2f3d 44be 0333 2a3e
00000010: 73f1 a0bd 7b33 b23d 9af8 a03e 4854 0fbe
0.118591055 0.07810849 -0.19163965 0.16621022 -0.07858553 0.08701225 0.31439668 -0.13996994

bn1.running_mean f4 [8]
00000000: 677e 5bbe f372 d1bd 13a1 0c3e afcd 203e
00000010: 8abd 0d3d e1a5 85bd d9e3 4fbe 902b df3d
-0.21434937 -0.10227003 0.1373332 0.15703462 0.034604587 -0.065257795 -0.2030176 0.10896981

bn1.running_var f4 [8]
00000000: d333 5541 997e be40 7f76 d040 0e1b 0f41
00000010: 6b88 b940 2148 a040 274d 6041 3cff 0241
13.325152 5.952954 6.514465 8.944105 5.7979026 5.008805 14.018836 8.187313

conv2.weight f4 [16, 8, 3, 3]
00000000: 30ae 55bd 8e9b 2e3d 8106 d53d e4f1 d4bd
00000010: a2fc 423d 9a07 24bd eb0a 13be 5f91 adbe
00000020: 982c 8dbe f4f5 06bf fa31 113e d3b6 94bd
00000030: 6e5b 813e 61e5 08be 022f 373d 0a28 15bd
00000040: fbb9 7bbe 8639 77be ae85 05be a53c 2bbe
00000050: 7355 843d f4ef 0b3e d7de 78bd 2b9a 97bd
00000060: 7d41 963d ca65 3f3d 1989 be3d 037b ffbd
00000070: 7b94 6dbe d1f7 22bd 7919 77bd 9057 70be
00000080: c280 09bd c371 da3d 8900 723e dede 073e
00000090: 3ef1 043d 3ea4 543e 08dd c0bd b1e2 bf3d
000000a0: a17b 943e c4f3 8d3e 4957 bfbc bde9 11be
000000b0: 3fcb e73d a3bd 8abe fcc5 a1be 16c6 993d
000000c0: 992d 1fbe d03a f1bd 6180 b4be 656a 0f3e
000000d0: 1578 1f3e 2af3 a5bd 47ad 593d 6b7a e23d
000000e0: c417 57be 2b8b e9bd e2b9 07be f1a8 4d3e
000000f0: 2b79 883c 3d93 90bd ca7b 75ba 497e d9bd
00000100: 99a2 1bbe 5b99 c0be 8fa5 e3bc 8cad a7bd
00000110: 62ab 57be 935c bd3d 65cc 863e 1187 613e
00000120: d4a7 43bd 12c9 06bd 8e56 91be cdfd 3a3e
00000130: fe56 bdbe ba89 b2bc 8c66 15bd 55e5 8dbe
00000140: e730 0abe ee76 a83d 6ba4 dabe c4d6 40be
00000150: fcb7 d5be f074 03bd d114 fbbd 2548 263d
00000160: be08 6c3d b6d6 5f3d 7acf d0bd c5a3 0cbd
00000170: bc19 09be c072 003e 37bd 37be 68ee a1bd
00000180: b939 c8bd 0fb0 3cbe f8ad 7ebb be90 193c
00000190: 4870 e4bd 2d4b 103d 6a44 a03d 871a fcbd
000001a0: 952b 083e a430 72be c828 683c f23c a53e
000001b0: 7af7 a6bd 53c4 5c3d b480 ab3d 570c 613e
000001c0: e5b0 2c3e e97e 34bc 2caa 7bbe 34c7 64bd
000001d0: e162 27bb ee6c dbbb 8149 d0bc 7b30 21be
000001e0: d73c 85bc 2b66 d7bd 77b4 08bc a976 8a3d
000001f0: a3b6 d63c 0383 9abd 545f 74be 9b80 cd3c
00000200: aabc c0bd 44ae b4be 96e2 bfbd fc84 adbd
00000210: 8929 4fbe bc9c ab3e f913 af3e 4efd fabd
00000220: 7a83 c7be c809 c7be 39ff 883e fcaa 21be
00000230: 49a0 c5bc 2317 9fbd 0b6d 49be 316c c8be
00000240: 309b 64be 75f0 b4be d2c8 c0be 26c9 9bbd
00000250: f08a 323e b9fd 693d d666 4f3e 39b5 48bd
00000260: 6c7b 473e 1e01 83bd 8566 88bd caa8 603d
00000270: 8908 0dbd a7eb 75be 150c 87be 260f 093e
00000280: ba4e 1cbe 77aa 8fbe ba65 8e3e a94e a5be
00000290: 5193 c2be b6c1 1cbe f5a4 0a3e d536 0bbd
000002a0: ff0a 4abe 08a3 e2bd f891 1abe b3d2 d13d
000002b0: 7c37 533d b0e5 90be c0c3 9fbd 2b9e 223e
000002c0: f5f4 7bbe 555d 09be 1be2 25be 4dc0 5b3d
000002d0: c69a c2bd 4d14 56bd 9f4a 1bbe f9e1 19be
000002e0: 3056 76bd e45f a0bd bff2 35bb 6408 d2bd
000002f0: 959c c0be ee60 803e 91b4 9fbe 92c6 27be
00000300: d61a 2bbe 84cd 2dbd 36e5 e8bc 83df e2bd
00000310: aa81 393d 5a1a 8d3e e3e2 20bd e94b 6d3c
00000320: e40c cdbd ebf5 493d 4259 d8bd e024 74bd
00000330: 3dd5 623d 811b eb3d 9f5b 52bc 794c d83e
00000340: 5833 fabd 3d06 133e f707 a9be bb0d 8ebe
00000350: 2121 d7be 9904 28be ae70 15be 90b2 80be
00000360: 1c1e 1a3d 2625 493e 35cc 9f3d 31f6 1e3e
00000370: 56e0 b0bd 8d6f 2fbe cd8f 2dbe 19ab fdbd
00000380: 9560 163e dafc 583e c20e 933e 7151 7cbe
00000390: 614d df3e a1ba 853e c926 b5bd 2597 bb3d
000003a0: bd4b 63bd a0cf 1dbe 7c8f 1bbf d5c7 283d
000003b0: fdd3 693e 468e 39be c4a6 123d 1ba5 843e
000003c0: d574 aa3d 1e32 92bd e2e1 9d3d f32d 8cbe
000003d0: 677b 78bc 442f a7bd 0b6d 2dbe fed9 123e
000003e0: 4146 fabd bcd0 7bbd dbd3 933b 2d76 223e
000003f0: b57b dfbd c916 c03d bcd2 e63d cef5 1bbe
-0.05216807 0.042628817 0.10401631 -0.103976995 0.04760421 -0.040046312 -0.14359634 -0.33899972
-0.27573085 -0.52719045 0.14179221 -0.072614335 0.25265068 -0.13368751 0.044722565 -0.036415137
-0.24582665 -0.24143037 -0.13039276 -0.16722353 0.06461611 0.13665754 -0.06075939 -0.07402452
0.0733671 0.046727933 0.09303493 -0.124746345 -0.23201172 -0.039787117 -0.060327027 -0.23470902
-0.03357006 0.106662296 0.23633017 0.13268611 0.03245663 0.20765778 -0.09417158 0.0936941
0.2900057 0.2772504 -0.02335705 -0.1424932 0.11318063 -0.27097806 -0.31596363 0.07508485
-0.15544738 -0.11778796 -0.35254195 0.1400543 0.15573151 -0.081030205 0.053143766 0.110585056
-0.2100516 -0.11403497 -0.13254502 0.20083977 0.01665934 -0.070593335 -0.00093644543 -0.1061979
-0.15198745 -0.37617 -0.027788905 -0.08187398 -0.21061471 0.09246173 0.26327816 0.2202418
-0.047767475 -0.0329066 -0.28386348 0.1826088 -0.36980432 -0.021794189 -0.03647475 -0.2771403
-0.13495217 0.08225809 -0.42703566 -0.18831927 -0.4174193 -0.032093942 -0.1225983 0.040596146
0.057625525 0.054648124 -0.10195823 -0.03433587 -0.13388723 0.12543774 -0.17943273 -0.079068005
-0.09776635 -0.18426536 -0.0038861018 0.009372888 -0.111542284 0.035227943 0.07825549 -0.12309747
0.13297875 -0.23651367 0.014169879 0.3227306 -0.08152671 0.053898167 0.083741575 0.21977364
0.16864355 -0.011016586 -0.24576634 -0.055854037 -0.0025541114 -0.006696335 -0.025425674 -0.1574115
-0.016264362 -0.10517534 -0.008343807 0.06760914 0.026210135 -0.0754452 -0.2386449 0.025085738
-0.09410985 -0.35289204 -0.0936939 -0.084726304 -0.20230688 0.33518016 0.34194925 -0.12255345
-0.38967496 -0.3887465 0.2675722 -0.15787882 -0.024124281 -0.07768085 -0.19670503 -0.39145043
-0.22324824 -0.35339704 -0.37653214 -0.076067254 0.17435813 0.057126734 0.20254073 -0.049000952
0.19480675 -0.063966975 -0.06660179 0.05484847 -0.034431968 -0.24015675 -0.26376405 0.13384685
-0.15264407 -0.28059742 0.27811986 -0.32286575 -0.38003018 -0.1530827 0.13539489 -0.03398784
-0.19730757 -0.11066252 -0.15094745 0.10245266 0.051566586 -0.28300238 -0.07801008 0.15880649
-0.24605162 -0.1341451 -0.16199534 0.05365019 -0.09502177 -0.052265454 -0.15165184 -0.15027608
-0.06014079 -0.0783079 -0.0027763096 -0.10255507 -0.37619463 0.2507395 -0.3119245 -0.16384342
-0.16709456 -0.042432323 -0.028429609 -0.11077788 0.045289673 0.27559167 -0.039278876 0.01448343
-0.10012224 0.04930679 -0.105638996 -0.05960548 0.05537914 0.11479855 -0.012839227 0.42245844
-0.12216824 0.14357848 -0.3301389 -0.2774485 -0.42017463 -0.16408004 -0.14593765 -0.25136232
0.03762637 0.19643077 0.07802621 0.15523602 -0.08636539 -0.17132397 -0.16949387 -0.1238615
0.1468528 0.21190205 0.28722197 -0.24640442 0.43613723 0.2611895 -0.08845288 0.09159688
-0.05549215 -0.15411234 -0.60765815 0.0412062 0.22834773 -0.1812068 0.03580357 0.25907215
0.08323065 -0.07138465 0.07709099 -0.27378806 -0.01516614 -0.08163312 -0.16936128 0.1434097
-0.12220431 -0.06147836 0.004511339 0.15865393 -0.10912267 0.09379346 0.11270663 -0.15230486

conv2.bias f4 [16]
00000000: 71cd 90bd 6984 583d 7a4d 84bd 8a87 cfbb
00000010: 001c a03c 4bf6 993b 457a ddbc c37a 203d
00000020: 10cc 22bd d614 1abc 3f81 813c 69a0 913d
00000030: 0170 5f3d cd79 d93d 6b96 bfbc 3a67 34bd
-0.07070435 0.05286065 -0.0646009 -0.006333296 0.019544601 0.00469855 -0.027035842 0.039179575
-0.03974539 -0.009404382 0.0158087 0.07110674 0.054550175 0.10618935 -0.023387155 -0.044043757

bn2.weight f4 [16]
00000000: 0f6b 9d3f 3294 533f f97e 873f 0a5a 6b3f
00000010: 89e3 813f 7051 883f 28c9 5a3f f2cf 7e3f
00000020: eb02 953f 9b46 753f 4fe9 643f f4e3 773f
00000030: 7a3d 613f 34af 813f b83d 803f fc63 8b3f
1.2298297 0.82648003 1.0585624 0.91934264 1.0147563 1.0649853 0.8546319 0.9953605
1.1641515 0.9581086 0.894185 0.96832204 0.8798443 1.0131593 1.0018835 1.0889888

bn2.bias f4 [16]
00000000: 5d87 183d 5c90 30be 6c38 773d 6b5b aebd
00000010: 5e87 0a3e d14a 053e 1984 a83d 7cb2 8a3d
00000020: 49a7 2fbd 04d9 a3bb fb14 983c ca5c 9a3c
00000030: f482 17be 69e7 11be e737 c83d 2228 e3bd
0.037238467 -0.17242569 0.060356542 -0.0851353 0.13528201 0.13016821 0.08228321 0.067723244
-0.042884145 -0.0050002355 0.018564692 0.018843073 -0.14796048 -0.14248432 0.097762875 -0.11091639

bn2.running_mean f4 [16]
00000000: 0cdc 5fbf f4f0 9cbf 3385 b1bf 9e1a f53e
00000010: ae09 84bf 9f2c 3dbf 566a b4bf c1c6 f73e
00000020: 1ab3 283d dcfc 83bf 0dab 87bf c38c 593f
00000030: 64f6 7bbf abef f93f 3b8c bc3e f4e7 df3f
-0.8744514 -1.2261033 -1.3868774 0.4787187 -1.0315454 -0.7389621 -1.4094951 0.48393825
0.04118643 -1.0311542 -1.0599076 0.8498041 -0.9842284 1.9526266 0.36825737 1.7492661

bn2.running_var f4 [16]
00000000: 00f1 6440 41b1 a03f 1051 aa40 fc20 6c40
00000010: 6eb2 be40 0ff4 2540 6a96 1b40 fa14 0440
00000020: 8d24 3340 8feb 943f c2e4 1a40 91cf 3a40
00000030: 3c37 e03f 10dc 0540 4087 e73f e043 8640
3.5772095 1.2554094 5.3223953 3.6895132 5.959281 2.5930212 2.4310555 2.0637803
2.799106 1.1634387 2.4202123 2.9189188 1.7516856 2.0915565 1.808815 4.1957855

conv3.weight f4 [32, 16, 3, 3]
00000000: c966 47be 3482 68be 06b7 55be eb7b 0ebe
00000010: 32ff 33be 7a36 cfbd 834c 683e f7f2 a73e
00000020: 3b7c 2b3e d15d 25be 0809 bc3d 4ccc 993d
00000030: d685 ce3a 1df9 bb3b a318 2a3d 92fd aabd
00000040: 1760 7bbe 0358 cd3d f28a 713e 53d1 8b3e
00000050: da9b 013d 2d60 863c 46f2 54bc a534 ac3d
00000060: ec07 79bd df04 8dbc 5e8a 3bbe aa28 3f3e
00000070: ffcd 1f3d 0ee0 b3bd a3d4 83be 52f8 57bd
00000080: e01b 2a3e a705 ecbc c2e8 0ebe 9575 b4bd
00000090: b3e4 fcbc b766 073e 3bb9 f13b c16f 0e3e
000000a0: bcb3 30bd eccc 9fbd 9e5e 6f3e 13d3 813d
000000b0: 3ed5 233b 456c 43bd 3598 5c3d 7da5 86bd
000000c0: d4cc 19be a99b a53d 7006 e03d 6979 22be
000000d0: a82d 2abe 16e3 0cbe c579 613d 0e00 88bc
000000e0: ad88 be3c 06a2 12be 6694 dabd 8ac2 d33d
000000f0: cd5c 2cbe 8624 38be d609 523d c809 4a3d
00000100: 8ba1 a03c 88c6 9d3d ea49 c63d bf8c 2e3d
00000110: dae2 423c b9f6 ed3d 97a1 a0bb 758f 05bb
00000120: 9e87 a43c e663 01be 1495 053e cf9d 0cbe
00000130: 5936 44be 9b0f aabe d2b6 15bd 21ba 91be
00000140: 4dd1 9ebe 64d0 c33d 67fe ab3d 8264 113d
00000150: 2d93 81bd 2080 03bd 73b5 16be 3acd 1a3e
00000160: b8b4 a03e 6759 853e 004b 66be 2834 f53c
00000170: 23e1 33bc 8c23 f83d 9047 35be 322d c9bd
00000180: 1204 22be 55ae 1abe c665 83bd 4099 283d
00000190: 85cd c6bd fa04 adbc d99a 5d3e f5d0 1d3e
000001a0: 3834 52bc 8f8b f6bd ca01 133d 9de2 61bd
000001b0: eaa3 9cbd 713b f6bd 2b68 9bbd d51e 83bd
000001c0: f355 0abe fc04 69be 4d92 0c3d d110 f33c
000001d0: 9b76 823e 00ee 2f3d 7ecf 4c3e fb7e 873e
000001e0: 55eb 7bbd f2cf 0dbd f463 0dbe 9419 3ebe
000001f0: 3857 f1bd 4265 49bb a3fb 20be 3ace 313c
00000200: e064 b2bc bf83 523e 4217 46bd 700a 8dbd
00000210: a376 703d 7527 6bbd 02eb 7ebd 6f35 953d
00000220: 2b28 b03d ca5c 283d 8a9f f83b 2b68 6dbd
00000230: 9c38 1a3d f556 823e 3f2b f6bc 54d4 433e
00000240: bc9c c1bd 3eac 093e 2b8a fbbb 6fe1 ce3d
00000250: 2fb1 f03b 2391 f33d b98c 3d3d c0b1 ba3b
00000260: 293e 9c3d 661c 84be dc42 cd3d 509f 8fbd
00000270: 1806 45be 2d53 1ebe ae9f 46bd 151e 303d
00000280: 4944 c0bd 367e e0bd df2c a8bd fc84 883d
00000290: 5a3a 313d d651 f5bd 8be4 3a3d e37e 22be
000002a0: c368 8dbd f66f b4bd f6be b43d e39c ae3d
000002b0: 4508 d83c 5b61 4c3d b736 0e3d 0046 83be
000002c0: 8aa1 b53c 78f6 453d d23e 55bd e224 1f3a
000002d0: 8621 d9bd c82e e5bc 4d38 153e 3251 fbbd
000002e0: fa8d 2f3d 7b8c 4f3e 2dbb c8bd 6697 b5bc
000002f0: 0d0e f7bd 31f2 7bbd 5a2f 3e3e 3df3 7fbc
00000300: b378 28bd 7fbf 463e d419 603e 857c ca3b
00000310: 1ce3 3b3b a271 2abe 9cee d2be c56c 673e
00000320: 33e7 a73c 7ef2 04be c410 963c e2b2 0f3e
00000330: fd2b 07be 15ff a9bd 7578 ff3d ff39 903d
00000340: 458a 77bd 1447 433e e5b5 b93c c95f 4c3d
00000350: 6d25 353d ff32 843e 722b ccbd de94 c53d
00000360: d43b 9cbe d2da aa3d f1f3 acbc 26c9 afbe
00000370: 503a b83d 3b18 d43d 47e4 4b3d 15d3 1f3e
00000380: e288 133e 786f 133d 7cdb b4bd 081f 70be
00000390: f6a9 92be 85a0 5bbe 7965 88be ad48 fb3d
000003a0: ec97 df3d 3dd1 013e 6556 12be 7625 023e
000003b0: 69f2 09bd 33cb e83c d433 103e 9488 4f3e
000003c0: ee08 b1be 9729 f4bd aa96 2abe 907e fc3d
000003d0: bc07 4f3c 85e5 15be 2cc9 7b3e bd31 233b
000003e0: edf0 f33d e7d3 1fbe ce18 c53c d9c0 e2bd
000003f0: 6a61 3dbe 1ba1 8abd 1eff fe3c 4028 58be
-0.19472803 -0.22705919 -0.20870599 -0.13914458 -0.17577818 -0.101178125 0.22685437 0.32802555
0.16746609 -0.1614907 0.0918141 0.0750967 0.0015756439 0.0057364837 0.0415274 -0.08349146
-0.24548374 0.100265525 0.2358816 0.2730814 0.031642772 0.016403282 -0.012997216 0.08408479
-0.06079857 -0.017214237 -0.18314502 0.18667856 0.039014813 -0.087829694 -0.25748166 -0.05272705
0.16612196 -0.028811289 -0.13955978 -0.088114895 -0.030870771 0.13222776 0.0073768175 0.13909818
-0.043140158 -0.078027576 0.23375937 0.06339087 0.0024998928 -0.047710676 0.053856093 -0.06574533
-0.15019542 0.080863304 0.10938728 -0.15866627 -0.16618979 -0.13758501 0.05504777 -0.016601589
0.023258531 -0.1431962 -0.10672836 0.1033984 -0.16832276 -0.17982683 0.05127891 0.049325734
0.01960828 0.077038825 0.09682067 0.042614695 0.011894906 0.11619324 -0.0049020755 -0.0020379697
0.020084199 -0.12635764 0.1304515 -0.13732074 -0.19161357 -0.3321503 -0.036551304 -0.28462318
-0.3101906 0.09561232 0.08398133 0.035496242 -0.063269 -0.03210461 -0.14717655 0.1511735
0.31387877 0.2604477 -0.22489548 0.029932097 -0.01097897 0.12116155 -0.1770308 -0.098230734
-0.15821865 -0.15105565 -0.06415896 0.041161776 -0.097071685 -0.021120537 0.21641101 0.15411742
-0.012829833 -0.120383374 0.035890378 -0.055147756 -0.076484516 -0.12023056 -0.07588228 -0.06402365
-0.1350935 -0.22755808 0.03431921 0.029671105 0.25481114 0.042951584 0.20001027 0.26464066
-0.061503727 -0.03462214 -0.1380766 -0.18564445 -0.11784214 -0.003073052 -0.15720992 0.010852391
-0.021776617 0.2055807 -0.048362024 -0.068867564 0.05870689 -0.057410676 -0.06223584 0.07285582
0.086014114 0.041104116 0.007587378 -0.05796067 0.037651643 0.25456968 -0.030049918 0.19123966
-0.09453723 0.13444611 -0.007676383 0.10101592 0.0073453407 0.11892917 0.04627678 0.005697459
0.076290436 -0.25802916 0.10022518 -0.07012808 -0.19240606 -0.15461417 -0.048492126 0.04299744
-0.09388024 -0.10961573 -0.082116835 0.0666599 0.04326854 -0.119784996 0.04562811 -0.15868716
-0.06904747 -0.08810417 0.088254854 0.085260175 0.02637113 0.049897533 0.03472015 -0.25639343
0.022171754 0.048330754 -0.052061863 0.00060708646 -0.10602097 -0.027976409 0.14572258 -0.12271346
0.04286001 0.20268433 -0.09801326 -0.022166919 -0.12063227 -0.06151027 0.1857275 -0.015621957
-0.041130733 0.19408987 0.21884853 0.0061793947 0.0028669303 -0.1664491 -0.4119767 0.22600086
0.020495987 -0.12983128 0.018318541 0.14033082 -0.13200374 -0.08300606 0.12474147 0.07042312
-0.0604346 0.19070083 0.022669742 0.049896035 0.044225145 0.25820157 -0.09969224 0.09647535
-0.30514395 0.08342518 -0.021112414 -0.34333152 0.08995497 0.10356184 0.04977825 0.15607865
0.14407685 0.035994977 -0.08830926 -0.23449337 -0.28645295 -0.21447952 -0.26639917 0.12269721
0.10917649 0.12677474 -0.1429077 0.12709603 -0.033678446 0.028417205 0.14082271 0.20266944
-0.34577125 -0.11921995 -0.16659036 0.123288274 0.012636121 -0.14638336 0.2458846 0.0024901472
0.11911187 -0.15608178 0.02405968 -0.11071939 -0.18494192 -0.0676901 0.031127509 -0.21109104

conv3.bias f4 [32]
00000000: 9b73 d83d 9505 91bd 71ab 4a3d 7a8c b23d
00000010: f498 3c3b c4fc 62bd c07e a0bc 0bde 7dbd
00000020: ff17 d93d 51be 473b 3a80 143d ebed ea3d
00000030: cdd7 70bd ec48 533c f23b 543d ccc4 3c3d
00000040: 2e9a 42bd d3fd e93c 8512 413d 3d3c 7dbc
00000050: d98f d4bb b064 053c 7cbf f4bc 6927 a3bb
00000060: a1dc 873c 7d57 c5bc dabd 473d 29c1 813d
00000070: ed46 10bc 7fad 343d 9955 533d 2833 0abe
0.10568925 -0.07081143 0.049479906 0.087182 0.002877769 -0.055416837 -0.01959169 -0.061979335
0.1060028 0.0030478428 0.0362551 0.114711605 -0.058799554 0.012895804 0.05181498 0.046086118
-0.04751032 0.028563416 0.047136802 -0.015456256 -0.0064868745 0.008141682 -0.029876463 -0.0049790633
0.016584696 -0.02408957 0.04876504 0.063356705 -0.0088059725 0.04411077 0.051595304 -0.13496077

bn3.weight f4 [32]
00000000: 4cc4 773f ce40 6e3f cb66 5f3f 81e4 8e3f
00000010: ae95 663f 5fd9 5a3f fe08 843f e505 a73f
00000020: 0663 743f b9ff 6e3f 35c5 6d3f bd30 6f3f
00000030: 0b3b 503f 744a 593f 4dfe 863f 25d6 903f
00000040: 2dd7 283f 9058 9e3f 178b 813f f637 523f
00000050: eda4 733f 8290 6f3f 17da 873f 83bf 973f
00000060: d75e 713f 45f3 543f 9a49 763f 0ec3 903f
00000070: 15e5 823f 75e8 3d3f 1401 843f 5a34 843f
0.967839 0.93067634 0.87266225 1.1163484 0.90072143 0.8548793 1.0315244 1.3048674
0.954636 0.9335895 0.9287904 0.93433744 0.8134009 0.8487923 1.0546356 1.1315352
0.6595333 1.2370777 1.0120572 0.8211664 0.9517353 0.93579876 1.0613431 1.185532
0.9428534 0.831837 0.9620606 1.1309526 1.022616 0.74182826 1.0312829 1.0328476

bn3.bias f4 [32]
00000000: 883d 53be ebc8 b0bd 2cbb f8bd 8c13 6fbe
00000010: cdd8 a5bc 3a95 85bc 3b9c 50be 9049 ecbe
00000020: 7507 dabe 380b 66bd 0ab5 4fbd 6715 02be
00000030: 01b8 31be 2198 83be 6911 0fbe 3071 ce3d
00000040: 5ff5 83be c67a 113e b1d4 e4ba 1aa3 31bc
00000050: 60d5 b4bd 4dd4 d2bd 4f0f 90bd cbaa eebe
00000060: 3dbe 71be e75d 67be fa4c 4abe dc7c 95be
00000070: c5e4 3bbe 975e 44be 3ef2 b6be 0367 c2be
-0.20628941 -0.08632072 -0.12145075 -0.233473 -0.02024498 -0.016306508 -0.20372097 -0.46149874
-0.42583814 -0.056163043 -0.05070976 -0.12703477 -0.17355348 -0.25702003 -0.13971485 0.100801826
-0.2577314 0.1420699 -0.0017458407 -0.010842109 -0.088297606 -0.102943994 -0.0703417 -0.4661468
-0.23607726 -0.22594415 -0.19755927 -0.29196823 -0.18348987 -0.19176708 -0.3573169 -0.37969217

bn3.running_mean f4 [32]
00000000: 30c1 53be bb54 37bd 2630 3dbf b27c 203d
00000010: 1f03 3dbf 4e24 883d 3e03 a83d 315a 103f
00000020: 9f95 13bf cbe7 35bf 3cd0 88be 8b97 05bf
00000030: 6a75 483e 82aa 1c3e 5d8d 32bf 9afa 5dbf
00000040: 76c7 bdbe 450e 52bf a498 c6be 3793 d43d
00000050: 442e aebe 5989 82bd fd12 a4bf efc8 ad3e
00000060: a498 b2be 1913 88be 515d 91bf 6cae 29bf
00000070: 5e9b 88be 009e 83bf a20d 3d3f f068 583e
-0.20679164 -0.04475854 -0.73901594 0.03918142 -0.7383289 0.066475496 0.082037434 0.5638762
-0.5765018 -0.71056813 -0.2672137 -0.5218436 0.1957604 0.15299419 -0.69746953 -0.8671051
-0.3706624 -0.82053024 -0.3878833 0.103796415 -0.34019673 -0.06373853 -1.2818295 0.33942363
-0.3488208 -0.2657707 -1.1356603 -0.6628177 -0.26681036 -1.0282593 0.7384893 0.2113378

bn3.running_var f4 [32]
00000000: 17ba 033f e6de 873f 8600 a040 6176 003f
00000010: bef7 ce40 8f5c 3a40 331c 743f 412a 523f
00000020: 5abd 863e e6c2 4f3f a0c7 d63f 31d7 a43e
00000030: 8786 2140 ff03 c53e f348 ce3f 386c 3940
00000040: 7c00 003f a1c1 a43f 274b 2640 fb87 7a3f
00000050: 2ee6 543f 2b93 b040 8923 ca3f 43f3 0c3f
00000060: 78c2 193f d92b b63e b0ff 1040 5e4d 0c3f
00000070: 5e9b 453f 233a f43f a0e8 013f 433a 913e
0.51455826 1.0614898 5.000064 0.5018063 6.467742 2.9118993 0.9535553 0.82095724
0.2631634 0.81156766 1.6779671 0.32195428 2.523836 0.3847961 1.6116012 2.8972301
0.5000074 1.2871591 2.598337 0.9786374 0.83163726 5.517965 1.5792094 0.5505869
0.6006236 0.35580328 2.265606 0.5480555 0.77190197 1.9080242 0.5074558 0.28364763

conv4.weight f4 [64, 32, 3, 3]
00000000: 145b 5e3d 05e2 c93d 5573 143d 8368 7d3e
00000010: a4c9 8f3d 7843 ad3e a0fe d93c 231e 84bd
00000020: 05e5 cd3c 0bfd 923d df22 7abd 9440 97bd
00000030: 36a2 e93c cd2d 8abc dc00 593e 1865 19bd
00000040: 976c a6bd 6285 dbbc 9cc0 89bb 0bf5 193e
00000050: 1409 03bd c33e 0f3d 7377 dfbd 7110 49bc
00000060: 1158 ca3c d01a 6b3d 6320 22bd 9e2e 5bbe
00000070: 0d45 f3bd 6555 8bbd fa1e 193e 0594 f63d
00000080: c60f d13d 2743 cebd b765 57bd 4e57 583c
00000090: 6c5b f83d 156d 833d 956f 213e 11d0 5c3d
000000a0: e6b4 18bd 5616 c93d 9a4f e83d 2a02 bebb
000000b0: d986 d43d 4e8c 0d3e 6a32 563d 42b1 123e
000000c0: 80f2 19be 6c15 31bd 5ee8 85bd e667 293d
000000d0: d1bb 463e cb53 7a3d 15b5 b23c c301 a43d
000000e0: 8c93 283d 25ae 2bbd 39df 773d 0a53 643d
000000f0: aee2 debb bcda 4f3e 43f9 f63d f253 493d
00000100: a347 ed3d 2ed5 4f3e 8e00 6a3d 4d09 bd3a
00000110: 6f75 873c 7758 be3d b954 563e aaa5 b23e
00000120: d4b8 0abe 263b 95bd 8088 0cbe be0e b1bd
00000130: 0c2b 2bbd 849a 9dbb c504 01be a9ac 91bd
00000140: 614c 2dbe 23dd 3a3e 12ed ca3d 5208 a43d
00000150: 7657 dfbc d339 2dbd 6478 ca3d 2a2c d53c
00000160: a799 8b3c 74a5 c43c 9f55 d13c eb83 1b3e
00000170: 4063 8d3b a742 6a3d 63ab d8bc 779f 42bd
00000180: 5a18 533d c04e 253c ef3b 38bd c4f0 943d
00000190: e9ef 433e 3c18 443e d4e1 c7bd b158 febc
000001a0: cbbb 3ebd ef86 9ebc 59ed 3c3d daac 423e
000001b0: ef02 383d cc43 da3d cdee 713e be66 d6bd
000001c0: d2f8 78bd 9772 d7bd 5c26 8b3d a80e e73b
000001d0: 2e1c 053e 50b1 593c 6ee6 e0bd c87b 32be
000001e0: f217 b43c 6425 ba3b 22c7 11bd a019 fdbd
000001f0: 6d68 28be d45b 66be b548 273d aad6 48be
00000200: beca 11be e326 313e b639 a53d 3b83 b43d
00000210: 2045 1cbe 1413 cebd 3ca7 36be 94ba f6bd
00000220: bd57 a3bc f52a 24bc bb85 c6bd 324e 55bd
00000230: 8f7f fdbd 8b24 763d 9797 803c bb2c 263c
00000240: 8d82 26be 5b60 a1bd b8f9 9c3d f941 dc3d
00000250: 16cc 19be 7143 01bd c99c b63c 6e06 96bd
00000260: e519 cf3b ab3b 093d df2b a1bd 0f22 44be
00000270: 5660 83bd 9885 71bd ae5d babd b650 bbbd
00000280: 1f5c 39be dc38 e7bd fb9d 863d 9f0e 9e3c
00000290: ae99 b73d 4636 d3bd 7dce bbbd ec7d b83d
000002a0: 3f9c ec3c cf8c 68bd 8300 f63d c392 f93d
000002b0: c8d9 9d3d a196 5c3e b117 843d e825 02be
000002c0: 5bf4 bfbd 670d b0bc ff3f 083e 02b7 c23d
000002d0: 1cf2 d93d 1198 6ebd 1354 eebd f9e1 09bd
000002e0: cdad e13d 6704 0b3e d23f 4c3c c678 043e
000002f0: cf95 303d 7d4e 3dbd b2a0 74bd 8eb2 8a3d
00000300: 3553 a13d f858 f7bd f248 e2bd 0a5d a23d
00000310: 0d53 403e 95be 03bd affe 503e f3b7 6f3d
00000320: 8ad7 153e e0c6 86bd 61b2 19be 32da 96bd
00000330: 44ad 8a3d ac9f a53d 8e91 173e 4a1f bb3d
00000340: ee71 053e 3208 0f3e b6ee de3d 6054 333e
00000350: 1d87 843d 8134 b53d 6c06 b43b 09dd 433e
00000360: 76c4 8fbc d6e6 b2bd 0475 49bc fe93 6abb
00000370: d22c 6f3e f90c f03d e229 01bd 4ae2 20bd
00000380: f935 533d 54ba 14bd f5f0 8dbd 8909 16bd
00000390: 6cc6 c03c 8814 efbd b81a 7ebc 7ea0 d33c
000003a0: cf75 24be 50d0 c2bd 5d33 98bb d8c0 0a3d
000003b0: 114e 923d b164 da3d bcd8 dc3c d1db 0dbe
000003c0: 64ff 143d 9841 f6bd 3cd6 c83d d893 743e
000003d0: c26a 333e 5a25 773e b085 ccbd f2c1 21bd
000003e0: 1b4a 8bbd 3def 663e c6ac 653e 2675 a83e
000003f0: 525f 323d 4de2 e3bc 2fab 5b3c 22c2 c5bd
0.054286078 0.09857563 0.0362428 0.247469 0.07020882 0.33840537 0.026610672 -0.064510606
0.02513362 0.0717717 -0.061068412 -0.07385364 0.028519731 -0.016867543 0.21191734 -0.037449926
-0.081261806 -0.026797 -0.004203869 0.15034883 -0.03199108 0.034971964 -0.10911455 -0.012271986
0.024700196 0.057398617 -0.039581668 -0.21404502 -0.11878405 -0.06803397 0.14953223 0.12039951
0.10208087 -0.10071402 -0.052587237 0.013204409 0.12126812 0.0641729 0.15765221 0.053909365
-0.037281893 0.09818713 0.11343308 -0.005798598 0.10377283 0.13823053 0.052294172 0.14325431
-0.15033913 -0.04323332 -0.06538461 0.04135885 0.19407584 0.061115067 0.021814862 0.080081485
0.041156337 -0.041914124 0.060515616 0.055743255 -0.0068019247 0.20298284 0.12059262 0.049152322
0.11585929 0.20296165 0.057129435 0.0014422328 0.016535489 0.09294217 0.20930757 0.34892017
-0.13547069 -0.07286672 -0.13723946 -0.0864539 -0.0417891 -0.0048096795 -0.12599476 -0.071130104
-0.16923667 0.1824842 0.09908499 0.080093995 -0.027263384 -0.042291474 0.09886244 0.026022036
0.01704104 0.024004675 0.025553523 0.15187041 0.00431481 0.05719247 -0.026448911 -0.04751536
0.051536895 0.010089576 -0.044979032 0.07272485 0.19134487 0.1914987 -0.0975987 -0.03104815
-0.046565812 -0.01935145 0.04612479 0.1901125 0.044924673 0.106574625 0.23626252 -0.10468815
-0.06078417 -0.10519903 0.06794426 0.0070513077 0.12999031 0.0132869035 -0.10981451 -0.17430031
0.021984074 0.005680727 -0.0355903 -0.12358403 -0.16446085 -0.22495967 0.040840823 -0.19613138
-0.14237496 0.1729999 0.08067648 0.08814093 -0.15260744 -0.100622326 -0.17837232 -0.12047306
-0.019939298 -0.010020007 -0.09693476 -0.052076526 -0.123778455 0.060093444 0.015697284 0.0101425005
-0.16260739 -0.078797065 0.076648176 0.10754771 -0.15019259 -0.031558458 0.022291558 -0.07325445
0.0063202255 0.03350417 -0.07869696 -0.19153617 -0.06414859 -0.058965296 -0.09099899 -0.09146254
-0.18101548 -0.11290142 0.06573101 0.019294081 0.08964859 -0.10313086 -0.09170244 0.09008393
0.028883098 -0.05677491 0.12011816 0.12186196 0.07707554 0.21541835 0.06449831 -0.12709773
-0.09372779 -0.021490766 0.13305663 0.09507562 0.10641882 -0.05825049 -0.1163713 -0.03366277
0.11019478 0.13575898 0.012466388 0.12936696 0.04311162 -0.04621743 -0.059723563 0.06772338
0.078771986 -0.12077516 -0.110490695 0.07927902 0.18781681 -0.032164175 0.20409654 0.058525037
0.14633003 -0.06580901 -0.15009452 -0.07365836 0.06771329 0.080870956 0.14801618 0.09136827
0.13031742 0.1396797 0.10885374 0.17512655 0.06471083 0.08847905 0.0054939296 0.19127287
-0.017549735 -0.08735435 -0.012295965 -0.0035793777 0.23356941 0.11721224 -0.031534083 -0.039278306
0.051565144 -0.03631051 -0.069307245 -0.036630187 0.023532115 -0.11673838 -0.0155093 0.025833365
-0.16060565 -0.09512389 -0.004644795 0.033875316 0.07143796 0.106637366 0.026958816 -0.13853385
0.036376372 -0.1202423 0.09806487 0.23884523 0.17521194 0.24135342 -0.09986436 -0.0394916
-0.06801244 0.225522 0.22429189 0.32901877 0.043547936 -0.02781787 0.013407513 -0.096561685

conv4.bias f4 [64]
00000000: 7741 c1bc b83f 16bd 1576 d2bc 091e 21bd
00000010: 5bba 923c edf2 893a 28a6 74bc 465a b93c
00000020: e3e4 ec3b d760 013d 0ae3 46bc 66cc 08bd
00000030: 635b 1ebc ec5d eeb8 91ce 893c 7414 4fbd
00000040: 118d ebbc 3033 883c 2a9f fbba 2624 493a
00000050: 62f6 243c bc5f 043d 6554 073c dfe4 843d
00000060: a5f7 23bc 8ad5 95bc 5ea5 d8bc 627f 86bc
00000070: 7975 53bc df1b 8d3c 554e b5bc 96fd 183d
00000080: 697d 8fbc f3b4 17bd 4079 8abc 08e5 cdbc
00000090: cc3d 953b 8bbd f73c 2c27 d7bc a03c b03c
000000a0: b4bd dcbc 13ac 613c 39b8 2bbb 033d 333d
000000b0: 6f46 0a3d aa60 bbbb 6895 da3c 2d1a 43bc
000000c0: 987c 073c 5040 9d3b 50d5 0a3b 7ee7 58bc
000000d0: c295 893a 55da cfbb 28e0 bdbc 27a3 393c
000000e0: b8f9 6cbd d539 0dbd 6b28 18bd b4c2 b1bc
000000f0: 94ef 723b e325 49bc 3a84 bb3b 48f7 ddbc
-0.023590786 -0.03668186 -0.025691072 -0.039335284 0.017911127 0.0010524668 -0.014932193 0.022626054
0.007229434 0.031586494 -0.012139091 -0.033398055 -0.009665343 -0.00011366219 0.016822131 -0.050556615
-0.02875379 0.01662597 -0.0019197215 0.0007672928 0.010068508 0.032317862 0.008259867 0.06488966
-0.0100077735 -0.0182903 -0.02644604 -0.016418163 -0.012906426 0.017225204 -0.022132078 0.037351213
-0.017515855 -0.0370378 -0.01690352 -0.025133625 0.004554486 0.030241748 -0.026263796 0.021513283
-0.026945926 0.013773936 -0.0026202335 0.043759357 0.033758577 -0.0057183104 0.02668257 -0.011908096
0.008269452 0.0047989264 0.0021184273 -0.013238786 0.0010496902 -0.006343166 -0.023178175 0.011330402
-0.057855338 -0.03447898 -0.03714792 -0.021699287 0.003706907 -0.012277099 0.0057225497 -0.027095452

bn4.weight f4 [64]
00000000: 90b4 2440 794c ef3f 54c7 1a40 14fa 1c40
00000010: 9637 ef3f 4543 e03f 03bd ea3f 8e8e 0d40
00000020: 49e4 f93f 3899 0040 0402 d73f 05b1 e73f
00000030: 14b4 0040 e6a7 e53f f3c4 1340 c2d6 e53f
00000040: 12a1 f93f 7ce2 0e40 8fdf 1340 f1bf 0f40
00000050: 0fab 0040 42f9 0a40 35c0 f53f dab8 ff3f
00000060: 96dc f83f 1b7b 0f40 87ac f63f 0782 0840
00000070: 0488 0740 14bf 0040 4e81 fc3f 69c0 0240
00000080: 8e73 1d40 6bd3 2040 d17b f23f 06bb 0240
00000090: 3d05 0440 47fb 1740 9bbd 1a40 08d1 0440
000000a0: 168a 0c40 7666 1c40 ca19 1240 5c7c ea3f
000000b0: 69bf 0340 75b0 2440 f74c 0640 ff0a 1040
000000c0: a332 0340 40d7 0e40 b7ee 1140 a403 f33f
000000d0: ec07 e63f caa8 0440 9131 ee3f c7e4 0a40
000000e0: 64a1 0c40 1453 0b40 29cb ec3f e403 1240
000000f0: d771 0e40 93d2 d93f 3066 2140 5874 0440
2.5735207 1.8695213 2.418416 2.4527636 1.8688838 1.7520529 1.8338932 2.2118258
1.9522792 2.0093517 1.679749 1.8100897 2.010991 1.7941864 2.3088958 1.7956164
1.950228 2.2325735 2.31052 2.2460902 2.0104406 2.1714635 1.9199282 1.9978287
1.9442317 2.2418888 1.9271401 2.1329362 2.1176767 2.0116625 1.9726961 2.0429938
2.460178 2.512904 1.8944036 2.042665 2.0628197 2.3747118 2.4178226 2.0752583
2.195928 2.4437537 2.282824 1.8319201 2.0585577 2.57327 2.0984476 2.2506711
2.0499656 2.2318878 2.280195 1.8985486 1.7971168 2.072802 1.8608876 2.1702135
2.1973505 2.1769457 1.84995 2.2814875 2.2256982 1.7017387 2.521862 2.069601

bn4.bias f4 [64]
00000000: 0ee7 ae3d f646 e23e 7b4e a33c bca3 5d3d
00000010: 456d 003e 23bf 8b3e 0caf bb3e d4f4 8a3e
00000020: 61d9 7a3e 7c1a 0d3e 7b5f a93e 5f17 d03d
00000030: 315d e63e 685a d93e 07b4 113e 2d29 d83e
00000040: b552 073f 1010 663c 0e55 4f3d faa5 463e
00000050: b978 0b3e 715c 3c3e cc18 543e 88f7 b83e
00000060: edba be3e dbc2 653e 5a0d b53e 9f45 be3e
00000070: 3404 253e fe54 ab3d 6f5d a13e bc55 8a3d
00000080: f767 653e d044 5d3c 91a3 473e 4001 8d3e
00000090: f4f3 953e 1abd a33e 2d27 7a3d a01c 393d
000000a0: 9fa1 9f3d 4859 a9bd f95f 9a3e b6e7 6f3e
000000b0: 4416 aa3e 1bbc 0f3e 5d99 8c3e cfed 0cbd
000000c0: 309b 0c3e 54a3 d63e 3203 e43d f36c 343d
000000d0: 5b93 713e 5667 883e be1d 493e 2525 243d
000000e0: 5028 173e 4d16 0c3e 2573 033f ed42 923d
000000f0: 8d03 b13e 51b5 803e cdd1 ff3d 1b69 df3e
0.08540164 0.44194764 0.019934883 0.054111227 0.12541683 0.27294263 0.36656988 0.27139914
0.24496986 0.13779634 0.33080658 0.10160708 0.44992974 0.42451787 0.14228831 0.42218915
0.52860576 0.014041916 0.050618224 0.19399253 0.13620271 0.18394639 0.20712584 0.3612635
0.37251988 0.22437613 0.3536175 0.37162492 0.16114885 0.0836582 0.31516597 0.06754634
0.2240294 0.013505176 0.1949599 0.27540016 0.29287684 0.3198021 0.061072517 0.045193315
0.07794499 -0.08268982 0.30151346 0.23428234 0.33220112 0.140366 0.27460757 -0.03440648
0.13731074 0.41921484 0.11133422 0.044049215 0.23591368 0.2664134 0.19640252 0.040074486
0.14761472 0.13680382 0.5134757 0.07141671 0.34573022 0.25138333 0.12491188 0.43634877

bn4.running_mean f4 [64]
00000000: c914 143e e6c9 95bf f7e5 0d3f 6c78 e33e
00000010: 93f0 04bf d26d 013f d2db a53f 6c74 3b3f
00000020: 6826 58bf 5ff1 493e 3a8a 703f a49f bcbe
00000030: a865 283e a7be 75bf e386 8f3f 1fdf 1ebc
00000040: 7742 e1be e0cf 7c3f 9d99 aabe 0ed0 81bd
00000050: 4e98 0abf ed41 48bf 856a 823f 561c 073f
00000060: e35c aabd 11f4 51be 153c 2bbe 9935 88bf
00000070: 6ae1 ba3f 413d eb3e c6eb 313f 2bd3 29bf
00000080: 09e8 763e 454d 9f3e bcd7 9f3e ebee 953e
00000090: fee5 693f e2ed 6e3f f18a 033f c8b4 733e
000000a0: b06b 363e 6d7b 1dbd 5b87 cfbe f988 c13e
000000b0: 02bc 043e aa6d 2f3f 9735 5dbf 2c58 573f
000000c0: fdaa 36be 77b8 1abf c99c da3e 1491 553e
000000d0: 6ddf 57bd 1cf7 ecbe 2684 1bbf 9fdf 0a3f
000000e0: f46b 19bf c6d5 3f3f d762 58be fb30 323f
000000f0: af4b b7be 9a49 ad3c b696 573e 1958 213e
0.14461054 -1.170224 0.55429024 0.44427812 -0.5192959 0.505582 1.2957709 0.7322452
-0.84433603 0.19720982 0.93960917 -0.36840546 0.16445029 -0.9599404 1.1213039 -0.009696751
-0.4399602 0.9875469 -0.33320323 -0.063385114 -0.5413865 -0.78225595 1.0188757 0.5277761
-0.08318498 -0.2050326 -0.16722138 -1.0641357 1.4600041 0.4594517 0.69500387 -0.6633784
0.24111952 0.3111364 0.3121928 0.29283842 0.91366565 0.9333173 0.5138388 0.23799431
0.17814517 -0.038447786 -0.40532956 0.37799814 0.12962344 0.6852671 -0.86409897 0.84118915
-0.17838664 -0.6043772 0.42697743 0.20856124 -0.05270331 -0.4628228 -0.6074852 0.5424747
-0.5993035 0.7493557 -0.21131454 0.6960599 -0.3579993 0.02115326 0.21053585 0.15756263

bn4.running_var f4 [64]
00000000: d3a9 0e3f 0cab 4f3e 1988 0d3f 2485 a23e
00000010: 0b50 923e 4512 dd3e d473 2b3e 131d 893e
00000020: 6f78 833e d3d6 da3e 0b4b 6e3e 405a bb3e
00000030: d532 463e 7758 243e a23e 8d3e 301d 683e
00000040: fc63 5a3e 8c4b a93e 74aa a63e fd00 d13e
00000050: badf 033f 8296 853e fad5 4d3e 2507 b53e
00000060: 0f95 d43e 8060 e33e 6c18 553e 91a0 703e
00000070: ede7 823e a722 bc3e ccee 6f3e 3d57 8f3e
00000080: fd27 713e 8bce 673e cf69 2c3e 48c0 db3e
00000090: 2cf5 6a3e d6b7 8c3e d3b6 a13e 1513 053f
000000a0: 856f 7b3e fabf a23e 7c53 383e d00b 4b3e
000000b0: 8c32 873e cdb7 a03e 8eab 783e 2018 ce3e
000000c0: 0a85 b23e 6bf7 9e3e 8d90 353f a862 3c3e
000000d0: e80d 633e cc06 a63e 2ed7 543e adaa db3e
000000e0: c1aa eb3e ecae 9f3e d7cc 903e dbfb 423f
000000f0: dfaf 583e 38e6 963e ca84 ff3e 3401 7b3e
0.5572788 0.20280093 0.55285794 0.31742203 0.28576693 0.43178 0.16743404 0.26779994
0.2567782 0.42742023 0.23270814 0.36592293 0.19355328 0.16049372 0.27586848 0.22667384
0.21327204 0.3306545 0.3255192 0.40821066 0.51513255 0.2609139 0.20101157 0.35357013
0.41519973 0.4440956 0.20810097 0.23498751 0.2556757 0.36745188 0.23430938 0.27996245
0.2355041 0.22637384 0.16837238 0.42920136 0.22945088 0.27484006 0.31584796 0.5198224
0.2455426 0.31787091 0.18000597 0.19828725 0.26405752 0.3139023 0.24284193 0.4025278
0.34867126 0.3104814 0.7092369 0.1839701 0.22173274 0.3242706 0.2078521 0.42903653
0.46028712 0.31188142 0.2828128 0.7616555 0.2116084 0.29472518 0.49905998 0.24512178

lin.weight f4 [36, 64]
00000000: 0802 7a3e 64af b3bb f681 9b3d 4f32 523d
00000010: 71ed 723c 76ed 873d f835 66be 49eb c4ba
00000020: 3c5a cfbe a760 66be 89e4 d8bc ba78 49be
00000030: 5b39 cfbc d504 faba 6592 0abf ae5a 17bc
00000040: cdb2 173e 12d9 803d af3c 133d a346 edbe
00000050: d8ed 873b 24a6 cb3d 7d27 5ebe 3363 9a3e
00000060: fcab 283e 44f7 193e 4510 b0be fe0f 273e
00000070: 5402 a53e 53b4 f5be 8fde 10be 6273 9c3e
00000080: 9441 6e3e c685 ba3c 7f63 cbbe bff5 c13d
00000090: 606c 3fbe 4b26 833b f3da 8a3e 569e e0be
000000a0: f5a4 dabe 754a babe ecae a43e a206 8dbe
000000b0: 0329 b23c 86a9 713e 3f79 92be bbef bb3d
000000c0: da2d 1abe 4cb9 18bd 8088 843d ae8a 8fbe
000000d0: 55f5 17be ab86 653c a8f4 b63d 45c9 cebe
000000e0: 774e c7bc d07c e03c 54fb aabc 8f4c 8c3e
000000f0: 8220 0fbe bd86 893c c7ac aa3d 4484 b13d
00000100: 0749 2d3d 0521 02bf 97a1 73bf 3f65 e5be
00000110: e829 71be 6037 77be 8a32 b03e 24a8 4a3e
00000120: b113 b53d 5f78 9abe 10d5 7cbd 0bfc 413e
00000130: e7bf da3c c890 e7be 7acb b63e 0ea7 cabe
00000140: ab09 a7be f03d 80be 6627 f6be 5b9b 573e
00000150: 374f 1b3e 8363 8bbe 3018 6d3e 4732 0e3c
00000160: 0f0f 05be ef08 333e c5e5 2c3e 94f7 00bb
00000170: cf60 17be 11b8 413e 1ec5 7f3e eeff 9d3c
00000180: 9c3a 05bf 2d70 733c 4b88 613e 95ab f6be
00000190: 3d84 713e 6e73 ebbd 0e6d 943d 0da4 79bd
000001a0: 78d4 0c3e 3fa3 87bd 8bc7 f6bd 9ad6 bc3e
000001b0: 2d59 833e 4b16 debe ca81 4abd dd8e eabe
000001c0: 0d24 6c3e 6131 0fbe 2009 cb3e b7ac 953d
000001d0: 128d a83e 93f0 553e 42eb 61bc 3cce af3b
000001e0: cdad 9d3d 2315 80be d56a 04bf 32a9 ad3e
000001f0: e138 0f3e 9078 89be 8336 68be 318d 47be
00000200: c756 393e f75b 08be 85f7 45bf 4fbb 19be
00000210: 66c1 3abe c05e 6b3e eb18 6cbd bfee 913e
00000220: acd8 8f3e 25a4 87be 1672 1ebe a632 823e
00000230: 50a5 423c 72f7 9e3b 2799 e7be d33a b2bc
00000240: 8e0e 96bd 2bb5 8cbe 0da9 b3be c7a6 6d3e
00000250: 2a46 9f3e 03e3 1abf 4034 e13d d69a fcbd
00000260: 8c4c a93d eb57 a83e b183 24be 52c5 b8bd
00000270: 9235 c3be 355f b43e 66f3 af3e 4d63 c23e
00000280: 0749 00bf dad7 cfbe b642 dabd 6992 debe
00000290: b6fb 023e 954d 60bd dd8d 9b3e 3369 dcbe
000002a0: 0ee1 f3be 8148 dd3e 46b2 363e 5b21 643e
000002b0: 485e a5be 2c4b 30be db4a aebe 011d e3be
000002c0: bdd1 c63d d4c6 d8be b0e4 ea3e ecae 463e
000002d0: c7a1 653e 6e32 96be 7daf d7be d386 60bd
000002e0: b1cf a83e 5175 9abe 9b8c 33be 8f14 0e3e
000002f0: b2b4 c83e 612a 5fbe efad dfbe 755e 93be
00000300: 3b49 603d 12b7 19be 2392 dbbe f29f d9bd
00000310: 7bcc cfbd 4b3c 403d 2afb 89bd b93b 133d
00000320: f0c9 aa3e d6d9 84bc 5464 96bd 859b 613e
00000330: 214f 9cbb 581d 873e 61c1 f83c a954 693e
00000340: e72d 13be a14a 5fbe 2dca fbbe e3ce f03d
00000350: cf5a f63c ad16 52be 4852 0a3e 8174 14be
00000360: 05e1 49be b361 ef3d 3a7f 723d 1681 00be
00000370: 3205 b0be 83c5 cc3d 3edc 55bd ca63 3ebe
00000380: 6e42 0bbf e189 e0be 1676 b13d 3d71 b4bd
00000390: efa0 923e 1cb5 99bd 94c0 1a3e 7832 d0be
000003a0: ad14 5d3d 027e 603c ab09 aabe 0dd5 083e
000003b0: e2c5 45bd 299f 90be 0e4d 17bb 2ec7 9bbe
000003c0: ee42 173c 5ea3 bcbd e331 2d3e f398 4dbd
000003d0: 583a 403e bd51 553e 4c84 9ebb 45bf b1bd
000003e0: 25ba 1fbd 5fee 1abf 09e8 a5bd 87e1 eebd
000003f0: 9acd e73e 0e6f 6cbe a83f 453e d1df 3dbe
0.24414837 -0.0054835547 0.075931475 0.05131751 0.014827118 0.06637089 -0.22481525 -0.0015023734
-0.4049853 -0.22497807 -0.026476162 -0.1967496 -0.025295904 -0.0019074926 -0.5412963 -0.009237928
0.14814301 0.06291403 0.035946544 -0.46342954 0.004148226 0.09943798 -0.21694751 0.30153808
0.16471857 0.1503573 -0.34387413 0.16314694 0.3222834 -0.4798914 -0.141474 0.3055678
0.23267204 0.022768866 -0.39724347 0.094707005 -0.18693686 0.0040023676 0.2712017 -0.438708
-0.42703977 -0.3638493 0.32164705 -0.27544123 0.021748072 0.23599824 -0.28608128 0.09176584
-0.15056553 -0.037286088 0.06471348 -0.28035492 -0.1483968 0.014009158 0.08933383 -0.4038793
-0.024329407 0.027403265 -0.020871796 0.2740216 -0.13977244 0.016787881 0.08333736 0.08667806
0.042305972 -0.50831634 -0.9516844 -0.44803807 -0.23551142 -0.24142218 0.34413558 0.19790703
0.088416465 -0.3016996 -0.06172663 0.18943803 0.026702834 -0.45227647 0.35702115 -0.39580578
-0.32624564 -0.25047255 -0.48076934 0.21055357 0.15166937 -0.2722436 0.23153758 0.008678979
-0.12994026 0.17483877 0.16884525 -0.0019678818 -0.14783023 0.18917872 0.24977538 0.019287076
-0.52042556 0.014858288 0.22024648 -0.48177782 0.23585601 -0.11496626 0.07247363 -0.060947467
0.13752925 -0.066229336 -0.120497786 0.36882478 0.25653973 -0.43376383 -0.049440183 -0.4581212
0.23060627 -0.1398368 0.396554 0.07308333 0.32920128 0.20892553 -0.013789 0.005365161
0.076991655 -0.25016126 -0.5172551 0.33918148 0.13986541 -0.26849794 -0.22677045 -0.19487454
0.18099509 -0.13316332 -0.7733081 -0.15012859 -0.18237838 0.22985363 -0.05764095 0.2850246
0.28094995 -0.2649242 -0.15473208 0.25429267 0.011880234 0.004851275 -0.45234033 -0.021756565
-0.07326995 -0.2748197 -0.35089913 0.23208152 0.31108218 -0.6050264 0.10996294 -0.1233422
0.08266553 0.32879576 -0.16065861 -0.09022011 -0.38126808 0.35228887 0.34365386 0.37966385
-0.5011143 -0.4059437 -0.10657255 -0.43471077 0.12791333 -0.054761488 0.3038167 -0.4304901
-0.4763264 0.4321938 0.17841443 0.22278349 -0.32298493 -0.17216176 -0.34041485 -0.44358066
0.09707973 -0.42339194 0.458776 0.19402665 0.22424994 -0.2933535 -0.42126074 -0.05481608
0.32970956 -0.3016763 -0.17534105 0.1387503 0.3920036 -0.2179351 -0.43687388 -0.28783002
0.054757338 -0.15011242 -0.4288493 -0.1062621 -0.101464234 0.0469325 -0.06737359 0.035945628
0.3335719 -0.016217154 -0.07343355 0.22031982 -0.004770175 0.26389575 0.030365648 0.22786202
-0.14372979 -0.21805812 -0.49177685 0.117582105 0.030072598 -0.20516463 0.1350795 -0.14497568
-0.19714744 0.116885565 0.059203364 -0.12549242 -0.34378964 0.0999861 -0.052211992 -0.18592754
-0.5439824 -0.43855193 0.08665101 -0.08810661 0.28638408 -0.07505247 0.15112525 -0.40663505
0.053974796 0.013701918 -0.332105 0.13362522 -0.04828442 -0.2824643 -0.00230867 -0.304254
0.009232266 -0.09210847 0.16913562 -0.050194692 0.18772256 0.20831962 -0.0048375484 -0.0867906
-0.03899588 -0.60519975 -0.08100898 -0.1166411 0.4527405 -0.23089239 0.19262564 -0.1854241

lin.bias f4 [36]
00000000: 97f3 913c 4eaf c8bc 2ca7 17bd 9582 433c
00000010: 7a32 39bd 1e1c cfbd 67d6 f1bd f969 f5bc
00000020: e184 f73d 36e9 8abc 701b aebd f1f6 e6ba
00000030: 7f1c f7bd 57f2 c8bd 7fdd 293d 2e76 f0bc
00000040: 9725 93bd 803a 983d 7b02 0cbe 0c1e 063e
00000050: 746f d2bd 054d 29be fe0e 99bd de49 2c3e
00000060: 3404 5d3d f055 ee3c 1f71 7e3d f768 cc3d
00000070: 034c c9bd 5ef0 5b3c f3da fdbc 5042 8e3d
00000080: 8356 d5bd fb1b 6fbe 3192 743d a34a 22be
0.017816348 -0.024497654 -0.037024662 0.011932989 -0.045214154 -0.10112785 -0.11808472 -0.029957758
0.120858915 -0.016956907 -0.08501327 -0.0017621202 -0.12065982 -0.09811848 0.041471 -0.029353227
-0.07184904 0.07433033 -0.13672821 0.130974 -0.10275164 -0.16533287 -0.07473563 0.16825053
0.053959087 0.029093713 0.0621196 0.09980958 -0.09828951 0.013424007 -0.030988192 0.06946242
-0.104168914 -0.23350517 0.05970973 -0.15848784

conv.0.weight f4 [8, 1, 5, 5]
00000000: 3dfc c43d affc eabd c021 ffbe 179a d83e
00000010: 7768 b7bd 08da 86be 2455 53be e678 b0be
00000020: 39ea b9bc 6aca 61be 2096 8bbd 2f8a 98be
00000030: b9dc 63be 9fda 2b3e 1e96 49be 46c6 e8be
00000040: 25ca c8be caf0 1bbf febb afbe de87 b9be
00000050: f49a a03d c9af 4cbe bcc7 aabe 6c1d bebd
00000060: 60d2 07bd ee33 88be 0da2 bebe 7b9f 493e
00000070: 7695 b2be 3fb6 21be 42f8 0ebc d787 53be
00000080: b3f2 d6be 5090 26bf ff62 c2be 495e 153e
00000090: 9b30 303e 63ca 8c3d f40c ef3c 4a11 323c
000000a0: 919b 833e ac5e 1b3e dc6e c63d 0f80 09be
000000b0: 8a89 dfbe 4f01 91be 842e 55be 14ad be3e
000000c0: e1de c6be 4f10 92be b911 e4bd 0277 fabe
000000d0: a941 e1be 8a63 c43b f954 0dbc 0cca 073f
000000e0: 8974 61be 91a0 cd3d f2d7 393e 140f 153e
000000f0: cb62 c03e 26e6 073f 3cc2 203f 8173 bd3e
00000100: 3767 193f c23f 55be 3d99 083d 0478 263d
00000110: 934d 0bbd ea58 943e 3c51 6d3d 88ca 143f
00000120: a775 423e ee2f 8dbe 6d45 d2bb a21d e9bd
00000130: 13f5 ea3e 6338 9cbc f643 ee3d 6141 283f
00000140: d444 cdbd 0162 333f 655d e13c 97e5 c63e
00000150: dacb 08bc 64ab ac3e 0021 253f ab09 6c3e
00000160: c1e3 773b 3903 a93e ee3c bbbb b319 08bd
00000170: a3c4 3b3d 5696 b13d eb33 06be c9a8 f13d
00000180: f126 983d c4fb 953d e2a8 0bbd 673b 9abe
00000190: df0a 173e 24f5 f0bb 1962 2bbe 28c3 60bb
000001a0: c7aa 053c 03d3 bbbd 9b48 4fbe 3780 20be
000001b0: e9f1 e0be 3525 33bf ab8e 33bd 3ad6 013e
000001c0: e5b5 da3d 6805 cd3e 1810 793c a3a8 833e
000001d0: af9a 9e3e fcf2 e53e edfa 2c3f cc3a 4d3f
000001e0: 1721 063e b59f f23e 7e8e 723d ca16 0ebd
000001f0: 6e61 34bc ee6b ebbc c692 59bd ab0e ed3d
00000200: 4791 2abe 16d3 db3e b730 22be aff0 efbd
00000210: 69f8 cdbe fa69 8b3e d890 523d 82df 5bbe
00000220: 9db2 a7be c7eb 9a3e cd60 1f3e 08ca fd3c
00000230: bc81 cfbe 184d 07bf a995 1c3e a587 b33d
00000240: c585 2f3d 2d45 4bbf d799 2abf 4518 503e
00000250: 22b4 0fbe d07f e5be 37b4 50bf 1c9a 62bf
00000260: 505f 4ebe 996e cbbe 108c 8c3e 6bb3 c8be
00000270: 795e 3fbd 1320 b9bd 2909 9d3e 30b0 513e
00000280: be42 f2be f92d acbe 2132 10bf 32b0 a5bc
00000290: 41a3 a43e 73b6 a5be 14dd 21bf 2f1f 5ebd
000002a0: 36be 0fbe 6a7a 65be 3fd2 c3bd 9ffb 15bd
000002b0: 7500 113e a229 3b3e dafa 8e3e 1d99 1d3e
000002c0: 6af8 f23e 53b2 e03e ccd0 a53d d4b1 7c3e
000002d0: 7b1c f13e fb61 e83d 6015 f73e caec 64bd
000002e0: f22e e1bd 79cd aebe 124c 06bf 0622 83be
000002f0: 5796 6e3e f8dd 04be 5168 8ebc ddb7 803e
00000300: b941 aa3d 30d3 603e 2a1e 32be 4886 513f
00000310: fa23 333f b155 003f 2945 afbc 7d5a d73e
0.09618423 -0.11473977 -0.49830437 0.4230506 -0.08955472 -0.2633822 -0.20637947 -0.34467238
-0.022694694 -0.22049871 -0.068157434 -0.29792926 -0.22252168 0.16782616 -0.19686171 -0.4546377
-0.39216724 -0.6091429 -0.34323114 -0.3623647 0.07842055 -0.19988932 -0.3335551 -0.092829555
-0.033159614 -0.2660212 -0.3723301 0.19689743 -0.34879655 -0.15792178 -0.008726181 -0.20657288
-0.4198204 -0.65063953 -0.37966153 0.14586748 0.17206042 0.0687454 0.029180981 0.01086838
0.25704625 0.15172833 0.096891135 -0.13427757 -0.4365962 -0.2832131 -0.20818526 0.37241423
-0.38841918 -0.28528067 -0.11136193 -0.4891892 -0.43995407 0.0059933113 -0.008626216 0.53042674
-0.22017111 0.10040391 0.18148783 0.14556533 0.37575373 0.53085554 0.6279638 0.37002185
0.5992312 -0.20825103 0.033349264 0.0406418 -0.034009527 0.28974086 0.0579388 0.5812154
0.18990193 -0.2757563 -0.0064169676 -0.11382605 0.45890102 -0.019069856 0.11634056 0.6572476
-0.100228935 0.7007142 0.027510354 0.38847038 -0.008349383 0.3372451 0.6450348 0.23050563
0.003782496 0.3301027 -0.0057140505 -0.033227634 0.045841824 0.086712524 -0.13105743 0.11799771
0.074293025 0.07323411 -0.034096606 -0.30123445 0.1475024 -0.007353442 -0.1673664 -0.003429601
0.008158392 -0.09171107 -0.2024254 -0.1567391 -0.43934563 -0.6997865 -0.04383723 0.12679377
0.10679225 0.40043187 0.015201591 0.25714597 0.3097739 0.44911945 0.6757038 0.8016784
0.1309856 0.47387472 0.059217922 -0.034689702 -0.011009557 -0.028737988 -0.05311849 0.11575063
-0.16656981 0.42934483 -0.15838896 -0.117158286 -0.40228584 0.2722929 0.051407665 -0.2147198
-0.3275346 0.3025801 0.1556427 0.030980125 -0.40528667 -0.5285201 0.15291466 0.087661065
0.042852182 -0.7940243 -0.6664099 0.20321758 -0.14033559 -0.44824076 -0.81524986 -0.885164
-0.20153546 -0.39732817 0.2745061 -0.39199385 -0.046720956 -0.09039321 0.3067105 0.20477366
-0.47316545 -0.33628824 -0.5632649 -0.020225618 0.32155803 -0.3236576 -0.63227963 -0.054228958
-0.14037403 -0.22409979 -0.09561586 -0.036616918 0.1416033 0.182776 0.2792576 0.1539044
0.4745515 0.4388605 0.080964655 0.24677211 0.4709204 0.11346813 0.48258495 -0.055889882
-0.10995282 -0.34141138 -0.52459824 -0.25611895 0.23299538 -0.129753 -0.017383726 0.25140277
0.08313317 0.21955562 -0.17394319 0.8184552 0.6997677 0.50130755 -0.021395283 0.42061225

conv.0.bias f4 [8]
00000000: a7b2 09bd 914a 4dbd 790d dc3c e409 113d
00000010: c0d0 38bd a68a 4fbd 4637 cd3d 0219 1dbd
-0.03361764 -0.05011994 0.026861893 0.035409823 -0.045120955 -0.050669335 0.10020308 -0.038353927

conv.1.weight f4 [8]
00000000: 8e01 8e3f a937 8a3f a5f8 823f 9025 4d3f
00000010: 5ef3 913f 9915 4c3f 99da 643f ccd4 753f
1.1094224 1.0798236 1.023213 0.8013544 1.1402395 0.79720455 0.89396054 0.9602783

conv.1.bias f4 [8]
00000000: dedf f23d 58f7 9f3d 2f3d 44be 0333 2a3e
00000010: 73f1 a0bd 7b33 b23d 9af8 a03e 4854 0fbe
0.118591055 0.07810849 -0.19163965 0.16621022 -0.07858553 0.08701225 0.31439668 -0.13996994
