checkpoints/Archive/linear_spec_500.pt (torch, 380765 bytes, 86 tensors)

conv1.weight f4 [8, 1, 5, 5]
00000000: 2c98 683e 4f9e 523e ecf8 a93e dc7e 173f
00000010: 1536 84bd 0579 87be 10ef edbd ee9a 81bc
00000020: 3ac4 343e 8319 1ebc efdf 89be af9c 93be
00000030: d475 b5bd 393e 37bd 31f4 d7be 2a36 b1bd
00000040: be55 f1bd b945 c4be c8b5 5dbd c24a b23b
00000050: 6de5 ae3e 9397 babe 52f2 f6bd ecb2 74bd
00000060: e6a5 7ebe 26ba efbe 5156 88bd cd6b e9bd
00000070: da88 15be 2705 10bf 0e24 3abf a128 cebe
00000080: d3d9 73bc 9a17 75be 4d79 d8bd 8494 01bf
00000090: 3d07 8c3d 3206 99be c62f 633c ee92 8fbd
000000a0: f902 04be 371f 02bf 540d e43e 3da3 4cbe
000000b0: 93e9 bcbe 8098 b6be 19dc 503e 3194 a33e
000000c0: ad0e 763e 86f4 02be 3e84 6abd cd05 f6be
000000d0: e29f 25be 99b0 ecbe 7978 2abe f756 6fbd
000000e0: 16ad 013f 9123 1ebf 871b 0bbf 4fff 7c3e
000000f0: 4287 933d 23e1 d4bd c820 a6be d733 dbbd
00000100: 38dd 99be 7c1a 0cbc a1a9 743e d7a0 5fbd
00000110: afeb b8be 4ed3 a13e 48cc 103f 6751 cfbd
00000120: 56f0 9bbe f05e d4be fb15 53be fafa c73d
00000130: 0227 a23e c354 663e ecef 3cbe cfca 983e
00000140: 6cac 903e d759 12be 5f7e 14bd db5d e2be
00000150: 8515 1ebe 1458 7f3e e1fa 54be 951a 033f
00000160: a80c 71bf 8302 47be 42fa b4bd 7132 1e3e
00000170: ca0e 25be c6be a4be af37 e83d c7d8 c6bd
00000180: 8490 ce3d 42f8 21be 63d3 d6be 1fff 63bd
00000190: 6ea8 15bd 87d9 10bf d227 653e 1ca3 3d3e
000001a0: d52a adbe d409 383e 4ce8 aebe dc69 ecbe
000001b0: fb87 223e b99f 15bf 6863 8c3d 631b bebe
000001c0: d735 adbe 86cf f8bd 3867 11be 2d94 51be
000001d0: 12c3 17bf 6a3c 29be dfa9 e43d 3174 443e
000001e0: ca6a c2be 51d4 0dbf 82b7 20be 5e9e 0c3e
000001f0: b4ce 11bd 9def 4c3e daf8 203d 0de4 7c3e
00000200: b2ef 403d 630e 23bc 66e8 983d 8169 f73e
00000210: 852b c13e b013 d73e 2871 043f e404 4e3e
00000220: 0e93 86bd b356 33bd 2145 5abe cd41 62be
00000230: 45e6 82bd a901 db3d 9f55 983e e9f8 c53d
00000240: ab8c 983e 4ab1 f43d 1fca 033e 7601 0b3e
00000250: bd85 733d e37e 253e 0e6f 073e f432 ba3e
00000260: baaf a03e 7058 bc3e 6861 9b3e f3db 0e3e
00000270: bd1e 223e a457 663e 896d 683e 1a0e eb3d
00000280: ed32 c93d 7d32 1c3e 74b7 0b3e a3ed d33d
00000290: 05ce c93d f965 64be 0cff abbe a63c d1be
000002a0: ea1a b9be 5762 75be 248e 06be 7c65 74be
000002b0: deca 2ebe 1f35 2ebe 4503 14be 3c20 a13c
000002c0: 07b6 8a3e 7ec7 573e 632e 3fbe 183c 013d
000002d0: dff5 92be 0461 0dbf 3fad 97be 9b82 36be
000002e0: b712 13bf 34a7 f73d e465 c93e fb24 a93e
000002f0: f2b3 fe3e b001 2e3f 2ef7 6a3d 7716 85be
00000300: 3e3f 96be d55c 313f 5ffa 803e a8d5 96be
00000310: 8cb9 21be 6be3 8dbb 99a7 3cbd 6e7d b73d
0.22714299 0.20568202 0.33197725 0.5917795 -0.06455628 -0.26459518 -0.11617863 -0.015820947
0.1765298 -0.009649637 -0.2692866 -0.28830478 -0.088603646 -0.044737075 -0.4217849 -0.08652909
-0.11783932 -0.38334444 -0.05412844 0.0054410407 0.34159413 -0.36443767 -0.12057938 -0.059740946
-0.24867973 -0.46821707 -0.066570885 -0.113975145 -0.14602986 -0.5625786 -0.72711265 -0.40265372
-0.014883476 -0.23934785 -0.10570011 -0.5061724 0.06837318 -0.2988754 0.013866371 -0.070104465
-0.12891759 -0.5082888 0.4454142 -0.19984145 -0.36896953 -0.35663223 0.2039646 0.31949
0.24029036 -0.12788591 -0.057255022 -0.480513 -0.16174272 -0.46228483 -0.16647519 -0.058432546
0.50654733 -0.6177302 -0.5433888 0.24706767 0.07203533 -0.10394504 -0.32446885 -0.10703247
-0.3005159 -0.008551236 0.23892833 -0.05459675 -0.36117312 0.31606525 0.5656171 -0.10122948
-0.304568 -0.41478682 -0.20613854 0.09764667 0.31670386 0.22493272 -0.18450898 0.2984223
0.28256547 -0.14292084 -0.03625333 -0.4421223 -0.15437897 0.24935943 -0.20798828 0.51212436
-0.94159937 -0.19434552 -0.088367954 0.1544893 -0.16118923 -0.321768 0.11338746 -0.09709316
0.10086158 -0.15817359 -0.4195815 -0.055663224 -0.03653758 -0.5658192 0.22378471 0.18519253
-0.3382174 0.17972499 -0.34161603 -0.46174514 0.15872185 -0.5844684 0.06854898 -0.3713027
-0.3383014 -0.12148957 -0.14199531 -0.20466681 -0.5928203 -0.16526952 0.11165213 0.19184949
-0.379721 -0.55402094 -0.15695003 0.13732287 -0.035597518 0.2001328 0.039299823 0.2469637
0.04710359 -0.0099521605 0.074662015 0.4832268 0.37728515 0.42007208 0.5173516 0.20119053
-0.06571017 -0.043783855 -0.21315433 -0.22095414 -0.06391577 0.10693676 0.29752824 0.096666165
0.2979482 0.11947878 0.12870072 0.13574776 0.059453715 0.16161685 0.13225958 0.36367
0.3138407 0.36786222 0.30347753 0.13951091 0.15832038 0.2249437 0.22698034 0.11477299
0.098241664 0.15253635 0.136442 0.1034806 0.09853748 -0.22304524 -0.33593023 -0.40866584
-0.36153346 -0.23963295 -0.1314016 -0.23866838 -0.17069575 -0.17012452 -0.14454372 0.01966869
0.27092 0.21072194 -0.18670039 0.03155145 -0.2870321 -0.5522616 -0.29624364 -0.1782326
-0.5745043 0.12092438 0.3933555 0.33036026 0.49746662 0.67971325 0.057364635 -0.25993702
-0.29345125 0.69282275 0.25191018 -0.29459882 -0.15793437 -0.004330089 -0.04605827 0.08959471

conv1.bias f4 [8]
00000000: a5ad 92bc 88bf 2cbd 8c01 a7bd c9c0 d33d
00000010: e23f 0cbd 0bc5 143e 3623 c43b fc15 b4bc
-0.017905066 -0.042174846 -0.08154592 0.10339505 -0.03424061 0.14528291 0.005985643 -0.02198314

bn1.weight f4 [8]
00000000: 8b19 7b3f f230 3e3f fde7 4f3f 0d6e 543f
00000010: 1e37 6b3f 3b22 933f 1732 993f 64c6 3a3f
0.9808585 0.74293435 0.8121336 0.82980424 0.9188098 1.1494821 1.1968411 0.7295897

bn1.bias f4 [8]
00000000: 08e3 59be 8f96 893e 5d6f a83d 88f3 2dbe
00000010: 677c 543c e6b5 1dbe d990 3bbe fb5c a8be
-0.21278012 0.2687268 0.08224366 -0.16987431 0.012969113 -0.1540142 -0.18316974 -0.32883438

bn1.running_mean f4 [8]
00000000: 3b0e 33bd 1343 96be 4f3e bebe c071 44bd
00000010: bbc0 81be 95e4 c03e 74b4 633d 4cfc 1c3d
-0.043714743 -0.2934805 -0.37156913 -0.047960043 -0.25342354 0.37674394 0.055592015 0.038326547

bn1.running_var f4 [8]
00000000: b200 c13f 8d69 5a41 d7f9 1e41 0f77 4e40
00000010: 8d12 5841 2eae 0e41 5ed0 ae3f bf4e 8d3f
1.5078337 13.650769 9.935996 3.2260168 13.504529 8.917524 1.3657339 1.1039656

conv2.weight f4 [16, 8, 3, 3]
00000000: 80fa 343e 7155 db3e ba40 7e3e a27c 02bd
00000010: 7b31 a63d fb70 8d3c a69f 073e ea11 0e3d
00000020: c1c1 f63e 79e2 14bd 3c85 dcbd 10d2 e63d
00000030: acc7 f7bd 6c72 9abd 8ce0 6e3c b4d4 8abe
00000040: c8c6 01be 2ffb 6d3e 712e d53b ded3 403e
00000050: 3196 c83d 6316 cd3c 6daf 53bd 104e 8f3e
00000060: a06e 06be bcc6 2b3d e6e0 3c3d 7c12 0abe
00000070: 5f96 5cbe 21a0 40be fd5f 5ebc f8d1 d9be
00000080: cac5 cc3d 52e4 dc3d eb81 50be 0711 b8be
00000090: 4983 d8bc 879b b0be 7659 e8bd 0546 54bd
000000a0: 4602 cc3c b9a2 823c 4e92 243d 6c3a 4a3d
000000b0: fcc0 1c3c 55ee 73bd 6f78 cdbd 77c9 84be
000000c0: 91d4 43bd 3d85 363e d7cf ffbe 0578 9e3e
000000d0: 3556 443e d47a 16bd a9f7 4ebe 2687 27be
000000e0: d961 18be 3ccf 123e 1a43 66be 3acc 8bbe
000000f0: 77d9 4a3e 2f11 613e 5041 bf3d ea3d 30be
00000100: 5a13 66bd 6018 f33d c32b c23d 6dc0 1dbe
00000110: f772 69bd 1eaf 91bd 7a38 bebe 2fba 80bc
00000120: adca 203d b0fa 9d3e a374 6e3e 580c 313e
00000130: f309 a93e 3d01 9b3e 28a3 d93d b0ab cfbd
00000140: d52a 05bd 08c4 863e aad8 9d3d 2fa9 6fbe
00000150: fb02 d53e 7cf2 903c a5ee 2ebd 43cf bbbd
00000160: 36f4 3abc 5926 203e 1ce6 88bd a0da 1d3e
00000170: d9bc 483e 8957 793e 7de7 fcbc c76b fd3d
00000180: b520 d43c b54a c7bd 2182 f53d 230a 7cbc
00000190: 0056 9c3e 78b2 e5bd 44cd d93d c0ae 2e3e
000001a0: 9d00 db3e d5ba 3d3e 84c3 623e 32f9 aa3e
000001b0: 933a 3b3e f5e5 aebe 579a 313d 349a 083e
000001c0: 7484 bdbd 00e4 46bd 4004 87bd 392b 3e3e
000001d0: 4c4e 94be ce86 eebe b92d 283e b6fe 13be
000001e0: e913 06be 5f95 5cbd a02f cebd a761 a3be
000001f0: 5b23 f03c 7a25 10bf e9d8 903e bfc9 d73d
00000200: e0a4 843e 2ab8 143e 05d3 95bd 21da 203e
00000210: 7934 713d 00c3 a1bd 5991 16be a237 19be
00000220: b137 8a3d ad05 1a3e 4e0d 803d c868 623e
00000230: d2c4 543c 1fff ae3d bd30 533d 5372 03be
00000240: ee61 72bd 3e4a 91be 03e4 9fbe 4fd9 213e
00000250: d88a 39be 78ac d5be d05b 8d3e 4f23 443e
00000260: 87ef 6ebe 24f0 403d 4866 b53e 7556 033e
00000270: f24d 3fbd 1a7a a53e 3fec 1d3d 4816 083e
00000280: 9d46 bc3d 384c 8abd eefd 51bc 34a8 cabc
00000290: c86c e8bc c382 703e 9382 7bbd aa0a 203d
000002a0: 6b81 183e 65dc 703d 3cf0 47be 59e4 0ebe
000002b0: 15ae 01be e95b f2bc 2459 2dbd 36b4 8e3b
000002c0: 5136 9b3d a9fe 67bd 10f0 433d 9a82 00be
000002d0: 72aa 74bd 301f 063e 4a05 b2bc 35af f63d
000002e0: 5013 613e 0008 22bd 1891 acbe 0e85 2d3e
000002f0: 2304 2d3d 3237 8cbd 5b55 54bc 3f6e 183d
00000300: 9068 cd3e 3e56 bc3c 4b9a 203e a1ae a43e
00000310: 8490 7e3d a83d a93e 4318 8f3e 01a3 093d
00000320: 992c a13e c5ac 00bf 689c 59be 7473 01bf
00000330: 988f 2d3c e7d3 cbbc 3788 613d d386 613e
00000340: 789f 6f3e 3b47 083e ffe7 46bd 3b93 56bc
00000350: 4c64 653d b0a0 aabd eaf8 6abd 56b6 7fbc
00000360: bab0 d23c 83c6 08bd d5e8 563e 32a3 33bd
00000370: 9d0a 2cbd 9d0d debd 93b5 5cbe 23b0 0fbe
00000380: 067c 54be 8551 943d fda5 033d e6f7 a3bd
00000390: 222a 513c eb13 2dbe d8d8 12bc b3d7 34bd
000003a0: 7a7e 933e e070 bf3c e741 18be aada 22be
000003b0: a1b1 02bd ae9e 62be 5382 0abc b525 993d
000003c0: d041 80be 3fb7 60bd 896b cebe 0954 62bd
000003d0: ee68 3d3d c3b4 0bbe ff06 09bd 0c1e 343e
000003e0: d8f2 b0bd db18 a73b 8da7 d9bc 5483 c23b
000003f0: 26be c1be fdd3 82be c574 23bd 45f8 38be
0.17673683 0.42838624 0.24829379 -0.03185714 0.081149064 0.017265787 0.13244495 0.034685053
0.48194697 -0.036348794 -0.107676 0.11270535 -0.12098631 -0.075413555 0.014579903 -0.27115405
-0.12673485 0.2324035 0.0065057804 0.18830821 0.09794272 0.025035089 -0.05168097 0.27989244
-0.13128138 0.041937575 0.046112917 -0.13483614 -0.21541737 -0.18811084 -0.01357269 -0.42543006
0.09998663 0.10785736 -0.2036206 -0.3595049 -0.02642979 -0.34493658 -0.11345188 -0.05182459
0.024903428 0.015946733 0.04017859 0.04937212 0.009567495 -0.059553463 -0.100327365 -0.25934955
-0.04781014 0.17824264 -0.49963257 0.30950943 0.1917351 -0.03673823 -0.20211662 -0.16360149
-0.14881076 0.14336866 -0.22486535 -0.2730425 0.19809519 0.21979211 0.09338629 -0.17211118
-0.0561708 0.118698835 0.09481003 -0.15405436 -0.056994405 -0.07113479 -0.37152463 -0.01571378
0.039255787 0.30855322 0.23286681 0.17289865 0.33015403 0.30274382 0.10626823 -0.10140169
-0.03251155 0.26321435 0.07707341 -0.23404382 0.41603836 0.01769375 -0.042708058 -0.091703914
-0.0114107635 0.15639628 -0.06684515 0.1541543 0.1960329 0.24349798 -0.030872101 0.123740725
0.025894502 -0.09731046 0.11987711 -0.015383276 0.30534363 -0.11215681 0.106348544 0.1705885
0.42773905 0.18528302 0.22144896 0.33393246 0.18284063 -0.34159818 0.04336008 0.13340074
-0.09253779 -0.04855728 -0.065926075 0.18571176 -0.28965986 -0.46587223 0.16423692 -0.14452633
-0.13093533 -0.05385339 -0.100676775 -0.3191044 0.029313734 -0.56307185 0.2829049 0.10536527
0.2590704 0.14523378 -0.073156394 0.1570821 0.058887932 -0.078985214 -0.14703883 -0.14962628
0.067489035 0.15041228 0.06252538 0.22110283 0.012986379 0.08544754 0.051560152 -0.1283658
-0.059175424 -0.28376955 -0.31228647 0.15805553 -0.18119371 -0.41733146 0.2760911 0.19154094
-0.2333356 0.047104016 0.35429597 0.1282595 -0.046705194 0.3231972 0.03855538 0.1328975
0.09193156 -0.06752819 -0.012816889 -0.024738409 -0.028372183 0.23487382 -0.061403822 0.03907267
0.14893119 0.058803935 -0.19525236 -0.13954295 -0.12664063 -0.029584842 -0.04232134 0.004354979
0.075787194 -0.056639347 0.047836363 -0.1254982 -0.05973286 0.13097835 -0.021731038 0.12045137
0.21980023 -0.03955841 -0.33704448 0.16945288 0.042240273 -0.06846465 -0.012959803 0.037214514
0.40118837 0.022990342 0.15683858 0.3216448 0.06214954 0.33054852 0.27948198 0.03360272
0.31479338 -0.50263625 -0.2125107 -0.5056679 0.010593317 -0.024881316 0.055061545 0.22024088
0.23400676 0.13308422 -0.048561092 -0.013096626 0.056003854 -0.0833143 -0.05736629 -0.015607437
0.025719035 -0.03339244 0.20987256 -0.043856807 -0.04200231 -0.1084244 -0.2155364 -0.14032035
-0.20750436 0.07242111 0.03214072 -0.08006267 0.012766393 -0.1690213 -0.008962832 -0.04415102
0.2880743 0.023369253 -0.1486889 -0.15903726 -0.03190768 -0.22130844 -0.008453923 0.07477895
-0.2505021 -0.054862257 -0.40316418 -0.055255923 0.046242647 -0.13643174 -0.033453938 0.17589587
-0.08640069 0.0050993985 -0.026569152 0.0059360657 -0.37840384 -0.2555236 -0.039906282 -0.18063457

conv2.bias f4 [16]
00000000: a9d9 debc 6052 3ebd 64ea 4cbd 703f 20bd
00000010: a13f bc3c 6eae 843d da5f dabd cf5b 883d
00000020: 0015 833a 91d9 88bd f252 bdbd 7fed 2cbe
00000030: 0002 703d 578b 54be 60d1 903c 6f2f dc3d
-0.027203398 -0.046465278 -0.05002822 -0.039123 0.02297956 0.06478582 -0.106628135 0.06658136
0.0010000765 -0.066821225 -0.09244336 -0.16887473 0.058595657 -0.20756279 0.017677963 0.10751235

bn2.weight f4 [16]
00000000: 51d0 5b3f 9515 873f 1204 7a3f c803 823f
00000010: fae1 643f 2817 9d3f e9a3 943f 2b54 403f
00000020: f950 5a3f 585d 6f3f 8114 8c3f e36e 723f
00000030: 3c13 793f c3a1 723f 0323 6e3f d751 683f
0.8586474 1.0553461 0.9766246 1.0157404 0.8940731 1.2272692 1.1612521 0.7512843
0.85279804 0.93501806 1.0943757 0.9470045 0.97294974 0.9477808 0.93022174 0.9074988

bn2.bias f4 [16]
00000000: 3b87 673c e7db 6dbe 20e8 75be 86bf d83d
00000010: 79ed 95be 773c 97be 5a7b 01bf a8d8 96bc
00000020: 6792 11be 963b ddbd ae9f bfbe a558 f93d
00000030: 665f 863d 3565 44be 3007 a0be 9bfe 4cbe
0.014131363 -0.23228417 -0.2401433 0.10583405 -0.2928274 -0.2953832 -0.50578845 -0.018413857
-0.14216004 -0.10802381 -0.37426513 0.12175111 0.065611646 -0.19179232 -0.31255484 -0.20019

bn2.running_mean f4 [16]
00000000: 4784 b6be 6e8b 753e 4636 133f 5915 67bf
00000010: 06dc ce3e 2c30 7cbd 214b b83f 289a debe
00000020: 2090 fe3e 5d0d f2be 6ee3 953f 3806 23bf
00000030: 7581 993e 8135 3fbf df0a 14bd 0538 ef3e
-0.35647795 0.2397897 0.5750469 -0.9026695 0.4040224 -0.061569378 1.4397928 -0.43476987
0.49719334 -0.4727582 1.1710031 -0.63681364 0.2998158 -0.74691015 -0.03614318 0.46722427

bn2.running_var f4 [16]
00000000: 157f 8a3f d429 a63f 5031 3c3f 18d5 923f
00000010: 2366 cf3e ac50 4f3f 1770 2f3f 4e81 653f
00000020: d754 5440 d50e 913f b7a4 bc3f 913c 2f40
00000030: 7b7f 2c40 b1b0 c73f 22db 6f3e 1591 c93e
1.0820032 1.2981515 0.73512745 1.1471281 0.40507612 0.8098247 0.6853041 0.8965043
3.3176782 1.1332651 1.4737767 2.7380717 2.6952808 1.5600797 0.23423436 0.393685

conv3.weight f4 [32, 16, 3, 3]
00000000: 0daa 013e 6f34 923e 65b5 a13e 60b1 913d
00000010: e7f3 463e eb5a d2bb e45e 503d 9bdb 91bd
00000020: 14d7 8dbb 3c1a c8bd e260 efbd c49a 69be
00000030: 302e 13bd 5246 55bb 049c 6b3d 0735 60be
00000040: e3d0 77be 5417 96be c084 8ebe 09c1 bfbd
00000050: 9a93 22be 6c87 043e 955c 6fbd 0917 ce3d
00000060: 3eba 813c f610 503e a2be d33d b209 273e
00000070: cbfa 5abe 04b5 c6bd e6c1 493d c6aa 243d
00000080: 5803 4f3e 2e90 b9bd 3511 b0bd f38e c8bc
00000090: 0e1c 25be 39b1 18be 5c7a 08bd 9c3a 6bbe
000000a0: 844b 23be 7ce2 24be 7239 903d 16cc 723d
000000b0: b659 a0bd 90a6 9bbe ae89 a9be 7c3c 36be
000000c0: 9729 44bc c7bd c73d 32dc 2c3e 81f6 6d3d
000000d0: c01b fd3d 9a2d a63e 7f13 893d 6f97 7bbd
000000e0: a311 db3b 3650 f7bd 39dc 4b3c 1287 f93c
000000f0: 8bf2 253e eb61 21bc ebde 48be f1d6 24be
00000100: f5e2 48be f0fd 7bbe 4c6d 783e 8244 d73d
00000110: a232 6a3b 22a5 843d 470b 323e 09b6 1dbb
00000120: 4d4a f6bc 753d f6bc 72c8 09be d415 5a3c
00000130: d4f1 503e 7a10 0c3e 8c6c 25bd 0663 3cbe
00000140: 7cdb 28bd d399 963d f807 2ebe d41c 16be
00000150: 1b3b 423e 3334 503e a494 7a3d 92c9 96bd
00000160: 8898 913d 5471 3f3d 809e c6bd af78 1c3e
00000170: 08bb 8bbd 3e24 093d 3d82 773e 377e 5d3e
00000180: 9ee6 933c ec59 8abd 2bde 513c 1d3a c5bd
00000190: 6517 90be 7e10 9dbe c039 8f3d d2d5 d1bc
000001a0: cf73 2b3e 20da 273d 4e08 a3bd a96b 72bc
000001b0: 404c a23d 5259 0f3c fa80 11bc 988a edbd
000001c0: 8e69 5cbe 2965 75bd bbc2 163e d994 553c
000001d0: 8859 693d 9cc0 1c3e ae23 8bbc 9483 9ebd
000001e0: 3344 76bd 7c70 c7bd 0486 a0bc ce90 ab3d
000001f0: dc9c cabb 02e1 b43c 4038 05be a0c8 b6be
00000200: cf58 a2be 8c3f 393e b858 6f3e e250 813e
00000210: bf71 4ebd 4395 9dbd df11 b23d 293e 133d
00000220: 3af1 2d3c 00bc 003e 91ca 4dbe 52ee 42be
00000230: 74d2 fabe 640e 47be 7992 4cbe 60e1 cabd
00000240: b618 0c3e 48f1 e4bc b939 3ebe c826 20be
00000250: 7323 15be 55b6 1ebc 26a8 b7bc 6f5c 9fbd
00000260: b6fe 2cbe 7442 1c3d 6e5f 37be c0d6 febd
00000270: 50e0 4c3d 107e 81bd 23f2 e7bd 2b51 143e
00000280: 08e3 0f3e c732 93bc 4ac7 193e 6b68 a03c
00000290: 06ff e23d b897 02be ad4e e1be 667d c5be
000002a0: cae1 bbbd bd70 1b3e ea78 1abe dc98 45be
000002b0: 5d92 d6bd 704b 4fbd 4d0b 83bd 6494 40be
000002c0: 5d8f bdbe e913 59be 06a7 87be 1431 b4bc
000002d0: e29c 7abd e4b7 59bd d17d 6fbd d260 013d
000002e0: f4ec 843d 971f e43c 6f62 cabc 8ebd 8a3d
000002f0: ed00 1cbd ca13 cf3b 4e61 06bd 9d95 8b3d
00000300: fb83 843e 0557 883e 9413 b53c 62fb 89bd
00000310: 3442 11be ff7e 403b ea87 a7bd b7be 11bd
00000320: a57b a83d aee2 453e 2442 b33e 0126 bc3e
00000330: c432 abbd cdd2 febd 6421 24be 8963 f7bc
00000340: a726 913d 8346 623c b04e f93d 45de 12be
00000350: b915 a6bd 7176 60bc 570a 9a3d 11bb 973d
00000360: f073 87bd 622b 8c3d c895 27bd 77fa f8bb
00000370: 6ff3 2ebe 0790 15bd 0481 89bd 43b7 95be
00000380: cf95 053e 1653 79bc 9ed3 c3bd 0faa 053e
00000390: 01ab 013e 0d7c f23d 6d58 1a3e fd68 f53d
000003a0: eee8 30bd 382e fa3c 368d 22be 0639 0abe
000003b0: 66cf f7bd cac7 babe 425c 11be b5b4 263e
000003c0: 2e6b 5bbe 73f4 9abe b41c 94be 9253 e1bd
000003d0: 6c91 bf3d 1883 37bd 53ea 37bd f174 12bd
000003e0: 8a2c 40be 66d2 0fbd b696 afbd 7a32 f23d
000003f0: 0348 a6bd 22a1 aa3d cc0e 453e 0e49 c6bd
0.12662525 0.2855563 0.31583706 0.0711391 0.19428979 -0.0064195297 0.050871745 -0.071219645
-0.004328618 -0.09770629 -0.11688401 -0.22812945 -0.03593272 -0.0032543135 0.057521835 -0.21895228
-0.24200778 -0.29314673 -0.27835655 -0.093629904 -0.15876618 0.12942284 -0.058437902 0.10062987
0.015835878 0.2031897 0.10339095 0.16312292 -0.21384732 -0.09702495 0.04925718 0.040201925
0.2021612 -0.09060703 -0.08597032 -0.024482226 -0.16123983 -0.14911355 -0.033319816 -0.22971576
-0.15946776 -0.16102022 0.07042207 0.059276663 -0.07829611 -0.30400515 -0.33112854 -0.1779651
-0.011972806 0.09752994 0.16880873 0.058096413 0.123588085 0.32456666 0.06693172 -0.061423715
0.006685452 -0.12075846 0.012442642 0.030459914 0.16205804 -0.009850006 -0.19616286 -0.16097619
-0.19617827 -0.24608588 0.24260443 0.10511114 0.0035735746 0.06476809 0.17387114 -0.00240648
-0.030064726 -0.030058602 -0.1345537 0.013310868 0.2040475 0.1367816 -0.04038672 -0.1839715
-0.04122494 0.073535584 -0.16995227 -0.14659435 0.1896786 0.20332412 0.06117691 -0.07362665
0.07109171 0.046738937 -0.096982 0.15280412 -0.06822783 0.03348183 0.24170776 0.21630178
0.018054303 -0.067554325 0.012809317 -0.09630225 -0.2814285 -0.30676645 0.06993437 -0.025614653
0.16743396 0.040979505 -0.07960568 -0.014796176 0.079247 0.008749323 -0.008880848 -0.115987
-0.21524641 -0.059910927 0.14722721 0.013035976 0.05697015 0.1530785 -0.016984787 -0.0773994
-0.060123634 -0.097382516 -0.019595154 0.08377229 -0.00618325 0.022079948 -0.13009739 -0.3569994
-0.3170838 0.18090647 0.23373687 0.2525702 -0.050401445 -0.07694485 0.08694815 0.035947952
0.010616595 0.12571716 -0.20096804 -0.19036224 -0.48988688 -0.19439083 -0.1997775 -0.09906268
0.13681301 -0.027947083 -0.18576707 -0.15639794 -0.14564304 -0.009687026 -0.022419047 -0.07781302
-0.1689404 0.038149312 -0.17907497 -0.12443304 0.05001861 -0.06322873 -0.11325481 0.14484088
0.1405145 -0.017968548 0.15017429 0.01958104 0.11083798 -0.12753189 -0.44005337 -0.38572234
-0.09173925 0.15179725 -0.15085188 -0.19296592 -0.10477135 -0.050609052 -0.0639864 -0.18806607
-0.3702344 -0.21199001 -0.26494616 -0.021996059 -0.06118477 -0.053153887 -0.058469597 0.031586476
0.06490508 0.027847094 -0.02470514 0.06774436 -0.03808682 0.0063194977 -0.03280764 0.06815646
0.25881943 0.2662889 0.022104062 -0.067374006 -0.1418541 0.002937257 -0.081802204 -0.03558227
0.08226708 0.19324753 0.350114 0.36747745 -0.08359292 -0.12442551 -0.16028363 -0.03019883
0.070874505 0.013810757 0.121732116 -0.14342602 -0.08109612 -0.013700114 0.075215034 0.07408727
-0.0661391 0.06844212 -0.040914327 -0.007598217 -0.1708505 -0.03651431 -0.06714061 -0.2924138
0.13045429 -0.015217563 -0.09561847 0.13053153 0.12662889 0.11840067 0.15072794 0.119829156
-0.04319089 0.030539617 -0.1587418 -0.13498315 -0.12100105 -0.36480552 -0.1419535 0.16279872
-0.21427605 -0.30264625 -0.2892815 -0.11002268 0.09353909 -0.044802755 -0.044901203 -0.035756055
-0.1876699 -0.03511276 -0.08573668 0.11826034 -0.08119204 0.08331515 0.19243926 -0.09681903

conv3.bias f4 [32]
00000000: 20cb b4bd db08 8abd 9b55 2c3d a59d ea3c
00000010: 246b 14be 2397 03bd 5b04 1dbd a273 2a3d
00000020: c203 853d 3618 923d bdd5 7abd 7d4e c13d
00000030: e21a 3a3d 9eef d13d 21ad c1bd 4341 633d
00000040: f3c5 2e3c dc7b 843d aa3d ca3c cb35 29be
00000050: 93a0 e1bd 3cbf 65bd 5fa8 953c b051 11be
00000060: 86ae 23be f07b 33bd b4cb 4bbd 88c4 d7bc
00000070: 6282 6b3d 7656 2dbe f4cb 543d 62cd 9a3b
-0.088278055 -0.0673997 0.042073827 0.028639624 -0.14493996 -0.032126557 -0.03833423 0.041614182
0.06494857 0.07133524 -0.061238993 0.094387986 0.045435794 0.102507815 -0.0945685 0.05548216
0.010667312 0.06468937 0.024687607 -0.16524427 -0.11016955 -0.05609058 0.018268762 -0.14191318
-0.15984544 -0.043819368 -0.049754813 -0.02633883 0.05749739 -0.16927513 0.051952317 0.0047241906

bn3.weight f4 [32]
00000000: 6d04 673f 30bf 923f 9f4a 7d3f 213b 833f
00000010: 5774 833f 6ab2 973f 1850 883f 04e9 453f
00000020: 6e48 6e3f 33f7 6d3f 83ed 873f 8156 6d3f
00000030: 7e0e 403f 40a6 823f c9e6 563f 4ea1 6d3f
00000040: 0a17 723f 2a10 773f d62e 603f 7d28 8e3f
00000050: d1e5 8b3f ec50 8e3f acbd 7b3f 9325 853f
00000060: 862b 673f c7c0 403f 66cc 733f e91c 643f
00000070: ee4b 5c3f 8c12 803f 9724 843f 788e 863f
0.9024113 1.1464596 0.9894199 1.025242 1.0269879 1.1851323 1.0649443 0.7730868
0.9307927 0.9295532 1.0619358 0.9271012 0.75022113 1.0206985 0.839459 0.92824256
0.94566405 0.9650904 0.87571466 1.1106106 1.0929509 1.1118445 0.9833629 1.0402092
0.90300786 0.75294155 0.9523376 0.89106613 0.8605336 1.000566 1.0323666 1.0512228

bn3.bias f4 [32]
00000000: 8f76 8ebe 04af 85be 318c 86be e187 9dbe
00000010: 139a cebe 3717 a7be d028 9ebe 891e cebe
00000020: fe91 bdbe e4ba d1be f221 9abe 908e 8cbe
00000030: 5c78 86be 5e04 8ebe d358 25be 1f6e 16be
00000040: 6ba3 8dbe b54d c7be ec2c 3bbe 56d9 1abf
00000050: de92 86be 8505 88be 0276 083d cf0a a1be
00000060: 5f64 e0be 3918 f5be de4f 71be 6514 8abe
00000070: 6230 92be 2947 01bf 716d 92be e572 8fbc
-0.27824828 -0.2611009 -0.26278833 -0.3076773 -0.40351924 -0.326349 -0.30890512 -0.4025767
-0.37025446 -0.409629 -0.30104023 -0.27452517 -0.26263702 -0.27737707 -0.16147165 -0.14690445
-0.2766374 -0.38926473 -0.18278855 -0.6048788 -0.26283926 -0.2656671 0.033315666 -0.3145356
-0.43826577 -0.47870043 -0.23565623 -0.26968685 -0.28552538 -0.50499207 -0.28599122 -0.01751084

bn3.running_mean f4 [32]
00000000: 28c1 b1be d0aa 42bf d4a4 293f a622 59bf
00000010: 8a1e 13bf d3d2 62be 0609 0dbf 087c e8be
00000020: 0610 4cbd 574e 00bf e4ae 6cbf a39a 37bf
00000030: 0e41 313f cff2 4abe d2b4 e13c 31ea dabd
00000040: 1583 3bbd bac0 34be 1af2 893f c570 d8be
00000050: ac65 49bf 32d8 42bf f5d3 86bf 2b97 78be
00000060: a8d7 acbe 5cdd 03bf 1be5 9cbd dd87 f0bd
00000070: 6502 6e3f eceb 953e ce48 b13e fc6b 15bf
-0.3471768 -0.7604189 0.6626713 -0.84818494 -0.57468474 -0.22150736 -0.55091894 -0.45407128
-0.04981997 -0.5011954 -0.9245436 -0.7172033 0.6923989 -0.19819187 0.027552042 -0.106892
-0.045779306 -0.17651644 1.0777009 -0.42273536 -0.78670764 -0.7611114 -1.0533434 -0.24276416
-0.33758283 -0.5150964 -0.07660886 -0.11744664 0.92972404 0.29281557 0.34625858 -0.58367896

bn3.running_var f4 [32]
00000000: 760e 6a3f 1027 ec3f ebf5 c23f 0fb3 723f
00000010: b6c7 4e3f 3a63 1240 27a9 1b40 c6ca e33e
00000020: 9bfa 833f 71cb 813f 9225 1640 5255 7a3f
00000030: 0145 1c3f 5acd 0140 b1c8 4b40 e09e 4040
00000040: de22 783f 3911 4d3f ed3b b43f 15d8 ab3f
00000050: 2e9d 3e40 78c1 c43f cc15 3f40 a909 5d3f
00000060: 3e52 083f b68a 913f 955f c33f dc8f d33f
00000070: ac26 9c3f 57fe 723f 15e9 af3f 83df 4840
0.91428316 1.8449421 1.5231298 0.9480447 0.80773485 2.2873063 2.4321992 0.4449064
1.0310854 1.014021 2.346043 0.9778644 0.6104279 2.0281587 3.1841242 3.009697
0.96928203 0.80104405 1.4080788 1.3425318 2.9783435 1.5371542 2.9857054 0.86342865
0.5325049 1.1370456 1.5263544 1.6528277 1.2199302 0.9491934 1.3743006 3.138642

conv4.weight f4 [64, 32, 3, 3]
00000000: 4e4c fabc ada7 b4bc fcf0 873d 5452 ab3d
00000010: bd5a 17bd 1025 8dbb a9cb 0a3e d1f9 8c3d
00000020: 37bc 1b3e 177f d2bd 7882 14be f322 ddbc
00000030: 4b32 f93d 186e 003e 49e5 803e f68f a7bc
00000040: 60b9 2dbe a8c7 e1bd 6748 50bc c889 8b3d
00000050: e08d a83d c9a1 a8bd fe09 ecbc 6540 43bd
00000060: b4a3 ef3c ba4b 113d 8fcc 333e f495 e9bd
00000070: 8209 adbd a4ef 6dbe 8c0c df3d 44ea 283d
00000080: 2dd6 0e3e ea98 85bd 8a18 8abc 5fe4 09be
00000090: 9d37 75be 6e93 f6bd fdc5 1cbe 13a7 f63d
000000a0: 311e 743d 03a8 a33c eca9 e5bd 6de5 4dbd
000000b0: 3c83 b0bd f023 ea3d 13a5 2d3e 1b89 8c3e
000000c0: c6e8 ae3d ee9e 513e 0188 3e3e d39b bd3d
000000d0: 3dda 453e af4b 833e b152 7b3d 1cdb 913d
000000e0: b815 da3d 33d2 413e 94b2 8b3d 96aa 5b3e
000000f0: 77ea 2a3d 603b 0b3e eb31 0b3e f6cd da3d
00000100: 967a f63d f056 4d3e 65e3 d4bd 38ec b3bd
00000110: 1af7 01be b3ca 933c 55cb 2bbc cdbe b13d
00000120: daae 0b3d 8ef6 1ebd 6cd7 9c3d 732a c4bc
00000130: fdf1 88bd 02f3 013d ec7c f9bd 2dc7 01be
00000140: ead2 00be cd7b 8dbc 6f54 9ebd f221 3cbe
00000150: 9f71 f83d 61b5 193e 85c3 093e c068 993c
00000160: dbd5 16be 815c edbd 1899 213e 9c3f e43d
00000170: d96c 673e 8469 b13d c3ee f93d 678f 1b3e
00000180: 4e4a d43d 4a1b 853e d814 343e a176 dabc
00000190: efdb b5bd cbbe 2ebd 01da 0abc 1c1a 113e
000001a0: ca06 0bbd bee1 f63d e462 2a3b f26d 8a3d
000001b0: 28a2 143c 9e15 003c af87 9a3b 3ba5 f3bd
000001c0: 34f5 22be cece 09be 4b00 39bd 76ce cfbd
000001d0: e53c ebbd eb0b dcbc b7bc 8ebd a35c 89bd
000001e0: c695 debc acc1 30bc eb79 363d 7a0f fa3d
000001f0: a378 f9ba 05ad 913d ff75 29be 9c6d debd
00000200: 6a5c 42be 762d 8a3c e1c0 923d 400b f83d
00000210: df31 fabd daca 80bd 6d04 0cbe 6324 523c
00000220: e815 20bd d01d 25bb e056 e63b 9347 39bd
00000230: 87cc b5bd 2c84 b93d 0789 30bd 7314 8cbc
00000240: ae80 62bd 2757 15be 2fa9 e9bd 2a95 05be
00000250: ab72 67bd 406f 92bd a4cd 92bd d54e d2bc
00000260: 30c3 a0bd 2bf1 8bbd 834f b5bd 7cf9 3abe
00000270: 66fa a5bd 3986 a7bc d937 da3d 868e 1b3c
00000280: 38d9 20bc c6e8 00bd 5e71 703d f1f4 1a3d
00000290: 3870 483d 0ac4 63bd 6ae6 dcbd 45bf 253c
000002a0: acc5 cdbb d025 093d bb2a 1cbc 655d d93d
000002b0: 9a52 323d f2f9 2d3e f375 83be 22a6 9dbe
000002c0: 15bb e0be 71c6 c73d d277 033c e7fa 513e
000002d0: 46d0 303e 23ea 3e3e 0826 5d3e 72b4 02be
000002e0: af4e b7bc 8e94 f139 652d 343e 042d e73d
000002f0: 6549 913e 335e ab3d c9b3 163e 0466 e53d
00000300: a08a d1bd b29d 143d d1b7 a3bd 8c14 b13d
00000310: cc9d 443e 3879 103e 0402 4a3e 81a0 583d
00000320: 7067 dd3d 587e a23d 9fdc b73d 2470 3c3e
00000330: 3275 8a3e e918 a63d 98cf 053e be0f b5bd
00000340: 1c11 953c 1f91 0ebe e7c3 b53d d142 fbba
00000350: 8d6b 053e 28d7 84bd 1185 90bd 23aa 2cbe
00000360: 57ea 84bc 95d0 2cbd b8ac d6bc d562 653d
00000370: a48a 383e f216 113e 852e c23b 45c1 52bc
00000380: 4d83 5ebb 4827 10be 3daa 1abe ed2c 0abe
00000390: 5591 a3bc 4f42 10be 3441 b0bd 2520 873a
000003a0: b5a9 973d f17e 1fbd 438c c73d 9d47 b7bc
000003b0: 5e5c d3b8 cf98 83bd f6ec 233d 8e02 19be
000003c0: 8062 5f3d a2c8 4b3d beee 48bd f2d7 e73d
000003d0: 8e85 a73c 3f03 4e3e 56e5 e03d c146 293e
000003e0: 92ab 6e3d 9b07 3c3e a86b 5e3e f2e7 713e
000003f0: 0aa9 31be 96d1 34bd b86b a0bd 305c d6bd
-0.030553963 -0.02205261 0.06637761 0.08365312 -0.03695177 -0.0043073967 0.13554253 0.06883586
0.15208517 -0.10278147 -0.14502895 -0.026994204 0.12167796 0.12541997 0.2517493 -0.020454388
-0.16965246 -0.110244095 -0.012712575 0.06813389 0.082301855 -0.08233983 -0.028813358 -0.047668833
0.029252864 0.03547261 0.17558502 -0.114055544 -0.08449079 -0.23235947 0.10891065 0.041239038
0.13948889 -0.06523307 -0.016857404 -0.13466023 -0.23946996 -0.12039839 -0.15309902 0.12043586
0.059599105 0.019977575 -0.11214051 -0.050267626 -0.08618781 0.11432636 0.16957502 0.27448353
0.08540492 0.20470783 0.18606569 0.09258237 0.19321533 0.2564368 0.061358158 0.0712187
0.10648674 0.18927841 0.068211704 0.21451792 0.04172751 0.13596869 0.13593261 0.10683815
0.120351 0.20052695 -0.103949346 -0.087852895 -0.12691918 0.01804099 -0.01048549 0.086789705
0.0341023 -0.03880935 0.07658276 -0.023946023 -0.066867806 0.03172589 -0.1218203 -0.12673636
-0.12580457 -0.017270947 -0.07730948 -0.18372324 0.121310465 0.15010597 0.13453491 0.018726707
-0.14730017 -0.11589909 0.15781057 0.11144945 0.22600116 0.08662704 0.12203743 0.15191422
0.10365735 0.25997382 0.17586076 -0.026667895 -0.0887984 -0.042662423 -0.008474828 0.14170116
-0.03394202 0.12054776 0.0025998885 0.06759252 0.009071864 0.007817654 0.004715882 -0.118967496
-0.1591385 -0.13457796 -0.045166295 -0.10146801 -0.11486224 -0.026861152 -0.06969588 -0.06707122
-0.027171027 -0.0107883625 0.044549864 0.12209983 -0.0019033145 0.07113079 -0.16548918 -0.1086075
-0.18980566 0.01686738 0.07165695 0.12111521 -0.122165434 -0.06288691 -0.13673563 0.012826058
-0.03908339 -0.0025194772 0.0070293993 -0.045234274 -0.08876901 0.09058413 -0.04309943 -0.017099595
-0.0552985 -0.14584027 -0.11409222 -0.13045183 -0.05650584 -0.071501255 -0.07168129 -0.025672356
-0.07849729 -0.068331085 -0.08853056 -0.18259233 -0.081044 -0.020449745 0.10655183 0.009494429
-0.009817414 -0.03147199 0.058701865 0.03783125 0.048935145 -0.05560688 -0.107861355 0.010116403
-0.006279668 0.033483326 -0.009531672 0.10613517 0.043535806 0.16989878 -0.25675926 -0.30790812
-0.43892732 0.097546466 0.008024173 0.20505868 0.1726695 0.18644004 0.21596539 -0.12764147
-0.022376386 0.00046077784 0.17595442 0.11287883 0.28376308 0.083675765 0.1471702 0.112010986
-0.10231519 0.036283202 -0.079940446 0.08646497 0.1920082 0.14108741 0.19727331 0.052887443
0.10810745 0.079342544 0.08977627 0.18402153 0.27042538 0.0811022 0.13067472 -0.08840893
0.018196635 -0.13922547 0.08875256 -0.0019169693 0.13029309 -0.0648635 -0.070566304 -0.16861777
-0.016225023 -0.042191107 -0.026205406 0.056002457 0.18021637 0.14168909 0.0059259557 -0.012863462
-0.0033952773 -0.14077485 -0.15104003 -0.134937 -0.01996676 -0.14087795 -0.086061865 0.0010309262
0.07405416 -0.03893942 0.0974355 -0.022373015 -0.00010078469 -0.0642563 0.040020905 -0.14942381
0.054537296 0.049751885 -0.049055807 0.11320485 0.020449426 0.20118426 0.10981242 0.16530897
0.05826909 0.18362276 0.21720755 0.23623636 -0.1734964 -0.04414519 -0.07833046 -0.10466802

conv4.bias f4 [64]
00000000: a683 90bd dff4 283d ff90 1a3d 1972 d53c
00000010: 0333 6f3d 5b1d bbbc df0c 483d fafe 82bd
00000020: ac27 2dbc 87ab 173d 7a85 dabb 076b d6bc
00000030: a337 b03d d06c 763d 8f25 40bd c179 8bbd
00000040: d2f0 5a3c b029 f3bc cca3 2c3d 4ff6 32be
00000050: 7d02 48bd 4ce8 3bbe 11a4 eabd 08fa e13d
00000060: 92ca 4f3d ca7d 943d a953 a1bc 59bc 3cba
00000070: ab0d 503c f88d f63d f6de 7a3c 303f e4bd
00000080: a232 293d 81fa 0ebe d41b cb3d 1258 c33b
00000090: e34e adbd 583a e03d 98d9 163d 4a63 63bd
000000a0: 772d 9c3d 3a3a 8dbd 8e15 8e3d 257f 61bd
000000b0: b109 38bd 83a1 b5bd d696 d93c 0628 663c
000000c0: de63 df3d b7bb cb3d ee7b 823c 97e9 073e
000000d0: ae1c 0fbe e37e 61bc dc17 92bb 9bdf 363d
000000e0: d2c7 81bd 39e2 2b3d ee91 003d cced 21bc
000000f0: 5a2c 09bd 2029 5f3d 0094 bbbb a3f7 173e
-0.0705636 0.041249152 0.037735935 0.026055383 0.058398258 -0.022841146 0.0488404 -0.06396289
-0.010568541 0.037028816 -0.0066687437 -0.026174081 0.08604362 0.060162365 -0.04691082 -0.06810332
0.01336308 -0.029682964 0.042148396 -0.17476772 -0.048830498 -0.18350333 -0.114570744 0.11034018
0.050730295 0.07250555 -0.019693213 -0.0007199697 0.012698571 0.12038797 0.015311947 -0.111448646
0.041308053 -0.13962747 0.09917417 0.0059614265 -0.08462312 0.10948628 0.036828607 -0.05551461
0.07625859 -0.068958715 0.06937705 -0.055052895 -0.044931117 -0.088686965 0.026561182 0.014047628
0.1090772 0.09947913 0.015928235 0.13272701 -0.13975784 -0.013763162 -0.0044584107 0.04464684
-0.06336941 0.04196379 0.03138917 -0.009883355 -0.033489563 0.05448258 -0.00572443 0.1484056

bn4.weight f4 [64]
00000000: 3a17 7540 d4f4 7d40 32ba 8b40 5164 6b40
00000010: a813 8940 8efa 2e40 2f80 4240 2019 7440
00000020: 1224 5d40 1d0d 5540 379c 6940 b016 3440
00000030: f4cd 6440 122e 2540 e00c 8a40 5f21 3040
00000040: 6fb8 8740 7be2 4f40 226f 2040 ca4a 8140
00000050: 7a64 5b40 645a 5040 409d 8d40 42f1 8740
00000060: 52cf 1840 e2e2 7040 7970 7940 f1a6 8140
00000070: d4a5 8f40 e193 8140 1ace 7640 dd8e 8e40
00000080: 67af 6440 98e9 7d40 7ae8 3440 80ac 7c40
00000090: cf51 8a40 abe5 8e40 2fd0 5940 e39c 8540
000000a0: 5d71 8a40 a608 6540 13c6 5540 bba1 6b40
000000b0: 5c14 7540 cc0c 3b40 2c2e 8940 01a3 9040
000000c0: 0919 6e40 86ac 7340 1037 7140 8d0c 8740
000000d0: b670 6640 6e49 7440 409d 6f40 00e7 7040
000000e0: c633 5840 99af 7a40 b8b9 4c40 cf39 7240
000000f0: 9276 6840 64a6 7940 1157 9240 9e0f 8540
3.8295426 3.9680681 4.366479 3.6779978 4.2836494 2.7340426 3.0390737 3.8140335
3.4553266 3.3289254 3.6501596 2.8138847 3.5750704 2.580937 4.3140717 2.7520368
4.241264 3.2481983 2.506783 4.0403795 3.4280076 3.255517 4.4254456 4.2482004
2.3876538 3.7638478 3.8974898 4.0516286 4.4889927 4.0493016 3.8563294 4.4549394
3.5732057 3.9673824 2.8266892 3.9480286 4.3224864 4.4655356 3.4033315 4.175401
4.3263383 3.5786529 3.3402145 3.6817462 3.8293676 2.922656 4.286886 4.519898
3.720278 3.807405 3.7689857 4.220282 3.6006293 3.8169818 3.7439728 3.7640991
3.37816 3.9169676 3.1988354 3.7847784 3.632237 3.9007807 4.573128 4.1581564

bn4.bias f4 [64]
00000000: 9aee 0f3d 1f14 9a3d 6279 5abe c4fe 0ebb
00000010: 0fb4 b8be 1a8c 1f3f fa65 473f 225a 8c3e
00000020: 69bb 083f 19dc ba3e 313c 3d3e 32f6 473f
00000030: 7c4d 323f d8e8 5d3f c55f ecbd 8dcc 7a3f
00000040: 15f5 02be c2fb 213f a553 3f3f 44b0 8a3d
00000050: 791e 163e ccb0 5d3f c301 87be 085d 93bc
00000060: a8d2 523f ef54 973d 427e f0bd 15f3 9d3d
00000070: c3d7 f9bb 7f4b 2dbe 046e 3a3c 8c8b 8dbe
00000080: 4d59 c63e 0222 47bc 8f3a 213f 3b28 b6bd
00000090: 456c 25bd 47d7 18be 76fb c53c 5247 ecbd
000000a0: 14cf a53d 2931 433f 4d09 353f e9ed 353e
000000b0: dc6c e2bd 8841 fa3e 7374 c13e c278 603d
000000c0: d855 eb3e 7ff9 083e 580c 003e db39 9abd
000000d0: 6810 d93e 766d 3e3f 613f 6b3c e60d bebd
000000e0: 9ee5 233e 7d61 223e 4c81 253f 9810 e93d
000000f0: 0236 533e 254f 9b3d 5fe6 febc e85c 853d
0.035139658 0.07523369 -0.21335366 -0.0021819333 -0.36074874 0.62323153 0.7788998 0.27412516
0.53410965 0.36496046 0.18479992 0.7811004 0.6964948 0.86683416 -0.11541704 0.9796837
-0.12788804 0.63274777 0.74737006 0.06771901 0.14660062 0.86597896 -0.26368532 -0.017988697
0.82352686 0.07389247 -0.11742832 0.0771238 -0.0076245978 -0.1692333 0.011378769 -0.27645528
0.38740006 -0.012154104 0.6297998 -0.08894392 -0.040386457 -0.14925872 0.024167757 -0.11537041
0.08096138 0.7624689 0.70717317 0.17766537 -0.110559195 0.4887812 0.37784156 0.054802664
0.4596393 0.13376425 0.12504709 -0.07530566 0.4239533 0.74385774 0.014358372 -0.09279995
0.16005561 0.15857501 0.64650416 0.11380118 0.20626071 0.07583455 -0.031115709 0.06511861

bn4.running_mean f4 [64]
00000000: 9a67 2f3e 27b8 a13e ba35 203e 3358 4d3e
00000010: 4d0a 533e 5f9c e8bd 6980 213e acc7 833e
00000020: 33af 3e3d a61f b03d 57c4 06bc 9990 0d3e
00000030: 8b9f 873e ec76 533e 80b4 cd3c 84e8 403e
00000040: a1cb 2b3e 16cf 20bd 4145 273e c686 fbbd
00000050: de1c 993e 8dd6 033d ae1a 02bc 478e 523e
00000060: c6a2 193e 9254 813e b278 363e 0d41 823d
00000070: df95 8f3d 661f 9b3e 5028 173e bd52 71bd
00000080: b247 5d3e 77bb 003e b5ae 7f3e 81de e13d
00000090: 3940 923d da54 873e 5087 463e f588 d43d
000000a0: d65d d23e 0e65 323e 7874 c6bc 8083 8bbc
000000b0: de02 8fbc 2003 5f3d 0180 a83e 0f8d 7d3d
000000c0: 801d 183e 318c 893e ae46 a33e ccee 023d
000000d0: f2fe 65bd 75f2 d03d ec52 883e ad66 813e
000000e0: 94bb 6d3e 54ea be3d 7cca 843d d47d ef3d
000000f0: 8347 3f3e acb7 103e ed4c 8e3d 44a4 923e
0.17129365 0.3158581 0.15645495 0.20053177 0.20609398 -0.113579504 0.15771641 0.25738275
0.0465538 0.085997865 -0.008225522 0.13824691 0.2648891 0.20650834 0.025110483 0.18838698
0.16776897 -0.039259993 0.16335012 -0.12281565 0.29904836 0.032187033 -0.007940931 0.20562087
0.150035 0.25259835 0.17819479 0.06360064 0.070110075 0.30297393 0.14761472 -0.058916796
0.21609381 0.12571512 0.24968989 0.110287674 0.07141156 0.26431924 0.19387555 0.10377685
0.41087216 0.17421362 -0.024225459 -0.017030478 -0.017457422 0.05444634 0.3291016 0.061902102
0.14855003 0.2686477 0.31889862 0.031966016 -0.056151338 0.10202495 0.26625764 0.25273648
0.23216087 0.09322038 0.06483933 0.11693922 0.18679623 0.14132565 0.06948266 0.2864095

bn4.running_var f4 [64]
00000000: 6a0f 9e3e 3412 ce3e 3b69 ad3e a0c8 e13e
00000010: e1a7 533f 4315 8a3e 7a35 953e 6381 893e
00000020: d65f fe3e 06ca c63e ecba 883e 0159 c83e
00000030: 996c 273f a043 973e 6c15 f43e 2b23 a63e
00000040: c40d 283f 358a a53e d208 d23e b9e3 9e3e
00000050: e56b 6b3e 2dd0 ac3e 7a6f da3e 933a 913e
00000060: 26ec 883e 4a12 b43e 3ada 1c3f a252 b53e
00000070: 9685 fd3e 081a dd3e ebf9 ef3e ff05 fa3e
00000080: 1550 833e 0be3 fc3e c21d 853e 0279 503f
00000090: 016f 073f 7014 463f 0a62 7d3e 60e5 273f
000000a0: 4606 cf3e 2875 8d3e 3c9d c53e 9698 cd3e
000000b0: a1c1 ea3e 96a3 9b3e d987 aa3e 23f7 b63e
000000c0: c387 9e3e 7ce2 9a3e d458 c93e a788 ca3e
000000d0: 6986 8f3e 45d3 e23e 8cdf 083f 7430 0a3f
000000e0: e963 863e fe79 b33e 921c c33e e693 823e
000000f0: 35ea 823e a05a a43e 244f 4d3f 2985 bc3e
0.30871135 0.40248263 0.33869347 0.44098377 0.8267804 0.26969346 0.29142362 0.26856527
0.49682492 0.38826007 0.2670511 0.39130405 0.6540008 0.2954378 0.47672594 0.32448706
0.65646005 0.32332006 0.41022354 0.31033114 0.22990377 0.33752576 0.42663175 0.28365
0.26742667 0.35170203 0.6127049 0.35414606 0.4951598 0.43183923 0.4687036 0.488327
0.25647035 0.4939197 0.25999266 0.81434643 0.52903754 0.77374935 0.2474443 0.65584373
0.40434474 0.27628446 0.38596523 0.40155476 0.45850852 0.30398244 0.3330677 0.35735425
0.30962953 0.3025092 0.39325583 0.39557382 0.28032234 0.4430181 0.53466105 0.53980184
0.262481 0.3505401 0.38107735 0.25503463 0.2556931 0.3210039 0.80198884 0.36820343

lin.weight f4 [36, 64]
00000000: f40f 4d3f d12d 1cbf 2adb b4be d1ee 04bf
00000010: f05f f4bd 7bab 373e 6a0c 3f3e 283e 0c3f
00000020: 7d0e e13e 810f 30bf d97d 67bf 433d 563e
00000030: bd95 9e3e d4dd 863d 3657 a8be 50bd 863e
00000040: 2cb1 343e d114 243e 57b8 34bd a26b ef3d
00000050: 5202 bfbe 288e cc3e cbb5 25bf 7e99 fcbe
00000060: 87cf c63c 3cf9 cebd 4af4 7ebf 4bdb 9b3e
00000070: 2706 513e 60af 6ebf 0c4e b63d f13d cebe
00000080: 4126 2ebf 4f15 913e a67d 65be bb23 af3e
00000090: 8f4b 2e3f e989 2d3e 2a67 8dbe 3490 8cbf
000000a0: e4fc cc3e 18df d83e 5bd5 aa3e cb1e ddbe
000000b0: 255e f33d 22c3 123e c906 393e 0757 54bf
000000c0: e554 ddbe 8b9e 8dbe 47b9 99bf 9e11 50bf
000000d0: 263b e63e 6931 0ebe 398d b7be 5a45 2abe
000000e0: d5d5 073e d513 cc3e d96c f23e ac5b e2bf
000000f0: 2a69 153e 1680 50bf d827 1a3e 28d1 d3be
00000100: c334 d53d 68a0 013e 952c 38be 6002 dbbe
00000110: 8c10 febe df70 7ebf 0374 5bbf 6120 023e
00000120: ed4b 36bf 1494 fb3e cee3 403e f9de cabc
00000130: 80f0 53bf d561 07bf 23b5 78be 388a 50bf
00000140: d9af 76be 63aa 4cbf b59d 06be 0e72 5c3e
00000150: ebd1 f93e fef2 6ebf 424c df3e f3cd 24be
00000160: a689 24bf d198 87be c939 093f bb3e 723e
00000170: d9fa a53d 7df8 e63e eef6 1c3f 77be 6fbf
00000180: d8e5 973e 1dc8 58be 75c5 4bbe e75e 11bf
00000190: 0ea0 45bf 1eb2 e63e 1219 72be 4ff8 a73d
000001a0: 681c 52bf 7db2 e5be a1f2 65bf e503 21be
000001b0: 415a 57be f1ea 9dbe 251c 693d c84d 1f3f
000001c0: 041b 8e3d 41a9 73bc 5875 0c3f 5eed 283f
000001d0: 014f 08be 9e16 c43e cee9 2cbe 4af4 76be
000001e0: 63f6 c13e 36c9 88be 6623 51bf 6369 0f3f
000001f0: f378 fa3e c06c 3f3f 98e9 003f e54f f63e
00000200: c9c8 34be fdd1 cc3e 14b4 f3bd 3539 1bbe
00000210: d031 85bf 49fa 9ebe 07f4 e0be 74ee 1ebf
00000220: 2e3d 0bbf ef2e 0f3f d8f5 de3e debd 4f3e
00000230: b89a 14bf 5c7e 17be 6478 2cbf 8620 7b3d
00000240: ff4d abbe acc3 b2be 3e98 cabe 8f91 f73e
00000250: 55d4 18be 8049 dabe a592 69be 89dd 39bf
00000260: 3411 263c 5658 a9bd 1f7d df3e 9bc4 4b3f
00000270: cfb4 a6be bf3c 543e 7818 593e 191f 2dbf
00000280: 9baf 8c3d 65f4 423e 0920 4abf 77a1 a8bf
00000290: f932 5bbe e9b1 dc3e bf41 25be d221 113f
000002a0: dafe 6bbf 8d99 923e 7907 f5be fdd2 3bbe
000002b0: 79fd a4bf d1a3 19bf daec 033c dbde a8bb
000002c0: 5a22 87bd 4715 c4be 7a89 483f ad7c 553f
000002d0: 752d 7cbd 2254 0a3a c35e 1dbe c364 5ebc
000002e0: 65b5 94be 8eb0 e6bd 4658 d7be 031a 1b3e
000002f0: e6fa 093f 5ba5 183f 48b2 bf3e 28eb dc3d
00000300: 8cf2 013d 1683 d8be 351d 86bf 50fe e13d
00000310: a2ec d8bf db80 1c3c 0b6b 9b3e 5dad a0be
00000320: 2095 873e 3a8f 983e 4b53 943d 5420 243e
00000330: 51c0 36be 290b 3abe 5ea5 48bf 781c e33d
00000340: a9d6 6cbf 21e2 2abf d8af 32be 1491 343f
00000350: 5c81 393e c2dc 823e 4c8c c7bd 0e5a 3dbf
00000360: 320f fbbd 87b0 3fbf 6361 0dbe 134a 38bd
00000370: 87d0 50be e02b ff3e 6fab 0a3f 40af d1bf
00000380: 9716 533e 24da ea3d a369 eebe b04d 88bf
00000390: 3b3a 5fbf 8f63 43be 47ef 2dbd a2e9 f93c
000003a0: b0e3 16bd 2904 b43d 673f ed3b 2262 0b3f
000003b0: 8e68 a6bf 8fa4 3dbe 6445 a4be 1024 c83e
000003c0: 1ade 15be 149c 71bf 8e22 a83d a598 363f
000003d0: 1af2 0b3f 0e07 b43e c1b8 5ebf b246 62bf
000003e0: 7f2a 023f d9a5 023f c100 a9be 5ff0 d7bd
000003f0: f9c2 903e 3fa4 1cbd 4db9 383e d0b6 05be
0.8010247 -0.6100741 -0.3532346 -0.51926905 -0.11932361 0.17936508 0.1865708 0.5478234
0.43956366 -0.6877366 -0.90426403 0.20921807 0.30973616 0.06585279 -0.32879037 0.2631631
0.1764571 0.16023566 -0.044121113 0.11690451 -0.37306458 0.39952207 -0.6473052 -0.49335855
0.024268879 -0.101061314 -0.99591506 0.30440745 0.20412503 -0.9323635 0.08901605 -0.40281633
-0.6802712 0.2833657 -0.22411212 0.34206948 0.68084043 0.1694714 -0.2761777 -1.0981507
0.4003669 0.42357707 0.33365902 -0.43187556 0.11883191 0.1433225 0.18068995 -0.82945293
-0.43228832 -0.2766002 -1.2009667 -0.8127688 0.44967002 -0.13886036 -0.35849932 -0.16628018
0.13265164 0.3985888 0.4734867 -1.7684226 0.14590898 -0.81445444 0.15054262 -0.4137051
0.10410454 0.12658846 -0.17985757 -0.4277525 -0.49622 -0.9939098 -0.85723895 0.12707664
-0.71209604 0.49136412 0.188369 -0.024764525 -0.8278885 -0.52883655 -0.24287848 -0.81460905
-0.24090518 -0.7994749 -0.13146098 0.21527883 0.48792967 -0.93339527 0.43612868 -0.16094188
-0.64272535 -0.26483777 0.536038 0.23656742 0.08104486 0.45111457 0.61314285 -0.9365
0.29667544 -0.21170087 -0.19899543 -0.56785434 -0.7719735 0.45057768 -0.23642376 0.08201658
-0.82074594 -0.44862738 -0.8982335 -0.15724142 -0.21030523 -0.3084331 0.056911606 0.6222806
0.069387466 -0.014871896 0.5486655 0.65987194 -0.13311388 0.38298506 -0.16886064 -0.24116626
0.3788329 -0.26716012 -0.8169464 0.5602018 0.48920402 0.74775314 0.50356436 0.4810783
-0.17654718 0.40003958 -0.118995816 -0.15158542 -1.0405827 -0.31050327 -0.43936178 -0.620826
-0.5439023 0.5593099 0.4354694 0.20287272 -0.5804858 -0.14794296 -0.673712 0.061310314
-0.33457944 -0.3491491 -0.39569277 0.4835324 -0.14924748 -0.426342 -0.22809847 -0.7260366
0.0101359375 -0.08268802 0.43650147 0.7959687 -0.3255982 0.20726298 0.2120074 -0.67625576
0.068694316 0.19038542 -0.7895513 -1.3174275 -0.21406163 0.43104485 -0.16138361 0.5669223
-0.9218575 0.28632775 -0.47857264 -0.18342204 -1.2889854 -0.6001559 0.008052075 -0.0051535196
-0.06598349 -0.38297483 0.7833477 0.83393365 -0.06156679 0.0005276819 -0.1536818 -0.013573828
-0.29044643 -0.11264144 -0.42059535 0.15146641 0.53898466 0.5962731 0.37440705 0.1078704
0.03172545 -0.4228751 -1.0477663 0.110348344 -1.6947215 0.009552206 0.30355105 -0.31382266
0.2648096 0.29796773 0.072424494 0.16027957 -0.178468 -0.1816832 -0.7837733 0.11089414
-0.92515045 -0.66751295 -0.17449892 0.7053387 0.18115753 0.2555905 -0.097435564 -0.7396554
-0.12258758 -0.74878734 -0.13806681 -0.044992518 -0.20392047 0.4983816 0.54167837 -1.6381607
0.20614086 0.11467388 -0.4656497 -1.0648708 -0.8719823 -0.19080947 -0.04246452 0.030506913
-0.036838233 0.08789856 0.007240224 0.54446614 -1.3000658 -0.18519805 -0.3208419 0.39090014
-0.14635506 -0.9437878 0.08209716 0.7132667 0.5466629 0.35161632 -0.8700066 -0.8838912
0.50846094 0.51034313 -0.33008388 -0.10543894 0.28273752 -0.038242575 0.18039437 -0.13058019

lin.bias f4 [36]
00000000: bc59 1f3e 9d85 96be 79dc b6bd 393c 8cbd
00000010: c803 863e 6cae 31be ce9a 6a3c 95bf d73d
00000020: 9164 893d 1407 50bc 9714 b0bd 0f66 1bbe
00000030: 4978 69be c128 39be 64fd 933d 5292 4fbd
00000040: 2e05 98bd 9eb4 35be 0ae0 60bd 0c32 143e
00000050: a435 0cbe d419 65bd 64a5 cdbd 205b a43d
00000060: b64d ab3e 0ce9 38bd 29dc 9b3d 44e2 40bd
00000070: 2657 edbd 278a 0c3e 1e50 8f3d 3d4f bcbd
00000080: af53 793c 2db4 7c3d 306a 583e df39 14be
0.15561575 -0.29398814 -0.089287706 -0.06847424 0.2617476 -0.17351693 0.014319135 0.10534588
0.06708635 -0.012697 -0.08597677 -0.15175651 -0.22799791 -0.18081953 0.07226065 -0.05067665
-0.07422863 -0.17744681 -0.05490116 0.14472216 -0.13692337 -0.055932835 -0.100413114 0.08025193
0.33457726 -0.045144126 0.076103516 -0.047090784 -0.11588888 0.13724576 0.06997703 -0.09194801
0.015217706 0.061695267 0.21134257 -0.14475201

conv.0.weight f4 [8, 1, 5, 5]
00000000: 2c98 683e 4f9e 523e ecf8 a93e dc7e 173f
00000010: 1536 84bd 0579 87be 10ef edbd ee9a 81bc
00000020: 3ac4 343e 8319 1ebc efdf 89be af9c 93be
00000030: d475 b5bd 393e 37bd 31f4 d7be 2a36 b1bd
00000040: be55 f1bd b945 c4be c8b5 5dbd c24a b23b
00000050: 6de5 ae3e 9397 babe 52f2 f6bd ecb2 74bd
00000060: e6a5 7ebe 26ba efbe 5156 88bd cd6b e9bd
00000070: da88 15be 2705 10bf 0e24 3abf a128 cebe
00000080: d3d9 73bc 9a17 75be 4d79 d8bd 8494 01bf
00000090: 3d07 8c3d 3206 99be c62f 633c ee92 8fbd
000000a0: f902 04be 371f 02bf 540d e43e 3da3 4cbe
000000b0: 93e9 bcbe 8098 b6be 19dc 503e 3194 a33e
000000c0: ad0e 763e 86f4 02be 3e84 6abd cd05 f6be
000000d0: e29f 25be 99b0 ecbe 7978 2abe f756 6fbd
000000e0: 16ad 013f 9123 1ebf 871b 0bbf 4fff 7c3e
000000f0: 4287 933d 23e1 d4bd c820 a6be d733 dbbd
00000100: 38dd 99be 7c1a 0cbc a1a9 743e d7a0 5fbd
00000110: afeb b8be 4ed3 a13e 48cc 103f 6751 cfbd
00000120: 56f0 9bbe f05e d4be fb15 53be fafa c73d
00000130: 0227 a23e c354 663e ecef 3cbe cfca 983e
00000140: 6cac 903e d759 12be 5f7e 14bd db5d e2be
00000150: 8515 1ebe 1458 7f3e e1fa 54be 951a 033f
00000160: a80c 71bf 8302 47be 42fa b4bd 7132 1e3e
00000170: ca0e 25be c6be a4be af37 e83d c7d8 c6bd
00000180: 8490 ce3d 42f8 21be 63d3 d6be 1fff 63bd
00000190: 6ea8 15bd 87d9 10bf d227 653e 1ca3 3d3e
000001a0: d52a adbe d409 383e 4ce8 aebe dc69 ecbe
000001b0: fb87 223e b99f 15bf 6863 8c3d 631b bebe
000001c0: d735 adbe 86cf f8bd 3867 11be 2d94 51be
000001d0: 12c3 17bf 6a3c 29be dfa9 e43d 3174 443e
000001e0: ca6a c2be 51d4 0dbf 82b7 20be 5e9e 0c3e
000001f0: b4ce 11bd 9def 4c3e daf8 203d 0de4 7c3e
00000200: b2ef 403d 630e 23bc 66e8 983d 8169 f73e
00000210: 852b c13e b013 d73e 2871 043f e404 4e3e
00000220: 0e93 86bd b356 33bd 2145 5abe cd41 62be
00000230: 45e6 82bd a901 db3d 9f55 983e e9f8 c53d
00000240: ab8c 983e 4ab1 f43d 1fca 033e 7601 0b3e
00000250: bd85 733d e37e 253e 0e6f 073e f432 ba3e
00000260: baaf a03e 7058 bc3e 6861 9b3e f3db 0e3e
00000270: bd1e 223e a457 663e 896d 683e 1a0e eb3d
00000280: ed32 c93d 7d32 1c3e 74b7 0b3e a3ed d33d
00000290: 05ce c93d f965 64be 0cff abbe a63c d1be
000002a0: ea1a b9be 5762 75be 248e 06be 7c65 74be
000002b0: deca 2ebe 1f35 2ebe 4503 14be 3c20 a13c
000002c0: 07b6 8a3e 7ec7 573e 632e 3fbe 183c 013d
000002d0: dff5 92be 0461 0dbf 3fad 97be 9b82 36be
000002e0: b712 13bf 34a7 f73d e465 c93e fb24 a93e
000002f0: f2b3 fe3e b001 2e3f 2ef7 6a3d 7716 85be
00000300: 3e3f 96be d55c 313f 5ffa 803e a8d5 96be
00000310: 8cb9 21be 6be3 8dbb 99a7 3cbd 6e7d b73d
0.22714299 0.20568202 0.33197725 0.5917795 -0.06455628 -0.26459518 -0.11617863 -0.015820947
0.1765298 -0.009649637 -0.2692866 -0.28830478 -0.088603646 -0.044737075 -0.4217849 -0.08652909
-0.11783932 -0.38334444 -0.05412844 0.0054410407 0.34159413 -0.36443767 -0.12057938 -0.059740946
-0.24867973 -0.46821707 -0.066570885 -0.113975145 -0.14602986 -0.5625786 -0.72711265 -0.40265372
-0.014883476 -0.23934785 -0.10570011 -0.5061724 0.06837318 -0.2988754 0.013866371 -0.070104465
-0.12891759 -0.5082888 0.4454142 -0.19984145 -0.36896953 -0.35663223 0.2039646 0.31949
0.24029036 -0.12788591 -0.057255022 -0.480513 -0.16174272 -0.46228483 -0.16647519 -0.058432546
0.50654733 -0.6177302 -0.5433888 0.24706767 0.07203533 -0.10394504 -0.32446885 -0.10703247
-0.3005159 -0.008551236 0.23892833 -0.05459675 -0.36117312 0.31606525 0.5656171 -0.10122948
-0.304568 -0.41478682 -0.20613854 0.09764667 0.31670386 0.22493272 -0.18450898 0.2984223
0.28256547 -0.14292084 -0.03625333 -0.4421223 -0.15437897 0.24935943 -0.20798828 0.51212436
-0.94159937 -0.19434552 -0.088367954 0.1544893 -0.16118923 -0.321768 0.11338746 -0.09709316
0.10086158 -0.15817359 -0.4195815 -0.055663224 -0.03653758 -0.5658192 0.22378471 0.18519253
-0.3382174 0.17972499 -0.34161603 -0.46174514 0.15872185 -0.5844684 0.06854898 -0.3713027
-0.3383014 -0.12148957 -0.14199531 -0.20466681 -0.5928203 -0.16526952 0.11165213 0.19184949
-0.379721 -0.55402094 -0.15695003 0.13732287 -0.035597518 0.2001328 0.039299823 0.2469637
0.04710359 -0.0099521605 0.074662015 0.4832268 0.37728515 0.42007208 0.5173516 0.20119053
-0.06571017 -0.043783855 -0.21315433 -0.22095414 -0.06391577 0.10693676 0.29752824 0.096666165
0.2979482 0.11947878 0.12870072 0.13574776 0.059453715 0.16161685 0.13225958 0.36367
0.3138407 0.36786222 0.30347753 0.13951091 0.15832038 0.2249437 0.22698034 0.11477299
0.098241664 0.15253635 0.136442 0.1034806 0.09853748 -0.22304524 -0.33593023 -0.40866584
-0.36153346 -0.23963295 -0.1314016 -0.23866838 -0.17069575 -0.17012452 -0.14454372 0.01966869
0.27092 0.21072194 -0.18670039 0.03155145 -0.2870321 -0.5522616 -0.29624364 -0.1782326
-0.5745043 0.12092438 0.3933555 0.33036026 0.49746662 0.67971325 0.057364635 -0.25993702
-0.29345125 0.69282275 0.25191018 -0.29459882 -0.15793437 -0.004330089 -0.04605827 0.08959471

conv.0.bias f4 [8]
00000000: a5ad 92bc 88bf 2cbd 8c01 a7bd c9c0 d33d
00000010: e23f 0cbd 0bc5 143e 3623 c43b fc15 b4bc
-0.017905066 -0.042174846 -0.08154592 0.10339505 -0.03424061 0.14528291 0.005985643 -0.02198314

conv.1.weight f4 [8]
00000000: 8b19 7b3f f230 3e3f fde7 4f3f 0d6e 543f
00000010: 1e37 6b3f 3b22 933f 1732 993f 64c6 3a3f
0.9808585 0.74293435 0.8121336 0.82980424 0.9188098 1.1494821 1.1968411 0.7295897

conv.1.bias f4 [8]
00000000: 08e3 59be 8f96 893e 5d6f a83d 88f3 2dbe
00000010: 677c 543c e6b5 1dbe d990 3bbe fb5c a8be
-0.21278012 0.2687268 0.08224366 -0.16987431 0.012969113 -0.1540142 -0.18316974 -0.32883438
