checkpoints/Archive/linear_spec_4096.pt (torch, 367389 bytes, 86 tensors)

conv1.weight f4 [8, 1, 5, 5]
00000000: 88ad 033e 0a33 9c3e 9486 df3e f4a9 ef3e
00000010: fd9f ec3d 5e70 393e c826 203e d615 f23d
00000020: 35de bb3e b2c5 f13e 5483 1b3e f531 d3bd
00000030: 0894 eebd faa3 e73d 5772 13be cda4 73be
00000040: 8681 dbbe 582a 69be e52c 3dbe 5357 5c3c
00000050: 3766 ddbd fdee c1bd 2b12 7fbe 1386 fabe
00000060: 04b8 edbe 2391 b43e 01d2 353f fbed ed3d
00000070: 43ca b83d 0292 93be d7c0 343e c78e 5a3e
00000080: 082d 763e 08ce 55be cf39 b4be 5b8e 9d3e
00000090: 6b61 143f d7e5 e1be bc3c 203f 4e4d 3c3f
000000a0: ecda 9fbe 8f43 b73e 8b41 273e 256e d8bd
000000b0: bdb0 523d 39b5 333e d577 493f aa48 c33e
000000c0: 4f65 4f3e 5cb3 dcbd 0f88 a03e f322 91be
000000d0: 3d0c 6d3e 7284 ea3d c0db 67be e5b5 d43d
000000e0: e948 773e 221c cc3e 6a07 363f c5f5 963e
000000f0: c55a fb3d 349e a5be 61f2 10be d7e2 de3e
00000100: 6d80 62be 821f b8be 3b39 14be 5f93 cdbd
00000110: 5cb4 a0bd c773 31be 8867 4fbe 2c37 11be
00000120: 79fd 0c3e a306 e9bd c86d a4be 0404 813e
00000130: 94e2 043f 8432 3fbd 912b 42bd b19e 62be
00000140: 48d9 613e dc55 b93e 143a bebd fbec 363e
00000150: 35b0 c03e b3db 253e c54f ad3e ea25 463e
00000160: 1863 7d3d 080f f73e 534b e63e 4cf0 503d
00000170: 2b02 3c3e c143 f23d 82d1 80be a7a4 dabd
00000180: 2ccc 87bd 300d 8f3e 2fa6 e8bd 1c03 1c3f
00000190: 0928 ba3e 795d e83e eaf2 323e ee96 093e
000001a0: 5acd 9dbc 2e43 3abe 51ac ea3c f6f6 953e
000001b0: 318c 553e c99f 543e 8725 a1be f41e 92be
000001c0: d0ff 9dbe d354 c4be 5b89 30be 5a16 2d3e
000001d0: f535 7d3e b72a 9c3e 760d 8f3e b116 ac3e
000001e0: 2bb1 313d d808 37bc 21da 1e3d b247 7a3e
000001f0: 68c5 073e 1895 913e 263d 7abe 23c5 d8bd
00000200: a60f 35bf ea03 b9be ad81 b93e cd2b cebe
00000210: d3c0 943d 04ea 92be 10c1 d93e 7355 20bf
00000220: b401 49bf 1a65 b4be 2be9 c1bd 8aa3 913e
00000230: 0489 ff3d 9c38 9bbe 31f0 fdbd 03ee d3be
00000240: f741 29bf 9ab5 a73e 8ce1 9a3d 4926 9e3d
00000250: 13bf a03d 5e5f 01be 7952 04be f1dd 943e
00000260: b7d2 843c dcb0 063e ea21 02be aa5b d2bd
00000270: 26f7 a2be fe1f e6be 0ee8 5cbf 0f27 00be
00000280: 7555 47be 0396 56be 4089 ebbd dd04 0e3e
00000290: b1c5 7dbe 15e2 d4bd 7193 c2bd de89 e7be
000002a0: d3f4 0abf 0e1e e5be 0f5e 7cbe 4bd2 80be
000002b0: 507d bbbe bde1 c5bc e115 13be 4ca2 393e
000002c0: 231c c73d 7305 883e b48d 453e 722f 2b3e
000002d0: c25a 113e d48c 083e 1357 223e c571 803e
000002e0: d67a d03e 9aca 34be f242 29be 8061 243f
000002f0: 3417 a1bd 8392 7e3e b497 183f e313 d63e
00000300: da63 153e f50c c93e 7378 fe3a d920 243e
00000310: 4ce2 123f 77d2 823e 2e3b b7bd 5b2b d43d
0.12859166 0.3050769 0.43657362 0.4680935 0.11553953 0.18109271 0.15639794 0.11820571
0.36692968 0.47221142 0.15186816 -0.10312263 -0.116493285 0.11310573 -0.14399086 -0.23793335
-0.42872256 -0.22770059 -0.18474157 0.013448554 -0.108105116 -0.094694115 -0.24909274 -0.48930416
-0.46429455 0.3526698 0.71023566 0.11617657 0.09022953 -0.28822333 0.17651688 0.21343528
0.24040616 -0.20879376 -0.35200354 0.3077267 0.5796115 -0.44120666 0.62592673 0.7355546
-0.31221712 0.3579373 0.16333596 -0.105678834 0.051438082 0.175496 0.78698474 0.38141376
0.2025349 -0.107763976 0.31353804 -0.28346977 0.231492 0.11451043 -0.22642422 0.10386256
0.24148907 0.39865214 0.7110506 0.29484382 0.12273172 -0.32347262 -0.1415496 0.4353244
-0.22119303 -0.3596154 -0.14474957 -0.100378744 -0.07846901 -0.17329322 -0.20254338 -0.14181203
0.13768567 -0.11378219 -0.32115006 0.25198376 0.5190823 -0.046679035 -0.04740483 -0.22130848
0.22055542 0.36198318 -0.09288421 0.17863838 0.37634435 0.1619709 0.33849922 0.193504
0.06186208 0.48253655 0.44979343 0.051010415 0.18360202 0.11829329 -0.25159842 -0.10675936
-0.066307396 0.2793975 -0.11359822 0.60942245 0.3635867 0.45383814 0.17475477 0.13436481
-0.019262958 -0.1818969 0.02864662 0.2928998 0.2085426 0.20764078 -0.31473944 -0.2853924
-0.30859232 -0.38345966 -0.17239897 0.16903058 0.24727614 0.3050134 0.27939957 0.33611062
0.04338185 -0.011171542 0.038782243 0.24441412 0.13258898 0.28434062 -0.24437389 -0.10584476
-0.70727 -0.361358 0.36231747 -0.40267792 0.07263341 -0.28694165 0.42530107 -0.62630385
-0.78518224 -0.35233384 -0.094683014 0.28445083 0.124773055 -0.30316627 -0.123993285 -0.41392526
-0.6611628 0.32755738 0.07562551 0.07722146 0.078489445 -0.12634036 -0.12922086 0.29075578
0.016213758 0.13153404 -0.1270825 -0.1027139 -0.31829184 -0.44946283 -0.8629159 -0.125149
-0.19466193 -0.20955662 -0.11500788 0.13869043 -0.24782445 -0.10394684 -0.095007785 -0.45222372
-0.5427982 -0.44749492 -0.24645256 -0.2516044 -0.36619043 -0.024155492 -0.14363815 0.18128318
0.097221635 0.26566657 0.19292337 0.16717318 0.14194778 0.13334972 0.15853529 0.250868
0.40718716 -0.17655411 -0.16529444 0.64211273 -0.07865754 0.24860577 0.5960648 0.41812047
0.14588872 0.39267698 0.0019414559 0.16028155 0.5737655 0.25551197 -0.089468345 0.10359832

conv1.bias f4 [8]
00000000: 5fa5 093c 4368 c8bd f5e9 78bd 625c 83bd
00000010: 0368 9cbc c343 c73d 5fb2 1bbc cbff 203a
0.008401244 -0.09785511 -0.060769994 -0.06414105 -0.019092565 0.097297214 -0.009502976 0.0006141632

bn1.weight f4 [8]
00000000: 0c35 a23f a73d 4f3f 7903 563f d999 613f
00000010: 051a 833f c690 7e3f 9c6c 913f bed8 663f
1.2672439 0.8095345 0.8359905 0.8812538 1.0242316 0.99439657 1.136127 0.9017447

bn1.bias f4 [8]
00000000: fac0 293e 0cc5 bb3d 62f4 bfbe e02e 79bd
00000010: 3f9d 41be 87c0 c4bd 7351 5d3e d1a1 a3bd
0.16577521 0.09168443 -0.37491137 -0.06083572 -0.18907641 -0.09607034 0.21613102 -0.079898484

bn1.running_mean f4 [8]
00000000: d104 cd3d fdb9 253c 9c4a 753d 9071 5e3d
00000010: ea14 923c 4471 96bc d838 40be 064e 453e
0.10010684 0.010115144 0.059885606 0.05430752 0.017832238 -0.018364556 -0.18771684 0.19268045

bn1.running_var f4 [8]
00000000: 3221 7340 104b 4841 7902 0540 027d 0e41
00000010: e6ff 0040 66b9 1741 9192 6141 6c0e 6841
3.798901 12.518326 2.078276 8.9055195 2.0156188 9.482763 14.098283 14.503521

conv2.weight f4 [16, 8, 3, 3]
00000000: 597e 33be ae9c acbe 8ea7 3fbe 03e5 b63e
00000010: d57c 8f3e 6802 9a3e 503c 893d a6f8 9e3d
00000020: 6b64 bd3d 49d0 413e 78ff 9ebd e1d5 9e3d
00000030: f066 423d bd2b ce3c 8eee a43c ad3e 96bb
00000040: 5e20 86bd d2e1 fabd cdb4 bfbd d25c 13bd
00000050: 3950 b3bd b5e9 3b3e 2553 513e 0c4c f03d
00000060: c717 8c3c e602 0ebe 55eb 93bd d63d 43bd
00000070: 83c8 4e3e b748 03bd 5d0c 063d 8902 213e
00000080: d401 06bd 7f7f 193d fb55 8dbd d998 9f3e
00000090: a5fe 8abe 256c 1abe 12b1 7dbe 9055 a6bc
000000a0: 71ca 893e 9eef d73e b6de 01be ea1b 0fbe
000000b0: 86ee 72be c649 a7be 92c4 7d3d ab50 8ebe
000000c0: a55f d13d fe25 ffbd 1c28 64be de9b 33be
000000d0: 97b8 923d c1fa 493e d9a0 2e3e 17c9 943d
000000e0: d603 89be 16b9 d9bd fe50 8ebd ff39 2ebe
000000f0: 78dc 14be 1e4e dbbe 9e27 9dbe d5f0 bc3d
00000100: 47ef 12be 78b5 1c3d 691e 363e 9ed3 233e
00000110: bf17 3a3e 0d77 51bd 551e c83c 003b 91bc
00000120: 42ff bb3d 3a74 373e 9da1 e93d b458 e2be
00000130: d7ed 89be 93a1 c5be e1e6 51be 3b9c 59bd
00000140: 8a73 37bd 8814 4cbe f333 403e d9d7 5d3e
00000150: 0988 eabc abd3 e03d bf60 ea3d 2b91 e2bd
00000160: ecc2 a3bd f475 7abe 8dd2 3fbd 5b55 80be
00000170: 21da 51bd 8b4b 88bd 0cd4 84be fa0f e0bc
00000180: a9b2 8cbe 081c d13d caaf 6a3d 4e44 d0bd
00000190: ea43 77be 7a41 ed3d 0126 2bbe faa2 aa3c
000001a0: ed64 6ebc e6df 7ebe 120d 853d 1811 513e
000001b0: 5015 673e bc4c 993d dac7 98bd f56a 99be
000001c0: c7a2 9d3d c7f6 6bbe 3570 8b3c eb02 e43b
000001d0: 0d4a 393e f67f 28be 8c43 dbbe 7dd5 93be
000001e0: 50d0 7cbe 4791 3f3d b457 e4bd ea19 01be
000001f0: 5079 473e 394d 913d 51ea a03c 795d f1bd
00000200: c452 efbe 16ee 8bbd b279 31be 9765 19be
00000210: 5edb 9c3e 18d5 e13d 59da aabd ba21 c7bd
00000220: 17e1 453e 3870 45be 5998 1d3c f609 f5bd
00000230: e731 4b3d bc0d 713c afd4 65be 5916 8bbd
00000240: 3607 bd3c 13f4 59be 974c 0abe 56ca d2bd
00000250: 13d8 d7be c8c8 08bf e589 f9bc 371a a4be
00000260: 679c 00bd 3d67 763d 5638 63be 04f5 f4bd
00000270: 62a2 c03c 056c 673e 5b26 8a3e 2f05 c03d
00000280: 13eb 5dbc 4281 283d d065 3bba 13bc 8fbd
00000290: d6bd 1a3e 04aa 2a3e 1242 f83c d901 8abe
000002a0: 4098 34bd 25cf 253e c61e c83d 44a6 0e3e
000002b0: 8bf2 99bb 90ff cbbb 28ab 82bc 8f12 a23d
000002c0: a5a9 3b3d 3b91 b53d 247a 923e d0e7 933e
000002d0: f571 df3c ff90 f8bc 4ca5 553e 1c9b 4b3d
000002e0: 88e6 3d3d 0ecb e13d 5b2d 2a3e d5aa 153e
000002f0: 24a5 ea3d c17e 243c 54a8 a73d 5834 b1bc
00000300: 24e1 80bd 5ac8 0e3e b757 a23e 3953 3abe
00000310: c10e 2dbd 6e72 05bd 84ce 94be 1b07 18be
00000320: 1104 2a3d 4221 993c ce1c 103e e956 913e
00000330: a67a 1d3e a314 dc3d c29b 5e3e 4059 34bd
00000340: 82e1 b73d fbe0 393d 5fbc ea3d f5f5 c1bd
00000350: 8301 fa3d 8a3b 1d3f ef81 d73d e754 623e
00000360: 9fed d5bc 5bfd ffbe cc67 9fbd 1af8 4cbe
00000370: 8c91 87be c9dd 9bbe 1ac1 02be 5bc3 e6be
00000380: 0b10 c9bd 8a89 a4bc aefe bcbc 3f3b c2bd
00000390: 45eb e6bd 313e d9bd d150 c0bd c263 2f3d
000003a0: 3bf1 033d 2b85 333e 9bf9 363d 542a 913d
000003b0: 2dcf 173d 02f6 68be 6eea 87bd 1a0f 273e
000003c0: 609d 203e f519 403e bd14 b33c 8f7a 4abd
000003d0: fe12 25be 81c1 29be 8706 3bbc 7ab0 bf3d
000003e0: 40be 61bd f15c 46bd c930 4d3d dbb7 e0bd
000003f0: 8838 30bd 0905 9e3d 2918 8b3d d83f 9c3d
-0.17528667 -0.33713287 -0.18716261 0.35721597 0.28024927 0.3007996 0.06700957 0.0776227
0.09247669 0.1892711 -0.077635705 0.07755638 0.04746145 0.02516734 0.020133283 -0.0045851083
-0.06549142 -0.12250103 -0.09360657 -0.035977192 -0.08755536 0.18350871 0.20441873 0.11733255
0.017101182 -0.13868293 -0.072226204 -0.047666393 0.20193677 -0.03205177 0.032726634 0.15723623
-0.032716587 0.037475105 -0.06901165 0.311713 -0.27147403 -0.15080316 -0.24774578 -0.020304471
0.26912263 0.42175 -0.12682614 -0.13975492 -0.23723802 -0.32673472 0.061955042 -0.2779592
0.10223321 -0.12458418 -0.22280926 -0.17539927 0.07164114 0.19724561 0.17053546 0.07264917
-0.2676074 -0.106310055 -0.06949042 -0.17014311 -0.14537227 -0.42833036 -0.30694288 0.092256226
-0.1434909 0.038259 0.17785038 0.15998694 0.18173121 -0.051138926 0.024428526 -0.017728329
0.09179546 0.1791543 0.114077784 -0.442083 -0.2693927 -0.38599834 -0.2049823 -0.05312751
-0.04478792 -0.19929707 0.18769817 0.2166437 -0.02862932 0.109778725 0.11444234 -0.11062845
-0.07996163 -0.24459058 -0.046831656 -0.2506512 -0.051233415 -0.06655034 -0.2594303 -0.027351368
-0.27480057 0.10210425 0.05729655 -0.10169278 -0.24147001 0.11584754 -0.16713716 0.020829666
-0.01455043 -0.24890098 0.064966336 0.20416677 0.22566724 0.07485339 -0.07459994 -0.29964414
0.07697063 -0.23043357 0.017021278 0.0069583557 0.18094654 -0.16455063 -0.42824972 -0.28873816
-0.2468884 0.046769407 -0.111495405 -0.12607542 0.19479871 0.07094807 0.01964298 -0.117854066
-0.46742833 -0.06832521 -0.1733158 -0.1498016 0.30636114 0.110269725 -0.08342428 -0.0972323
0.19324146 -0.1928109 0.009618842 -0.119647905 0.049608137 0.014712747 -0.22444414 -0.06791372
0.023074728 -0.21284513 -0.13505779 -0.10292499 -0.4215704 -0.5343137 -0.030461261 -0.3205125
-0.031399157 0.06015705 -0.22189459 -0.119607955 0.02351493 0.225998 0.26982388 0.09375989
-0.013544816 0.041138895 -0.0007148655 -0.07018294 0.15111479 0.16666418 0.030304942 -0.26954535
-0.04409051 0.161923 0.097714946 0.13930613 -0.004698103 -0.006225534 -0.015950754 0.07913696
0.045816083 0.08865591 0.2860881 0.28887796 0.027276019 -0.030342577 0.20863837 0.04970847
0.04636243 0.11025058 0.16618864 0.14615948 0.11457279 0.010039986 0.08186403 -0.021631405
-0.06292942 0.13943616 0.31707546 -0.1819581 -0.0422504 -0.03257983 -0.2906381 -0.1484646
0.041507784 0.018692616 0.14073488 0.2838662 0.15378818 0.10746124 0.21739104 -0.044030428
0.08978559 0.045380574 0.1146171 -0.09470741 0.122073196 0.61418974 0.1052283 0.221027
-0.026114283 -0.49997982 -0.077834696 -0.20016518 -0.2647823 -0.30442646 -0.12768975 -0.4507092
-0.09817513 -0.020085115 -0.02307066 -0.094839565 -0.11275343 -0.10607565 -0.093904145 0.042819746
0.032212477 0.17531268 0.044671636 0.070881516 0.037062813 -0.22750095 -0.06636511 0.16314355
0.15685034 0.18759902 0.021860475 -0.049433287 -0.16120526 -0.16577722 -0.01141513 0.09359832
-0.055113077 -0.04842848 0.050095353 -0.10972568 -0.043022662 0.07715804 0.067917176 0.07629365

conv2.bias f4 [16]
00000000: 007a 8dbd 38b4 36bb 8f1c 903c 084e cabc
00000010: fd45 3e3c ff33 dfbd 83cd 24bc 8ea8 dd3d
00000020: 91ee 3e3b 6e2c 75bd d58b 84bd d392 1f3b
00000030: b872 383d e691 99bc ac17 a5bb 2faf 8f3c
-0.06908035 -0.0027878415 0.017591743 -0.024695411 0.011613366 -0.10898589 -0.010058763 0.10823165
0.0029133896 -0.059856825 -0.06471983 0.0024348989 0.04503128 -0.018746328 -0.0050382223 0.017539589

bn2.weight f4 [16]
00000000: b902 813f 72aa 903f fddf 953f b48d 8d3f
00000010: f22f 6f3f e9eb 853f 6314 5e3f e851 763f
00000020: 52a3 8a3f 6281 8c3f fb0c 713f 6fde 883f
00000030: be54 7a3f 1bf5 7b3f 5aaa 6d3f 16ae 823f
1.0078956 1.1302016 1.1708981 1.1058869 0.93432534 1.0462619 0.8674986 0.9621873
1.0831091 1.0976985 0.9416043 1.0692881 0.97785556 0.98420876 0.9283806 1.0209377

bn2.bias f4 [16]
00000000: ef7d 8cbd 6d51 393e 7643 993d 5d43 123e
00000010: c99d 90bd b39f 31bd 66cc c4bd 8022 c8bb
00000020: 6f2b 2c3e 03aa 8f3d f050 01be 5066 8c3e
00000030: 0212 17be 54f4 31be d540 913a 0015 eebd
-0.068599574 0.18097468 0.0748357 0.1428351 -0.07061345 -0.04336519 -0.096092984 -0.0061076283
0.16813444 0.07014849 -0.12628531 0.27421808 -0.14752963 -0.1737836 0.0011081944 -0.11625099

bn2.running_mean f4 [16]
00000000: 82d9 0ebf 68f6 6fbf 15e8 093f e75b 45bf
00000010: 4a0c dbbe 0a37 f93e 1c38 353f 7eef 813f
00000020: b042 a8bf 2841 61bf 7fef 7dbe 445b fdbe
00000030: 003b 18bf 0202 6f3f cce3 613d e58f b33f
-0.5580064 -0.9373536 0.53869754 -0.77093357 -0.42782813 0.48674804 0.7078874 1.0151212
-1.3145351 -0.87990046 -0.24798392 -0.49483693 -0.59465027 0.9336244 0.055148885 1.4028288

bn2.running_var f4 [16]
00000000: 24e6 4a3f e76a d83f ae4a 7540 bd8e 9340
00000010: 9f5c b93f e78f aa3f 50d9 363f 127e 873f
00000020: d5e6 8b40 563c 3240 fd14 883f 43b2 0440
00000030: bd83 6d3f fe41 cb3f ccf2 3940 bd89 cc3f
0.79257417 1.6907624 3.832683 4.611174 1.4481391 1.3325166 0.7142534 1.0585349
4.3719277 2.7849326 1.0631405 2.0733802 0.9277914 1.5879514 2.9054441 1.5979534

conv3.weight f4 [32, 16, 3, 3]
00000000: 056c 99bd 5353 2ebe ee84 1ebe 4619 fdbc
00000010: 6cfe d33c 50d4 6dbd f628 953b a2ad 863d
00000020: 018e 1d3e 32d2 a3bd ce60 113e ed94 c03c
00000030: 7cad 52be 8748 c9bd 3805 e3bd 84a8 de3a
00000040: 809a 9dbe 892d 9bbd 367b 933d e38b 42bd
00000050: 7909 0bbe 1ccd 74bd 34cc 49bd df6d 973d
00000060: f06e 0d3e 22b5 7a3d 587c 0f3e aaf5 42bd
00000070: 0ace d53d c59b 003f b3b1 b8bd 0078 27bd
00000080: 61b7 223d 0403 2abd 6674 923d c7cd f5bd
00000090: 90e4 893b 4aa2 4fbd d088 bb3c 7509 8a3e
000000a0: 1775 1c3e 8731 b4bb b4e9 833c 6121 c03d
000000b0: d8e8 a33e 1ac3 2a3e f9d9 1d3e 0cc5 3c3e
000000c0: 2cff 73bd 2d38 2abd 4011 b73b 050e 1cbe
000000d0: cc9a f9bc b249 35be bcbd df3d ab15 8c3d
000000e0: 853f 353e 7cb7 3a3d 1775 5e3d b77a e5bd
000000f0: 1900 43bd 3a51 0e3e 20bb 34be fda4 cbbd
00000100: f5c1 4bbd aa0e e7bd 1316 683d ec77 9c3c
00000110: 9593 283e 465a 8cbd 4f0f d1bd 9fc4 bcbc
00000120: 0c32 0d3c c965 e93c 3e4a 8a3e fde2 4bbe
00000130: f06c 0fbe 3007 17be 0a4f efbd a463 18bd
00000140: 0f4e abbd b306 753b e052 02be d800 eabd
00000150: 602e f33c e9d2 ff3d dea3 8f3e 02b3 33be
00000160: 555f 20be 836a 70be 295d a63d 60e2 193e
00000170: 6715 083e 8d80 adbd 0ad8 233e 55b2 13bc
00000180: e1fe 293e e4a1 0c3e aaa3 b53c 1b32 8c3e
00000190: bccf 283e 8503 bbbc c7ca 183e 366c 063e
000001a0: cd48 56be 3cc9 8f3e 489b 953d ec58 803d
000001b0: 4e32 03bc be99 433e 68c0 74bc bcef 893e
000001c0: 4d05 403e 51ec 443e cc11 ca3e 0d57 343e
000001d0: 626c a33e a9f9 babd eecf 66be 111b d5bb
000001e0: b0b9 3f3d df34 023e ef74 60be 026e 23be
000001f0: 1e1b afbd 8cb3 fdbd 5127 0b3d 6773 7ebc
00000200: 3e1f e1bc 4d48 2fbd e7ed 14be a54c 50be
00000210: 93f5 1d3e 4ba7 c93e 0f04 593e 9460 b03b
00000220: 02a9 ea3c 2943 46be befe 23bd 267b 6ebd
00000230: b2f6 07be 67e1 903d d6dd 1f3e d089 c13c
00000240: ee7e 45be 4ccb 94bd f2f1 55be c852 50bd
00000250: d438 033e 43f5 3a3e 9fd2 7bbd 210b 103d
00000260: c8fe 3ebe 4277 febd 2f4f a9bc e2bd c33d
00000270: 9970 6cbc 2da0 a2bb 7e7d 1bbe 1590 75bd
00000280: 0bf1 df3b b6e3 713e b281 913e 548f 393c
00000290: 7156 813d 27dc 833e 5733 1e3e ae55 1a3e
000002a0: 6830 9abe 7795 97be d628 ff3d 37f6 a1bd
000002b0: 0183 583e 1205 6d3e c851 8dbd 5cc3 743d
000002c0: dea9 a63e 31a3 28bc 4f04 ecba 3d66 a13d
000002d0: 0622 00bc 392b 24be a7cc 25be fab7 ba3d
000002e0: 4747 053b 19c3 493e 1743 f1bd 7768 85bd
000002f0: 1bf4 11be e80d 08be 7ce9 723e c19d 3f3e
00000300: 8a16 73be da04 91bd e40b 5fbd f6fa 49be
00000310: 14dc c13e 3a2c 953e 8da3 e43d 892e 4a3d
00000320: c581 a5bc 5d7c 303e 432a 7b3e 07de ad3e
00000330: cba2 0a3e a6c4 ebbc e2ea d5bd bbe4 423e
00000340: 126a 2f3e cb91 f3bb eb0e 353e ad94 dabd
00000350: 3d4e b8be 23e4 ebbc d152 f3bd 9396 02bd
00000360: cae8 5fbd 3ebe a33d b71f a5bc 503b 66bc
00000370: e015 093e 7ac4 243d 45a1 36be 0ade 5ebc
00000380: eba2 293d 7c76 91bc 8fe7 aa3c f783 563c
00000390: 1f46 cbbc 4575 c5bc ce57 1e3e 618c 8fbe
000003a0: f46e cebd dd30 063e edaf 2ebe 1a04 d0bd
000003b0: 7ff2 2a3e 8819 00be e7ca 8fbc 98c6 013e
000003c0: a8e7 27be 2375 b13d a52b 953d f80c 71bd
000003d0: e8f5 89bc 09c7 a33d d7bd 09be 26c0 73bc
000003e0: 11ca 89bd ff8e 2a3d 9ec2 b4bd dc90 843d
000003f0: 868c 443d 9ab3 8ebd 1b26 cdbd f906 7a3d
-0.07491306 -0.17023973 -0.15480396 -0.03089584 0.025878154 -0.058063805 0.004552002 0.065760866
0.15386201 -0.07999076 0.14197084 0.023508513 -0.20573992 -0.098282866 -0.1108498 0.0016987477
-0.30781937 -0.075770445 0.07201235 -0.047496688 -0.13577832 -0.05976592 -0.04926701 0.07394003
0.1381185 0.061207898 0.14012277 -0.047597565 0.104396895 0.50237685 -0.090182684 -0.040885925
0.039725665 -0.041506782 0.071511075 -0.120021395 0.004208155 -0.05069188 0.022892386 0.2696034
0.15279041 -0.005499068 0.01610265 0.093813665 0.32013583 0.16675988 0.15415181 0.18434542
-0.059569523 -0.04155748 0.005586773 -0.15239723 -0.03046932 -0.17703894 0.10924861 0.0684007
0.17700012 0.04558514 0.054310884 -0.112050466 -0.047607515 0.13898173 -0.17649508 -0.099435784
-0.04974552 -0.11282094 0.056661677 0.019100152 0.16462548 -0.06853156 -0.10207998 -0.023042975
0.008617889 0.028490918 0.27009767 -0.19910808 -0.140064 -0.14748836 -0.116849974 -0.0372044
-0.08364498 0.0037388026 -0.12726927 -0.11425942 0.0296852 0.124914 0.28054708 -0.17548755
-0.15661366 -0.23478131 0.08123238 0.15027761 0.13289414 -0.08471785 0.16000381 -0.009014686
0.16601135 0.13733631 0.022172768 0.27381977 0.16485494 -0.022828827 0.14921103 0.13127217
-0.20926209 0.28083217 0.07305008 0.062669605 -0.008007599 0.19101617 -0.014938451 0.26940715
0.18752022 0.19230773 0.39466703 0.17611332 0.31918627 -0.0912965 -0.22540256 -0.0065034707
0.046807945 0.12715481 -0.21919607 -0.15959933 -0.08550094 -0.123877615 0.033973042 -0.015530444
-0.027480718 -0.04279356 -0.14543878 -0.20341738 0.1542571 0.39385447 0.21192954 0.0053826068
0.028645042 -0.19361557 -0.040037863 -0.058222912 -0.132777 0.07074242 0.15611967 0.023625284
-0.19286701 -0.07265338 -0.20893076 -0.050860196 0.12814647 0.18257622 -0.06148016 0.035166863
-0.18651879 -0.124250904 -0.02066764 0.09557702 -0.014431142 -0.004962942 -0.1518459 -0.05995186
0.0068341545 0.23622021 0.28419262 0.011325676 0.063153155 0.257539 0.15449272 0.15071747
-0.30115056 -0.2960622 0.12458961 -0.0790829 0.21143724 0.23146465 -0.06900364 0.05975662
0.32551473 -0.010292814 -0.0018006655 0.078808285 -0.007820612 -0.16032113 -0.1619135 0.09117122
0.0020336674 0.1970333 -0.117803745 -0.06514066 -0.14253275 -0.13286555 0.2372188 0.18712522
-0.23739067 -0.070810035 -0.0544547 -0.1972464 0.3786322 0.29135305 0.11164007 0.049360786
-0.02020348 0.17234941 0.2452784 0.33958456 0.13538663 -0.028780293 -0.10445191 0.19032566
0.17130306 -0.0074331514 0.17681472 -0.10672889 -0.3599719 -0.028795308 -0.1188103 -0.03188188
-0.054665364 0.0799527 -0.020156724 -0.014052227 0.13387251 0.040226437 -0.17834957 -0.013602743
0.041415136 -0.017756693 0.020862369 0.013092986 -0.02481371 -0.02410377 0.15463182 -0.28036788
-0.100797564 0.13104577 -0.17059298 -0.10157032 0.16694067 -0.1250974 -0.017552806 0.12673414
-0.16396964 0.0866492 0.07283715 -0.05885026 -0.01684089 0.07996947 -0.13451324 -0.014877355
-0.06727994 0.041640278 -0.08826183 0.06472942 0.047985576 -0.0696785 -0.10017034 0.061041806

conv3.bias f4 [32]
00000000: 81d7 2cbc e086 46bc 1e70 043e f066 9fbc
00000010: 1d49 7ebd 917b 23bd a4a9 20bd dbc9 ce3d
00000020: c79c aebd 7072 573d 9fd5 2d3c 1460 74bc
00000030: 40c1 1dbd cb3a 23bb a340 00bd 9596 823b
00000040: 6ec7 cebc 2579 b23b de96 3c3d 1daa f2bd
00000050: 767c 19bc ebb6 aa3c 5015 65bc f170 a93c
00000060: 59a0 553c a65a d439 007e 923d 804c b43d
00000070: 0193 71bd 798f 11bd e922 953d d7c2 363c
-0.010549427 -0.012117118 0.12933394 -0.019458264 -0.062081445 -0.039912764 -0.039224282 0.100970946
-0.08525997 0.05259937 0.010610013 -0.014915485 -0.038514376 -0.002490687 -0.031311642 0.003985236
-0.02524158 0.0054465705 0.046042316 -0.11848853 -0.009368053 0.020839175 -0.013982132 0.020683737
0.013038718 0.0004050333 0.07152939 0.08803654 -0.058978084 -0.035537217 0.07282049 0.011154852

bn3.weight f4 [32]
00000000: b0d5 753f 9d29 6a3f caae 843f 10d4 7e3f
00000010: 39df 853f 3fa2 603f 6417 7d3f e481 7c3f
00000020: f23a 5a3f 29c7 7e3f c5dd 843f d8ea 963f
00000030: 5821 6f3f e4c9 7f3f c427 813f 2474 5e3f
00000040: a1d4 8b3f f89e 763f a203 7f3f 7102 6d3f
00000050: 1368 a73f 1241 743f b954 9b3f a770 513f
00000060: 75a1 6f3f 995c 613f da1c 733f 7d4c 8e3f
00000070: 6330 903f efd1 743f df86 7b3f d23f 743f
0.96029186 0.91469747 1.0365841 0.9954233 1.0458747 0.8774757 0.98863816 0.986357
0.85246193 0.99522644 1.0380179 1.1790419 0.93410254 0.99917436 1.009026 0.86895967
1.0924264 0.9633632 0.9961492 0.9258185 1.3078636 0.9541179 1.213523 0.8181252
0.9360574 0.8803192 0.949659 1.1117092 1.1264766 0.95632833 0.9825267 0.9540988

bn3.bias f4 [32]
00000000: a4a5 aabd 02a7 5fbe d341 85be 3ccc 57be
00000010: 6101 58be 71b1 bebe 308a f73c 8ea3 a73a
00000020: a9d0 0bbe 8f9a 88be ec0a 9cbe 4e48 87be
00000030: 8df2 ad3c 5700 75be ffc3 8fbd d8e8 50bd
00000040: a402 98be d27e 80be 7a46 e1bb e9fe 94be
00000050: 8999 bf3e 3af7 ddbd bd91 af3e 0179 b9be
00000060: fd89 86be f220 74bd e646 1fbe 9edc 67be
00000070: cd27 6cbe 31d6 f0be 9b38 c6be 1f91 a6bd
-0.08332375 -0.21841052 -0.26026782 -0.21074003 -0.21094276 -0.37244752 0.03021726 0.0012789832
-0.13653816 -0.2668042 -0.30477083 -0.26422352 0.021233821 -0.23925911 -0.07019805 -0.051003307
-0.29689515 -0.25096756 -0.0068748565 -0.2910073 0.37421826 -0.1083817 0.34290877 -0.3622513
-0.26277152 -0.05960173 -0.1555439 -0.22642753 -0.23062058 -0.47038415 -0.38715062 -0.081331484

bn3.running_mean f4 [32]
00000000: d742 ec3b ce77 0e3f 4134 49be 3190 2a3e
00000010: 53a4 53be ac72 ec3e 6c8f a1bf 2fbf 3abf
00000020: 64bd c7bf a45c ba3e 4d79 533f 1d89 c63e
00000030: edbf 11bf 6e0d a5be 90de a0bf a1bb 91be
00000040: e550 2bbf 3cc5 673f 8a0f e83a ac08 5ebf
00000050: 614c 93bf 810d 3dbf 03a0 d2bf e402 48bf
00000060: a13b 1b3e d230 9e3f eb87 adbf e55b 5bbf
00000070: 3ab7 babe ee62 bb3f a11e 5f3e bb8a 58be
0.0072101164 0.5565156 -0.1964884 0.16656567 -0.20668153 0.46181238 -1.2621894 -0.72947973
-1.5604672 0.36398804 0.82606965 0.38776484 -0.5693348 -0.3223681 -1.2567921 -0.28463462
-0.6692031 0.9053533 0.0017704826 -0.8673198 -1.1507684 -0.7384873 -1.6455082 -0.7812941
0.15159465 1.2358649 -1.3557104 -0.85687095 -0.36467916 1.4639566 0.21789028 -0.21146671

bn3.running_var f4 [32]
00000000: bf96 933f 12c1 0e3f 9a00 1c3f 873e 9b3e
00000010: ec94 373f d213 143f bca8 bd3f cb76 a83f
00000020: e2b8 d53f b288 693f 1f85 493f c7b7 393f
00000030: a133 a43f e105 8c3f 34d5 e03e bdcf bb3f
00000040: 5025 cf3f 53ad 1d3f ca52 2d40 4d74 f03e
00000050: 9a29 4c40 9cbe 5f3f 5a6e b340 ae75 c23e
00000060: 476f dd3e aab1 973f 9228 fa3f d578 693f
00000070: 5e6c 2a3f 9b68 203f 502f ad3e 1772 bc3f
1.1530379 0.5576335 0.6093842 0.30321142 0.7171161 0.57842743 1.4817119 1.3161253
1.6697047 0.91224205 0.7871875 0.72546047 1.2828256 1.0939294 0.4391266 1.4672772
1.6183262 0.61592597 2.708178 0.4696373 3.1900392 0.8740022 5.6072206 0.37980407
0.4324896 1.1851094 1.9543631 0.912 0.66571605 0.62659615 0.3382516 1.4722317

conv4.weight f4 [64, 32, 3, 3]
00000000: 7886 78bc b3bd c7bd c5ee fbbd 8e90 21be
00000010: 5812 1abb 37a4 f1bd 80fb b2bc 62f8 3ebe
00000020: 7755 24bd eaf0 803c db38 b03c 4ba9 9ebb
00000030: b2ba 39bd 2f74 ddbd 54cd 41bd d7cb d23b
00000040: 00a0 b4bc b442 32bd 2b49 cabd 92be cabd
00000050: 8d02 95bd f793 f73c ccf1 a53d a07e 00bc
00000060: eb25 08be 3f5b 27be cd12 ffbd 93b5 0f3c
00000070: ca0b 88bc cf77 553a f138 783d d539 4cbd
00000080: 1790 d8bd 2be8 c83b c61f d7b8 d6d0 1dbe
00000090: a5f3 683e 0a30 973e 811f ca3e 381c 72bd
000000a0: 6db7 d83d 0e89 2d3b f221 7b3e 591f 243e
000000b0: bc60 aa3e 0ff3 9d3d ed73 90bd 9595 94bd
000000c0: b4ac aebc 5b8f d63d 3ee3 773b 7a36 363d
000000d0: 30bf 29be 916f 54be ae6d cb3c fc49 59bd
000000e0: 787d 2f3d e320 223d d760 abbc 6d43 a63d
000000f0: 0c1f ec3d fe3b 76bc 8bb4 533d 8333 b83d
00000100: e78c 6dbe 526b 11be d640 1a3e c90a a3bd
00000110: c07d 213d 8732 0f3e e9fe 85be a917 5bbc
00000120: 66ed d83d 032a 293c ddea 103d a6fb 6c3d
00000130: 4c2f c3bd 0d32 3b3e 7891 673d 9a81 91bd
00000140: c269 38bc d210 ba3d 97b3 e73d 5f43 ae3d
00000150: 6069 5ebc 3224 ad3d 2b76 433d 59a7 033e
00000160: 2441 7d3c 307c 903d ece7 d73c 45ae a93d
00000170: 3efc d93d f39c f93d f4b6 a5bc 68f0 5e3d
00000180: 70e0 0fbd 8655 403e ee24 043e 67af 81bd
00000190: 1879 c4bd 3d1b 11bd 14ec c2bd b336 07be
000001a0: fe91 dcbd 3fa1 acbc c9f1 1fbe 5a9e 1cbe
000001b0: ff69 843e 9025 92bc 0bc8 a13e a5f9 b13d
000001c0: a3e9 26be d88d 4b3d cffc 5dbc 643f 7e3c
000001d0: 51b2 063e 240b 21bd 4ed4 1abe 6b7f 25be
000001e0: b323 053d 0b6f 653c 2938 663c 964f f9bd
000001f0: 0dfd c2bd 582e 24be f1d0 f8bc 42db 8dbc
00000200: 0299 3bbd 35d7 1dbd 55c1 753c 2e06 77ba
00000210: 6b6d a7bd 1fbc c5bd 96c7 62bd 203c 31bd
00000220: 0ce5 0bbe b889 8d3d f119 89bd 0483 3f3a
00000230: 4e9d 343e e7c2 e4bd f7b7 09be a483 3bbc
00000240: d4f8 fe3d d0bd 903d 355c e73d c651 5b3d
00000250: 5da0 893d dca9 3f3e af79 c63d 019c 073d
00000260: 4a9d bf3d 8dca c3bd 0a13 1ebd a295 22be
00000270: 77be 3cbd 5ead 6dbb 6491 2a3d e48e 10bd
00000280: f33d 843d e37c 443d 6c82 313e bf94 603b
00000290: 0b99 2fbd 313d 173d db01 29be 74b8 803d
000002a0: f3bb a03d fc4f f43d edae 29bd d3ba 21bd
000002b0: d56c 0ebd 9385 69bc 48ee fd3c c4d8 a538
000002c0: b348 4d3d ac71 46bd 0741 16bd 6159 463d
000002d0: e89f aebd a11a 4bbc bf7b dcbc 0831 033d
000002e0: b66e 0f3e 1a40 153e f53b 9d3d c6c8 8abd
000002f0: 027a 5ebc 3d87 fb3a bf36 f2bd 5f66 06be
00000300: 64c4 42be 16d6 18bc 4420 2bbe fa83 5c3d
00000310: eb88 8a3b afe7 d83c 5677 c1bd 58b3 0ebd
00000320: 276b 033d a346 ba3b dd5d e43c 82e9 c1bd
00000330: 0778 a5bd 082b d5bb 3052 cb3d a1fd ab3d
00000340: c5b5 393e f681 293e 2323 49be 6b47 ebbd
00000350: 663f 86be 69bf b33d cb93 3d3e 3f55 733e
00000360: 0621 5f3c 2960 913d fd17 fe3d e6b5 e4bd
00000370: af53 f7bd 98ca e2bd ecf6 1c3e 08c6 ed3d
00000380: a944 943d 38b9 5ebe 0fec 4cbe c089 bbbe
00000390: 31d1 973c edc5 543e 46f3 a2bc ee58 64be
000003a0: 3030 8dbe 5f8b a9bd 931a 243e 925b 163e
000003b0: 2afa f43d dc38 903d f83d 37bc 8871 223d
000003c0: 6558 cdbc 11ad 8d3e 4efc 1a3e 545a 8dbc
000003d0: bae6 6b3d ab51 323b 69e5 97be b624 27be
000003e0: 0393 92be 9445 d9bd 484b c2bd bea3 ecbd
000003f0: e5c4 a9bb 28cc bb3d 27e5 0f3e cebf 7d3d
-0.015168779 -0.09752979 -0.12301401 -0.157778 -0.002350947 -0.117988996 -0.02184844 -0.18649438
-0.040120568 0.015739877 0.021511486 -0.0048419586 -0.045344062 -0.10813176 -0.047314957 0.006432991
-0.02204895 -0.043520644 -0.09877237 -0.0989963 -0.07275877 0.030221922 0.0810276 -0.00784269
-0.13295715 -0.16343401 -0.12454758 0.008771318 -0.016607184 0.0008143158 0.06060118 -0.04985984
-0.10574358 0.006131192 -0.00010257917 -0.15411696 0.22749193 0.29528838 0.3947716 -0.059108943
0.10581861 0.0026479396 0.24524668 0.16027583 0.33276927 0.077123754 -0.07053361 -0.07255093
-0.021322586 0.10476562 0.0037824656 0.044485547 -0.16576838 -0.20745684 0.024832573 -0.053049073
0.042844266 0.039582144 -0.0209202 0.08118329 0.11529359 -0.015028952 0.05168585 0.089942
-0.23198281 -0.14201096 0.15063795 -0.079610415 0.039426565 0.13984118 -0.26171044 -0.01337234
0.10592155 0.010324958 0.035380233 0.05785718 -0.095305055 0.18280812 0.056535214 -0.07104798
-0.011255683 0.090852395 0.11313551 0.08508944 -0.013574928 0.08454169 0.047720116 0.12856807
0.015457425 0.07054937 0.026355706 0.082851924 0.106438145 0.12188139 -0.02022884 0.054428488
-0.03512615 0.18782625 0.12904713 -0.063322835 -0.09593409 -0.035426367 -0.095176846 -0.1320446
-0.10770033 -0.021072982 -0.15619577 -0.15294781 0.2586212 -0.017840177 0.31597933 0.08690194
-0.16300063 0.04969582 -0.013549044 0.015518043 0.1315396 -0.039317265 -0.1512005 -0.16161887
0.03250475 0.0140035255 0.014051476 -0.12173383 -0.09520922 -0.16033304 -0.030373069 -0.017316464
-0.045800216 -0.038535316 0.014999707 -0.0009423223 -0.08175167 -0.09655022 -0.05536612 -0.04327023
-0.13661593 0.069110334 -0.06694401 0.00073055946 0.17638132 -0.11169987 -0.13449083 -0.01144496
0.12449804 0.07067454 0.11296884 0.053544782 0.0672004 0.1871714 0.09691178 0.03310776
0.093561724 -0.09560118 -0.038592376 -0.15877393 -0.04608008 -0.0036266665 0.04164256 -0.03529252
0.064571284 0.047970664 0.17334908 0.0034268347 -0.042870563 0.03692359 -0.16504614 0.06285182
0.078483485 0.11929318 -0.041426588 -0.03948481 -0.03477176 -0.014253038 0.03099741 7.908189e-05
0.05011816 -0.04844825 -0.03668311 0.048425082 -0.085265934 -0.012396486 -0.026914475 0.03202918
0.14007077 0.14575234 0.076774515 -0.06776576 -0.013578894 0.0019190084 -0.11826848 -0.13124989
-0.1902023 -0.009328386 -0.16711527 0.0538368 0.0042277477 0.026477663 -0.0944659 -0.034839004
0.03208461 0.00568469 0.027876789 -0.09468366 -0.08079534 -0.006505374 0.099277854 0.08397985
0.18135746 0.16553482 -0.1964231 -0.11488231 -0.26220244 0.08776743 0.1851341 0.23762988
0.013618713 0.07098419 0.12406919 -0.11167507 -0.12076508 -0.11073798 0.15328568 0.11610037
0.072396584 -0.21750343 -0.20011924 -0.36628532 0.018532367 0.20778628 -0.019891392 -0.22299549
-0.27575827 -0.08278536 0.16025762 0.14683369 0.119617775 0.07042095 -0.011184208 0.039659053
-0.025066564 0.27671102 0.15135309 -0.017254986 0.057593085 0.0027209322 -0.29667214 -0.16322598
-0.28627786 -0.10608974 -0.09487015 -0.11554669 -0.0051809424 0.09169799 0.14052258 0.061950497

conv4.bias f4 [64]
00000000: 2889 da3c aad9 103c e976 253b 2b2c 7cbc
00000010: dfe8 83bb df10 ef3c a3e7 a0bc 8480 d43b
00000020: 0cc8 f43b cad8 ca3c dad4 0b3c a391 56bc
00000030: 6aea 233c 500f 15bd fd6c 53bc d6e7 bc3c
00000040: 1926 f83b 347d 01bd e0d8 a1bc 4944 a1bc
00000050: 3e32 a5bc 4a0e 3ebc 7a75 963c b0ab 0b3c
00000060: 0f25 5dbc 2d37 7b3c 6b05 043d fdc6 50bc
00000070: afc6 f13c 5ba7 a0bc 3942 92bc 2284 44bd
00000080: ec45 07bc cc21 6bbc f3aa eb3c 883c c43c
00000090: e964 b33c a023 d4ba cad9 2c3c 02b1 edbc
000000a0: ef0a ee3b be8f 883d 6d0a 84bb 2706 70bc
000000b0: b70a 4fbc 3ffa a2b9 c2c5 283c 0059 793c
000000c0: a15d a63b 4f90 4dbc 547c da3c 51ec d63c
000000d0: 60e0 e03b 3ebf 093c b436 52bb f8b3 a13c
000000e0: 7dde 1c3d 6ce7 343d 07c5 1fbd d1b3 16bc
000000f0: 2d53 6d3c c362 aabb 1e85 323c 6ac3 2fbd
0.02667673 0.008840958 0.0025247878 -0.01539139 -0.004025563 0.02918285 -0.019641703 0.006485047
0.0074701365 0.024761576 0.0085346345 -0.013096246 0.010004619 -0.036391556 -0.012904403 0.023059767
0.007572901 -0.031613544 -0.019756734 -0.019685881 -0.020165559 -0.011600086 0.018366564 0.00852482
-0.013497605 0.015332979 0.03223173 -0.012742755 0.029513685 -0.019611051 -0.017853843 -0.047977574
-0.008256417 -0.0143513195 0.028768038 0.023954645 0.021898704 -0.0016184933 0.010549972 -0.029015068
0.007264487 0.06668042 -0.004029563 -0.014649904 -0.012636832 -0.00031085496 0.010301055 0.015218973
0.0050770794 -0.012546613 0.026670612 0.026235731 0.006862685 0.008407412 -0.0032076063 0.019739136
0.03829812 0.044166014 -0.03900626 -0.009198145 0.014485163 -0.0051997616 0.010895995 -0.04291097

bn4.weight f4 [64]
00000000: e052 0940 8eac 0f40 7e32 0e40 fa5d 1840
00000010: 02c7 1f40 d254 1240 6404 0e40 e289 1940
00000020: 16a9 0f40 c503 0940 ce01 fc3f 77c0 fa3f
00000030: 56df f53f 304e 0040 d8a3 0f40 13cd 1240
00000040: ad56 0140 f2f6 0f40 69ee ff3f b6c2 f33f
00000050: 97ca 0540 2791 0c40 0a0a f83f e2c1 0040
00000060: ea9e 1340 7910 1340 489a 1a40 65be 2240
00000070: 11c2 1940 d844 0c40 e1eb 1740 af5d 1140
00000080: 6b0d 1740 325c 1640 f4d2 1840 67f1 0540
00000090: 7f8e fd3f 7a68 0340 8f33 ee3f c2a5 1640
000000a0: 17f8 0040 d311 0540 5bc1 1840 f647 1040
000000b0: 75d8 0e40 278b 1d40 d1a5 1940 0c2b 0740
000000c0: 4395 1e40 0152 1e40 60b3 2140 0c05 0240
000000d0: a4cc 0340 e009 2140 fc3f 0f40 a98c f13f
000000e0: dbcc 0640 d764 fc3f 193e 2140 eb62 f83f
000000f0: 14b0 1b40 3346 f53f c561 1440 7f77 d73f
2.1456833 2.244907 2.2218318 2.3807359 2.4965215 2.286427 2.219018 2.3990407
2.2446952 2.140855 1.9688051 1.9589986 1.9208782 2.0047722 2.2443752 2.2937667
2.0209153 2.2494473 1.9994632 1.9043796 2.09049 2.1963594 1.9378064 2.0118337
2.3065743 2.2978804 2.4156666 2.5428708 2.4024699 2.191702 2.373772 2.271343
2.360194 2.3493772 2.3878756 2.092859 1.9809111 2.0532517 1.8609484 2.353867
2.0151422 2.079213 2.3868015 2.2543921 2.2319615 2.4616182 2.4007456 2.1120024
2.4778602 2.4737551 2.5265732 2.031558 2.0593653 2.5162277 2.2382803 1.8871051
2.1062534 1.9718274 2.5194151 1.9405187 2.432622 1.9162048 2.3184674 1.6833342

bn4.bias f4 [64]
00000000: 84ed 823e 10bd 0b3f 25b6 8d3e 85be 993e
00000010: 8d34 0fbe 6890 b53e e01a ce3d 7b4b b53e
00000020: c7ab 4d3e c2d2 0c3f 645b 8e3e 4049 1b3d
00000030: 8854 e63e c93d 093e ba2f 463b c713 c73d
00000040: 5ecf 943e 76c4 a43e 4f95 e13e 0e02 6d3e
00000050: 3862 f93e 6c5c 893e 44ed a13e ddca 883e
00000060: b1fd 06bd 5ff4 103c 7600 e2bb 664d b7bb
00000070: fa71 2ebd c467 343e 05f3 9c3d 3020 033f
00000080: 2bc8 a13e b585 833d c74c 5ebd 230c 4d3e
00000090: 3bdb c93e 114f d13d b688 e83d 9e4c 333e
000000a0: ff70 a33e a050 a93e 99e3 883e b5d7 da3d
000000b0: 9b3e 613d 95ef 00be cd17 47bd 5bd3 043f
000000c0: c565 26bd 803f 3e3e 154d b6bd d6f3 103f
000000d0: baa0 e63e fe2c ef3d 7cac 8b3d 655d 2a3e
000000e0: 6409 253e c2dc b73e 5b57 babc 4c2a bb3e
000000f0: ed3a 523e cb2a 0e3e 3e88 ff3e af8b ca3e
0.25571835 0.5458536 0.27678028 0.30028167 -0.1398489 0.35461736 0.1006372 0.3540915
0.20085059 0.5500909 0.278041 0.037911654 0.44986367 0.13402475 0.003024085 0.09720569
0.2906446 0.32181138 0.44059226 0.23145315 0.48707747 0.26828325 0.31626332 0.26717272
-0.032956783 0.008847325 -0.0068970276 -0.0055939434 -0.042589165 0.17617708 0.0766354 0.5122099
0.3159803 0.06421987 -0.05427244 0.20024161 0.39425072 0.10220159 0.113542005 0.17509696
0.31922147 0.33069324 0.26736143 0.10685674 0.054991346 -0.12591393 -0.048606683 0.51885
-0.0406244 0.18578911 -0.08901421 0.56622064 0.450445 0.116785035 0.06820008 0.1663719
0.16116863 0.35910612 -0.022746732 0.36555707 0.20530291 0.13883512 0.49908632 0.39559695

bn4.running_mean f4 [64]
00000000: 8ac7 2b3e 53db aabf bc53 823f 184b 98bf
00000010: 14ea 0d3f 5fdc c63e 32eb 923e ee1d 8d3e
00000020: 0eca 1f3f a4bc 08bf bc2f 1e3f 1430 523f
00000030: c061 37bf e13c 493e 2571 29be 3aca 493f
00000040: 6e4a 113f 8700 403f b017 7d3f a3e0 433f
00000050: 9bc8 3bbf 63dd 963f ff7c 583f 1a26 943f
00000060: cdfe f23d b766 7d3f 2cda af3e 2e2b 593e
00000070: 9cfa 283f ed5f b13e ef78 063f 2cea 87bf
00000080: 769e 2c3f c0b9 393f bb16 c0be e932 243e
00000090: 9f7d 8a3e f871 483f c48c 6e3f 3c8e 96be
000000a0: dcf2 be3e 547b 233f 0e97 d9bd 16f8 05be
000000b0: 552b 79be f093 3ebf 9d90 aa3e 7b46 6fbe
000000c0: 855d c2bd 8ff6 e23e 472c 143f 2a24 4dbf
000000d0: a8ba b9be 465b 1abd 5805 993f a4c0 3abf
000000e0: 7423 773e 1086 a53f 9a76 b73e bf34 79bf
000000f0: ca70 fbbe f348 54be d9f3 abbe 9e7a 77bf
0.16775337 -1.3348182 1.0181804 -1.1897917 0.554353 0.38840005 0.28695065 0.27561897
0.62417686 -0.5341284 0.61791587 0.8210461 -0.7163353 0.1965213 -0.16547067 0.788242
0.56754196 0.75000805 0.9886427 0.76514643 -0.73352975 1.1786312 0.8456573 1.1574128
0.11865006 0.98984855 0.3434614 0.21207878 0.660074 0.34643498 0.5252828 -1.0618339
0.6742929 0.72549057 -0.37517342 0.16035046 0.27048966 0.782989 0.9318354 -0.2940539
0.37294662 0.6386006 -0.106245145 -0.13082919 -0.24332936 -0.74444485 0.33313456 -0.2336673
-0.09490494 0.44328734 0.5788006 -0.80133307 -0.3627522 -0.0376847 1.1954756 -0.72950196
0.24134618 1.2931538 0.35832673 -0.9734611 -0.4910949 -0.20730953 -0.33584478 -0.96671474

bn4.running_var f4 [64]
00000000: 1a69 023f df77 f43e 46d6 6f3e e437 943e
00000010: b2aa 503f da5e aa3e db32 993e 639d dd3e
00000020: eca4 8f3e 694f d33e 27a3 b63e 041a 8c3e
00000030: 5c41 7f3e d3b3 903e d1b7 cc3e 851c 5a3f
00000040: d1d0 703e 4f01 8f3e d82a 8f3e 7ba8 9c3e
00000050: bbf7 c53e ac0f 823e 198f c43e 8937 ab3e
00000060: 7b21 003f ad81 c93e 7115 923e c334 633f
00000070: f328 f43e 5517 ca3e a5e0 cd3e 4003 b73e
00000080: 1f7c a03e 4c52 c73e 4974 0c3f fc72 db3e
00000090: 653d d23e 8ce5 a83e b36a ea3e 1b02 013f
000000a0: 7bb6 9e3e c1af d93e b5d6 333f 8b44 cc3e
000000b0: 5430 e13e b162 2a3f 7e5e ef3e be3e c13e
000000c0: ceb3 aa3f 3c9c a03e 18ae ec3e 5484 863e
000000d0: c3b8 b83e c4cf 023f d106 b93e 76e8 913e
000000e0: 5351 9e3e 1a83 de3e 27ca 273f ecaa 8b3e
000000f0: 2b3d 4a3f 7398 a03e dde7 043f 0cc2 843e
0.5094162 0.47747704 0.23421583 0.2894889 0.8151046 0.3327549 0.29921612 0.4328414
0.28055513 0.41271523 0.3567135 0.27363598 0.24927276 0.28262195 0.3998399 0.8519977
0.23517157 0.27930686 0.27962375 0.3059729 0.38665566 0.25402582 0.38390425 0.33440807
0.5005109 0.39356747 0.28531983 0.88752383 0.47687492 0.39470926 0.40210453 0.35744667
0.31344697 0.38929975 0.5486494 0.42861164 0.41062465 0.3298763 0.4578453 0.5039384
0.30998597 0.42516902 0.7024949 0.39896044 0.43982184 0.6655684 0.4675178 0.3774318
1.3336122 0.31369197 0.46226573 0.26272833 0.36078462 0.51098275 0.36138013 0.28497666
0.3092142 0.43459398 0.65542835 0.2727884 0.78999585 0.3136631 0.51916295 0.25929296

lin.weight f4 [36, 64]
00000000: 8b00 1abe 5026 193e 106c abbd c110 09bf
00000010: 8d58 0fbb 3622 cfbe 15b5 6bbc 3806 ab3e
00000020: 15e2 843e 68e6 2f3e 1183 79be f703 69bc
00000030: d550 8ebd a371 3f3e 155d a7bd 4d9e a6be
00000040: c86f 72be cc30 6cbe 6ebc 0fbe 6b90 c6be
00000050: c172 22bd ac66 d7bd 5208 aebd 7f27 bebe
00000060: d22d 613e c8d3 973d 2df8 8fbd d14a 2dbe
00000070: 96cf e53c 2640 c63d acfb 3a3e 8a93 7a3d
00000080: 6320 203e f790 b43e 1568 4e3d bd59 02be
00000090: 1c68 373e d1a6 833e 21b3 a9be 8041 97be
000000a0: b538 52be 6748 b3be c8cd 4dbd 0d03 5f3e
000000b0: f5d2 9ebc 5be5 99bd 8f1e b33e 1f38 383e
000000c0: 8b6b 06bf a3bc 593e 6306 023f 107c 063e
000000d0: 54d9 333e 98a6 2fbe 9c74 ddbb a8df f9be
000000e0: 5cf2 48be 9fe6 49be b60a dabd 7cd0 53be
000000f0: f22d 34be f073 51be f4e8 b33d e9b4 833d
00000100: 9845 b83e 968e a9be 116a 643d dcdc f63d
00000110: fb19 16bf 4526 693e 1ba9 f8be e081 2bbf
00000120: 5bc4 3ebe 140b a3be 2fc5 4e3e 30e1 0ebe
00000130: 653c 07be 582b 90be 4c4a acbc 88bd 41bd
00000140: 7636 d63e 9469 8b3e cd2b c63d d89a b93e
00000150: 860a b4be ab2e a73e 2c4a 7d3e ad55 993e
00000160: 5bb6 373e a123 c7bd abc0 d33e 2f7d 43bf
00000170: ae81 7bbe f21d 9dbe 6983 96be 506c 13bf
00000180: 58af 86be 2e73 08bf 883c 113e 5aeb 533e
00000190: 288e d6be f94b 2d3e fc71 823e f22d 093e
000001a0: 1120 f4bc 20c6 9c3e 69d4 88bc f3d0 05be
000001b0: f906 803e f4e5 b0be 8b9e 66bd afb8 11bf
000001c0: e738 80be 158c 043e 5921 a73e 901e f4be
000001d0: f01d b6be 56ab 783e 9663 933e 1d05 cd3c
000001e0: 3263 533d 509c 5f3e 9e1a fcbe fc38 9bbe
000001f0: d253 8d3e 0499 993e ad69 0cbf db94 9dbe
00000200: 6493 7fbe 0f95 debe 5aa7 65bd bf5d e4be
00000210: 3451 c3be 1b4c 063e 5516 aabe 7be5 d8be
00000220: 2b6f bfbe a8d7 4fbe ae31 383e ae50 cf3d
00000230: cdb3 923c 2a2c 01bf ae16 10bd 3cce 99be
00000240: 9149 da3e 5c02 0b3e b401 2abe e7a2 553e
00000250: 5d6a 90be 1d76 373e 58d3 483e 1d23 403c
00000260: 53a4 b53e 6118 d93e 075b 463e cf39 11bf
00000270: 53fc 11bf dd64 14bf 5f55 d9be e473 73be
00000280: 5099 9a3b 800b e6be 6654 ab3e 3f0c 7f3e
00000290: 5187 d1be 8885 efbe 637b 13be 3750 9d3e
000002a0: 2fd7 44be 3c0f 2e3e a7ae 61be d08c 0bbf
000002b0: c73e ef3e b12e c93e d927 583e 076a b7be
000002c0: 5b35 c43d 3037 c13e b88f de3e 30f3 223e
000002d0: 7ace 04be af44 3dbf eda9 813e 39c6 e8be
000002e0: 4467 e93e edf4 5f3d 686c 833e be22 a1be
000002f0: 77dc 1f3d 100c 9e3e 520b 9fbe 2a4d 23be
00000300: 5837 2abe db02 b83d 7791 b43d 0f24 1f3d
00000310: a811 1abf 6ceb 52bd da6a 07bf dd65 0cbf
00000320: d086 21bf 9fdf f0bd aa24 733e f436 50be
00000330: bd73 0fbe 721b cabe 1c2c d2be f18f 82be
00000340: 4942 c23e 8cbd 503d 6cae d63c 36d1 033e
00000350: 254c c73d 9ed5 aabc 710e a33e 35a4 863e
00000360: 6f0a 8cbe 9761 133e 49a2 fcbe 4702 4fbf
00000370: 98c8 58bf a319 03bf c8eb 0ebf 6574 d33c
00000380: 8b64 903e a859 dbbe 64c5 97bd 00ac 33bd
00000390: c3b1 3abe 4d66 c7be 9fbe 73be c409 8a3e
000003a0: 7e6d 833e d9dc f63d 067e 6b3c e62f 38bf
000003b0: fe11 743e 1494 44be 410d b3bd 531a 153e
000003c0: d3ac 603e 6d3e 1a3e 1b4d 68be 66c1 3f3e
000003d0: 8f5e 12bd 348d 1a3c 92bd 2abd f96c 3abe
000003e0: 9af3 a43e 778d e23c f09e e1bc 2547 0bbd
000003f0: babf de3d a947 8c3e cd7c 84be 2b07 0d3e
-0.1503927 0.14956021 -0.08370221 -0.5354119 -0.0021872849 -0.40455788 -0.014386435 0.33403182
0.25953737 0.17177737 -0.24366404 -0.014222137 -0.06949011 0.18695693 -0.08172051 -0.3254265
-0.23675454 -0.2306549 -0.14036724 -0.38782057 -0.03966022 -0.1051763 -0.08497681 -0.37139508
0.21990135 0.07413441 -0.07029758 -0.16923071 0.028053086 0.09680204 0.18260068 0.06117586
0.15637355 0.3526685 0.05039223 -0.12729545 0.17910808 0.25713208 -0.33144477 -0.2954216
-0.20529445 -0.35016176 -0.050245076 0.21778508 -0.019387702 -0.07514449 0.34984252 0.17990158
-0.5250785 0.21263365 0.50790995 0.13133264 0.17563373 -0.17153394 -0.0067582857 -0.4880345
-0.19623703 -0.19716881 -0.10646574 -0.20684999 -0.17595652 -0.20454383 0.08784667 0.0643099
0.35990596 -0.33116597 0.055765215 0.12053844 -0.58633393 0.22768505 -0.48566517 -0.6699505
-0.18629591 -0.3184439 0.20192407 -0.1395309 -0.13206632 -0.2815807 -0.021031521 -0.04729989
0.41838425 0.27228987 0.09676323 0.3625095 -0.3516428 0.32652792 0.24735326 0.29948178
0.17940657 -0.097235925 0.41357931 -0.7636289 -0.24561188 -0.3068691 -0.29397133 -0.57587147
-0.26305652 -0.5330075 0.14183247 0.20695248 -0.41905332 0.16923513 0.25477588 0.13396433
-0.029800447 0.30619907 -0.016702848 -0.13067989 0.2500532 -0.3455044 -0.056303542 -0.5692243
-0.25043413 0.12944062 0.3264263 -0.47679567 -0.35569715 0.2428411 0.28786916 0.025026852
0.051608272 0.21836972 -0.49239057 -0.30316913 0.27603012 0.29999554 -0.5484875 -0.3077763
-0.24958569 -0.43473098 -0.056067802 -0.44602773 -0.3814789 0.1311497 -0.33220163 -0.4236258
-0.37389502 -0.2029711 0.17987701 0.1012281 0.017908001 -0.50458014 -0.03517788 -0.30040157
0.42634252 0.13575119 -0.16602212 0.20862924 -0.2820615 0.1791615 0.19611871 0.011727122
0.35476932 0.42401412 0.19370662 -0.56728834 -0.5702564 -0.57966405 -0.42447945 -0.23774678
0.0047179833 -0.4493065 0.33462828 0.24907015 -0.4092355 -0.46781564 -0.14402537 0.30725262
-0.19222711 0.16997999 -0.22039281 -0.5451174 0.46727583 0.39293435 0.2110895 -0.3582308
0.09580489 0.37737417 0.43469024 0.15913081 -0.1296939 -0.7393293 0.25324956 -0.45463732
0.45586598 0.05467694 0.25668645 -0.3147182 0.03902861 0.30868578 -0.31063324 -0.15947405
-0.16622674 0.0898492 0.08816808 0.038852748 -0.6018319 -0.051494047 -0.5289742 -0.5484293
-0.6309633 -0.11761402 0.23744455 -0.20333463 -0.14008994 -0.39474064 -0.41049278 -0.25500444
0.37941197 0.050962016 0.026206218 0.12872776 0.0973132 -0.020853814 0.31846955 0.26297155
-0.2735171 0.14392696 -0.49342564 -0.8086285 -0.8468108 -0.51210994 -0.55828524 0.025812337
0.28201708 -0.4284184 -0.07410696 -0.043865204 -0.18231873 -0.38945237 -0.23803185 0.26960576
0.25669473 0.12053842 0.014373308 -0.7194809 0.23834988 -0.19197112 -0.08742762 0.14560823
0.21940927 0.15062876 -0.22685663 0.1872612 -0.03573471 0.0094330795 -0.041684695 -0.18205632
0.32217103 0.027655346 -0.027541608 -0.034003396 0.10876413 0.27398422 -0.25876465 0.13772266

lin.bias f4 [36]
00000000: 768f f43b 012b 51be a351 4cbb 56d0 dbbd
00000010: 07a8 e53d 6e34 0dbd 0492 783d 0ac3 943d
00000020: 7488 ccbc 6015 533d 5fe6 833d 2710 11bd
00000030: 50d3 afbd 1317 53bd 927b 2b3d 5291 953d
00000040: bd9b 333b 6d1b 833d c57f 0ebe 7c95 56bc
00000050: 74ee b83c 1212 3e3d 46d3 9c3d e54f 2d3d
00000060: 71f9 73bc 9ee1 97bd 1209 c6bd e93e f13d
00000070: add3 e6bd 7ffa a9bc 4239 27bd aabb 72bd
00000080: 4718 0dbe 3179 46be 8ae4 af3d 2556 28bd
0.007463391 -0.20426561 -0.003117659 -0.10733096 0.11213689 -0.03447383 0.060686126 0.07263763
-0.02496741 0.051534057 0.06440424 -0.035415795 -0.085852265 -0.051535677 0.041865893 0.07303108
0.002740606 0.064017154 -0.13915928 -0.013097163 0.02257464 0.046403952 0.07657485 0.04231252
-0.014891014 -0.0741608 -0.09669699 0.11779577 -0.11270843 -0.020749329 -0.04082609 -0.059261
-0.13778792 -0.19382168 0.08588512 -0.04109778

conv.0.weight f4 [8, 1, 5, 5]
00000000: 88ad 033e 0a33 9c3e 9486 df3e f4a9 ef3e
00000010: fd9f ec3d 5e70 393e c826 203e d615 f23d
00000020: 35de bb3e b2c5 f13e 5483 1b3e f531 d3bd
00000030: 0894 eebd faa3 e73d 5772 13be cda4 73be
00000040: 8681 dbbe 582a 69be e52c 3dbe 5357 5c3c
00000050: 3766 ddbd fdee c1bd 2b12 7fbe 1386 fabe
00000060: 04b8 edbe 2391 b43e 01d2 353f fbed ed3d
00000070: 43ca b83d 0292 93be d7c0 343e c78e 5a3e
00000080: 082d 763e 08ce 55be cf39 b4be 5b8e 9d3e
00000090: 6b61 143f d7e5 e1be bc3c 203f 4e4d 3c3f
000000a0: ecda 9fbe 8f43 b73e 8b41 273e 256e d8bd
000000b0: bdb0 523d 39b5 333e d577 493f aa48 c33e
000000c0: 4f65 4f3e 5cb3 dcbd 0f88 a03e f322 91be
000000d0: 3d0c 6d3e 7284 ea3d c0db 67be e5b5 d43d
000000e0: e948 773e 221c cc3e 6a07 363f c5f5 963e
000000f0: c55a fb3d 349e a5be 61f2 10be d7e2 de3e
00000100: 6d80 62be 821f b8be 3b39 14be 5f93 cdbd
00000110: 5cb4 a0bd c773 31be 8867 4fbe 2c37 11be
00000120: 79fd 0c3e a306 e9bd c86d a4be 0404 813e
00000130: 94e2 043f 8432 3fbd 912b 42bd b19e 62be
00000140: 48d9 613e dc55 b93e 143a bebd fbec 363e
00000150: 35b0 c03e b3db 253e c54f ad3e ea25 463e
00000160: 1863 7d3d 080f f73e 534b e63e 4cf0 503d
00000170: 2b02 3c3e c143 f23d 82d1 80be a7a4 dabd
00000180: 2ccc 87bd 300d 8f3e 2fa6 e8bd 1c03 1c3f
00000190: 0928 ba3e 795d e83e eaf2 323e ee96 093e
000001a0: 5acd 9dbc 2e43 3abe 51ac ea3c f6f6 953e
000001b0: 318c 553e c99f 543e 8725 a1be f41e 92be
000001c0: d0ff 9dbe d354 c4be 5b89 30be 5a16 2d3e
000001d0: f535 7d3e b72a 9c3e 760d 8f3e b116 ac3e
000001e0: 2bb1 313d d808 37bc 21da 1e3d b247 7a3e
000001f0: 68c5 073e 1895 913e 263d 7abe 23c5 d8bd
00000200: a60f 35bf ea03 b9be ad81 b93e cd2b cebe
00000210: d3c0 943d 04ea 92be 10c1 d93e 7355 20bf
00000220: b401 49bf 1a65 b4be 2be9 c1bd 8aa3 913e
00000230: 0489 ff3d 9c38 9bbe 31f0 fdbd 03ee d3be
00000240: f741 29bf 9ab5 a73e 8ce1 9a3d 4926 9e3d
00000250: 13bf a03d 5e5f 01be 7952 04be f1dd 943e
00000260: b7d2 843c dcb0 063e ea21 02be aa5b d2bd
00000270: 26f7 a2be fe1f e6be 0ee8 5cbf 0f27 00be
00000280: 7555 47be 0396 56be 4089 ebbd dd04 0e3e
00000290: b1c5 7dbe 15e2 d4bd 7193 c2bd de89 e7be
000002a0: d3f4 0abf 0e1e e5be 0f5e 7cbe 4bd2 80be
000002b0: 507d bbbe bde1 c5bc e115 13be 4ca2 393e
000002c0: 231c c73d 7305 883e b48d 453e 722f 2b3e
000002d0: c25a 113e d48c 083e 1357 223e c571 803e
000002e0: d67a d03e 9aca 34be f242 29be 8061 243f
000002f0: 3417 a1bd 8392 7e3e b497 183f e313 d63e
00000300: da63 153e f50c c93e 7378 fe3a d920 243e
00000310: 4ce2 123f 77d2 823e 2e3b b7bd 5b2b d43d
0.12859166 0.3050769 0.43657362 0.4680935 0.11553953 0.18109271 0.15639794 0.11820571
0.36692968 0.47221142 0.15186816 -0.10312263 -0.116493285 0.11310573 -0.14399086 -0.23793335
-0.42872256 -0.22770059 -0.18474157 0.013448554 -0.108105116 -0.094694115 -0.24909274 -0.48930416
-0.46429455 0.3526698 0.71023566 0.11617657 0.09022953 -0.28822333 0.17651688 0.21343528
0.24040616 -0.20879376 -0.35200354 0.3077267 0.5796115 -0.44120666 0.62592673 0.7355546
-0.31221712 0.3579373 0.16333596 -0.105678834 0.051438082 0.175496 0.78698474 0.38141376
0.2025349 -0.107763976 0.31353804 -0.28346977 0.231492 0.11451043 -0.22642422 0.10386256
0.24148907 0.39865214 0.7110506 0.29484382 0.12273172 -0.32347262 -0.1415496 0.4353244
-0.22119303 -0.3596154 -0.14474957 -0.100378744 -0.07846901 -0.17329322 -0.20254338 -0.14181203
0.13768567 -0.11378219 -0.32115006 0.25198376 0.5190823 -0.046679035 -0.04740483 -0.22130848
0.22055542 0.36198318 -0.09288421 0.17863838 0.37634435 0.1619709 0.33849922 0.193504
0.06186208 0.48253655 0.44979343 0.051010415 0.18360202 0.11829329 -0.25159842 -0.10675936
-0.066307396 0.2793975 -0.11359822 0.60942245 0.3635867 0.45383814 0.17475477 0.13436481
-0.019262958 -0.1818969 0.02864662 0.2928998 0.2085426 0.20764078 -0.31473944 -0.2853924
-0.30859232 -0.38345966 -0.17239897 0.16903058 0.24727614 0.3050134 0.27939957 0.33611062
0.04338185 -0.011171542 0.038782243 0.24441412 0.13258898 0.28434062 -0.24437389 -0.10584476
-0.70727 -0.361358 0.36231747 -0.40267792 0.07263341 -0.28694165 0.42530107 -0.62630385
-0.78518224 -0.35233384 -0.094683014 0.28445083 0.124773055 -0.30316627 -0.123993285 -0.41392526
-0.6611628 0.32755738 0.07562551 0.07722146 0.078489445 -0.12634036 -0.12922086 0.29075578
0.016213758 0.13153404 -0.1270825 -0.1027139 -0.31829184 -0.44946283 -0.8629159 -0.125149
-0.19466193 -0.20955662 -0.11500788 0.13869043 -0.24782445 -0.10394684 -0.095007785 -0.45222372
-0.5427982 -0.44749492 -0.24645256 -0.2516044 -0.36619043 -0.024155492 -0.14363815 0.18128318
0.097221635 0.26566657 0.19292337 0.16717318 0.14194778 0.13334972 0.15853529 0.250868
0.40718716 -0.17655411 -0.16529444 0.64211273 -0.07865754 0.24860577 0.5960648 0.41812047
0.14588872 0.39267698 0.0019414559 0.16028155 0.5737655 0.25551197 -0.089468345 0.10359832

conv.0.bias f4 [8]
00000000: 5fa5 093c 4368 c8bd f5e9 78bd 625c 83bd
00000010: 0368 9cbc c343 c73d 5fb2 1bbc cbff 203a
0.008401244 -0.09785511 -0.060769994 -0.06414105 -0.019092565 0.097297214 -0.009502976 0.0006141632

conv.1.weight f4 [8]
00000000: 0c35 a23f a73d 4f3f 7903 563f d999 613f
00000010: 051a 833f c690 7e3f 9c6c 913f bed8 663f
1.2672439 0.8095345 0.8359905 0.8812538 1.0242316 0.99439657 1.136127 0.9017447

conv.1.bias f4 [8]
00000000: fac0 293e 0cc5 bb3d 62f4 bfbe e02e 79bd
00000010: 3f9d 41be 87c0 c4bd 7351 5d3e d1a1 a3bd
0.16577521 0.09168443 -0.37491137 -0.06083572 -0.18907641 -0.09607034 0.21613102 -0.079898484
