checkpoints/Archive/linear_spec.pt (torch, 366941 bytes, 86 tensors)

conv1.weight f4 [8, 1, 5, 5]
00000000: a602 893d 610d 87be 6b18 933a da33 07be
00000010: f13a ec3d 4ea1 1fbf 9980 98be 3c36 49bd
00000020: c1a6 ad3e 3e52 873e 5b67 c6be ba14 dc3d
00000030: 4a43 6abe 3c16 10be 9ce0 2a3f 1342 003e
00000040: 93e1 323e 596d fcbc 8c1a d83e 3487 e83e
00000050: e078 ee3d e0a3 35bf 9230 a03d 5ebd 03be
00000060: 4c19 993e e956 b2bc 25f8 23bf d780 a83e
00000070: 3a5e a2bd f4fe be3c 8eec c53d b3d2 993e
00000080: a7cb 49bd cbbd 1d3e 7eb6 63be 3017 5a3e
00000090: 486f 563d 1e51 b1be 3ed9 06bf eb90 c53d
000000a0: cbe1 cebd d286 fe3c ff3d 84be f1f4 49be
000000b0: 70bf 36be d64d a33d 6cc1 163f 6b06 303f
000000c0: 1662 1e3f aea7 ea3e 5e0e 0bbf 8b93 cabe
000000d0: 26ba dbbe b060 7bbe 29d5 83be 8db8 98bc
000000e0: be33 02be 74c4 8b3e 5f01 e6be 8741 e03d
000000f0: 975f 9bbe 1b65 1abf bbff 4c3d 07d3 ed3e
00000100: 3ffb 773e 6336 73be 9b2e 86be 8ccb 37be
00000110: d1f0 53be 9279 923d e135 c5be 52af a0be
00000120: 10a8 e73e 5702 7cbe 9571 453d 7c60 803e
00000130: 7d95 473d 9666 ce3e 316a 503d cb8b 1d3e
00000140: c828 1f3e 4410 bd3d 9b6b ad3d 129b f73e
00000150: 001f a83e fd5f a53e 4040 fa3d 71ae 31be
00000160: 3f56 493e 6913 0e3d 9545 b73d 66e7 c83e
00000170: 3b25 9ebe 062d 69be eaed 873e a636 3ebe
00000180: 1154 54bf 9297 7cbd 2481 10be 76e1 37bf
00000190: a78c f63d 44d8 4ebe afc0 903e a179 d83d
000001a0: 1e7a 1bbd bf4b 58be 9df8 b93d 4a20 bbbe
000001b0: 1d52 a7be 3d15 0ebf 27c8 d53e 3f4b f7bc
000001c0: fed6 22be 7be5 b0be 2852 953d 00d0 c13d
000001d0: 9d53 073e cc47 a63e a88a c93e 1934 58be
000001e0: b683 6d3e f312 eabe 4dca 5bbd bbc3 b83e
000001f0: 6539 84be 7c30 7ebb 43ea e2be abca 87bd
00000200: 8d24 e13e 1b9b 3fbd ec1b 8d3d e03b 54bf
00000210: c651 cb3e d70c 4bbd e2e0 56be 7b20 523e
00000220: a2b1 15be 40c0 833d 2077 90bd e767 60be
00000230: c7f5 653e e240 97be eb69 9fbe 9ecb 603e
00000240: 396c 8a3d 9870 9bbe 4777 80be 7f71 71be
00000250: 1915 483e ee9e 43be e173 90be c211 be3c
00000260: 8c6c f83e d815 4f3e 6e22 383f f497 823e
00000270: 219d c03d ebf5 d83a 6e10 a73e 0802 c1bd
00000280: 9591 15be 38c7 ba3d 0540 063f cb74 d43d
00000290: 836e 1a3f c5d7 3fbc 4719 1b3f 0e1b b0bd
000002a0: 0d18 553e b6a2 123f 3abf 0f3e 85a4 3abf
000002b0: a413 df3e b5cd ab3d 2945 a1be fc4b 1b3e
000002c0: b42d ce3d 6c3f a0be f450 78be f973 b3be
000002d0: ebb4 bf3d b56a dcbc 04ae 6c3e 10c0 0fbe
000002e0: bd85 053f efcc c23e a65a 6b3e c52b 56bb
000002f0: 1d5e b2be 6515 0dbf d456 1bbe b0b5 a1bc
00000300: 9ad1 99be d458 efbe 6468 a83d 5609 9c3e
00000310: b159 6fbc d422 c5bd 311e 43be 00c9 e9ba
0.06689958 -0.26377395 0.0011222487 -0.13203374 0.1153468 -0.62355506 -0.29785612 -0.049123988
0.33916286 0.26429933 -0.3875073 0.10746141 -0.22877231 -0.14070982 0.66748977 0.12525205
0.17468862 -0.03081386 0.42207754 0.45415652 0.11644149 -0.7095318 0.07821764 -0.12865207
0.29902112 -0.021769958 -0.64050514 0.32910797 -0.079281285 0.02331493 0.0966426 0.30043563
-0.049266484 0.15404432 -0.22237584 0.21297908 0.05235222 -0.346322 -0.52675235 0.096467815
-0.1010166 0.031070147 -0.2582855 -0.19722344 -0.17846465 0.079738304 0.5888889 0.68759793
0.6186842 0.45831054 -0.543188 -0.3956569 -0.42915457 -0.24548602 -0.25748566 -0.018642688
-0.1271505 0.2729832 -0.4492292 0.10949998 -0.30346367 -0.60310525 0.05004857 0.46450064
0.24216937 -0.23751216 -0.26207432 -0.1794874 -0.20697333 0.07152094 -0.3851767 -0.3138376
0.4524541 -0.24610268 0.048204023 0.25073612 0.048726548 0.40312642 0.050882522 0.15385358
0.155429 0.09231618 0.0846779 0.48360497 0.3283615 0.32299796 0.12219286 -0.173517
0.19661807 0.03468648 0.089488186 0.39239043 -0.3088778 -0.22771081 0.26548702 -0.18575534
-0.82940775 -0.061667986 -0.14111763 -0.718284 0.12038546 -0.20199686 0.28272006 0.10570074
-0.037958257 -0.21122645 0.09080622 -0.36548072 -0.32679835 -0.5550116 0.41754267 -0.030187247
-0.15902326 -0.3455008 0.07291061 0.09463501 0.1321549 0.32476652 0.393636 -0.21113624
0.23194775 -0.45717582 -0.053659726 0.3608683 -0.2582504 -0.0038786223 -0.44319353 -0.06630453
0.439732 -0.04677878 0.06890091 -0.8290386 0.39710826 -0.049572792 -0.20984223 0.20520203
-0.14618543 0.06433153 -0.07053971 -0.21914636 0.22457038 -0.2954169 -0.31135496 0.21952674
0.06758923 -0.3035934 -0.25091 -0.23578452 0.19539298 -0.19103596 -0.2821341 0.023201827
0.48520315 0.20223176 0.71927536 0.25506556 0.0940497 0.0016552781 0.32629722 -0.094242156
-0.14606316 0.09120029 0.52441436 0.10373839 0.6032488 -0.011709158 0.60585445 -0.0859891
0.20809956 0.5727953 0.14037791 -0.72907287 0.43569672 0.08388845 -0.31498078 0.15165704
0.10067311 -0.31298387 -0.24249631 -0.35049418 0.09360679 -0.02690635 0.23113257 -0.1403811
0.52157193 0.38046977 0.22983798 -0.0032679897 -0.34837428 -0.5511077 -0.15169841 -0.019739956
-0.30042726 -0.46747458 0.08223036 0.30475873 -0.014608786 -0.096257836 -0.19054486 -0.0017836392

conv1.bias f4 [8]
00000000: f0f4 60bd 7421 e43c 7377 ea3c 76b3 823d
00000010: b76d 96bd 1bbf 503d d671 d1bc 458d dfbb
-0.05492109 0.027847983 0.028621411 0.06381886 -0.07345145 0.050963502 -0.025566977 -0.0068222606

bn1.weight f4 [8]
00000000: a8ca 753f 3379 823f 0ba2 923f 32ce 8a3f
00000010: 396b 4f3f d5a6 893f 502b 7a3f a828 7e3f
0.96012354 1.0193237 1.1455702 1.0844176 0.81022984 1.0754038 0.9772234 0.99280787

bn1.bias f4 [8]
00000000: 2ff2 0ebe 90f2 623b a3e2 273d 05de e0bc
00000010: 1568 b6bd 7fc9 1fbe 9a54 b6be a0c0 61bd
-0.13959573 0.0034629442 0.040987622 -0.027449617 -0.08906571 -0.15604208 -0.3561142 -0.055115342

bn1.running_mean f4 [8]
00000000: 06bc 86bd 800e a53d e523 54be c7ae 193e
00000010: 7871 82bd c3cb 463c 5ec3 843e 0575 0ebe
-0.065788314 0.08059406 -0.20716818 0.15008079 -0.06369299 0.0121335415 0.25930303 -0.13911827

bn1.running_var f4 [8]
00000000: 61af 1840 6391 973f 5d63 2941 f378 ca3f
00000010: cd68 343f 6fc0 3540 c969 4b41 eb59 3240
2.3857043 1.1841244 10.586759 1.5818161 0.70472413 2.8398702 12.713326 2.7867382

conv2.weight f4 [16, 8, 3, 3]
00000000: 63bc f53c bbae 093d ba7d 5e3d 530a 1ebd
00000010: 34ea dd3c c93d 6c3e 943b 15be 142a ad3d
00000020: 4340 edbd 1275 e73d 6d5b 373e 49ad 463d
00000030: e6ae a7be cd79 c7be 3cb7 21be c91b 2e3c
00000040: ccdc 48be 10b2 043e bde8 1f3e ce9e 1fbe
00000050: 22a9 6abe 238e d1bd 9a8b 383e a7e6 e53d
00000060: a1b3 8abd 22d7 353e d74f ddbd 00c2 afbd
00000070: ce80 f2bd 2c35 b1be 4146 6fbc 3622 f0bd
00000080: 0738 f1be ad4a 21be 8551 92bd 633f 8bbd
00000090: a876 e9bd 0cfc 00bf c0a0 583e 4c44 96be
000000a0: 2f8b 39be c21a 243e d0ce e6bd f236 cdbc
000000b0: 9e83 91be 1887 283d c22e d53e 3488 acbe
000000c0: b3cd 813e 05b8 613e 6ea3 bf3d 4c71 883d
000000d0: bc8e 083e cbd6 41be cb0d a0bd d3f9 3e3d
000000e0: ec9d 4c3e 9dc6 aebe 13a6 413e c799 76be
000000f0: 8320 3bbe 2830 553e 9fa7 b13e 1903 99be
00000100: 1850 9f3c e7e2 913d 869d 203d d477 b73e
00000110: 4c83 1e3e bbc0 803a 89b5 183e a8ba 7cbe
00000120: 2081 96be 41b5 91be d4c9 a2bc 31f2 13bd
00000130: 279a 36bd 7b56 8b3d 4500 a83e 3e4e ac3e
00000140: 5746 843e d0f3 0d3d b3e9 f13d 6299 053e
00000150: 2a03 993d 694c 8f3e f1de 483e 3450 723d
00000160: 93ff b93d 1512 cb3d 67c1 d1bc f2df bc3e
00000170: 280d e73b 5978 713d e461 a83d 6a36 463e
00000180: a4d2 85bd 20cb 153e 8c44 4e3d 00ba 1c3e
00000190: d407 0e3e 299d 003e 2d98 07be 5c05 e6be
000001a0: c429 c4be 691a 38be 23f3 61bd 6a9c dbbd
000001b0: 6405 5abe d70c 193e 51dc d2bc b160 03bc
000001c0: 22a3 a7be 89dc a4be 812a 3f3d ef46 2e3e
000001d0: eb1c da3b 2f2e a2bc 05f0 a33d 254a 05ba
000001e0: 9775 b53d 7f5e 15be 210d 18be 57c0 ca3e
000001f0: 76fc 573d 59b0 f0bd 31b9 bc3d 80e3 183f
00000200: 38e0 f43d 5874 26be e378 b7bd 2dd9 d9bd
00000210: 18a0 4b3e b272 063e d9a8 263e 8cf0 303e
00000220: 2bf7 d3bd c812 443e c2a2 3abd 32c8 fcbc
00000230: f8f1 99be 861b 01be 57bb 923e c5ca 92bd
00000240: eeff 04be f9b5 ef3d 895f 1a3d 8c38 4a3e
00000250: d0ac 7b3e 73bd 583e 40d6 633c 2db9 f8bc
00000260: b8c5 b63c 7eb1 933d c164 993d 4a65 573e
00000270: a4c8 453e 9650 273d 4924 2ebe cfb0 033e
00000280: b552 f03d f04a 78bd d0b9 ff3d 3c5c 943d
00000290: cbc4 bb3d 910e 44be 2c9e d63d 7c89 2fbe
000002a0: 00d2 13be 13ab 4e3d e6be 783e 5d1b d5bd
000002b0: 9e9e 12be 8a8e 62bc fcb6 3a3b a878 88be
000002c0: f701 50be 9f29 4a3e 4562 9e3e 2aa1 1a3e
000002d0: de48 d43d e096 233e 6457 0dbd ef8b c43c
000002e0: 6164 583e f149 593e 9571 9ebd d720 b1be
000002f0: 1021 0fbe 51b0 413e 1113 fb3b c9a7 483d
00000300: 5e12 2a3e 7572 813d 6a89 ebbd e849 5b3e
00000310: bbf5 263b b0ca 55be 5ed9 883d 343d 5dbe
00000320: 3bd5 ddbe 774f 1abe 969f 9a3d c4cd 09be
00000330: 721e a7bd 98ef 613e 636d a53e 9841 e6bc
00000340: f7ba 203d 4cea 3bbc 28b3 98be 7bad cf3d
00000350: 005c 94bd dfb2 0a3e 397e e03d 21b4 6e3d
00000360: 4dc6 983c e780 cabd b556 60be 7622 91bc
00000370: 1888 bfbe d3b4 81be 926f 65bd 4669 4e3e
00000380: f001 c3bd b73b 9d3b c62f 01be 1b0f 93bc
00000390: 761c 003c 32fe 183c 77d0 5c3e b7fc 3c3d
000003a0: 1fc5 ed3b 01d0 8e3e 1007 76be a833 5ebe
000003b0: 7227 a5bd 6aa1 1cbe bf2b 92be 6cf2 b6bd
000003c0: 9495 b5be 0315 01bf 9b62 4ebd d1c9 3dbd
000003d0: f2c1 20be d926 193d 0c00 c8bd 457b 10be
000003e0: 0786 7cbe 0dcb 21be 6365 a7be 893c ae3d
000003f0: b848 663e 140d 783e ad1c 1b3e 2d26 4b3e
0.029997056 0.0336139 0.05431912 -0.038584065 0.027089216 0.23070444 -0.14573509 0.084552914
-0.115845226 0.11301626 0.1790597 0.0485051 -0.32750624 -0.38960114 -0.15792555 0.010626742
-0.19615477 0.1295855 0.15616126 -0.15587923 -0.22916082 -0.102321886 0.18022004 0.11225634
-0.06772543 0.17757848 -0.10806244 -0.085819244 -0.11840974 -0.3461088 -0.014604152 -0.11725275
-0.47113058 -0.15751143 -0.07144455 -0.067991994 -0.11399585 -0.50384593 0.21155071 -0.2934898
-0.181195 0.16025832 -0.11269915 -0.025050614 -0.28420728 0.04114446 0.41637236 -0.33697665
0.2535225 0.22042854 0.093573436 0.06662235 0.13335699 -0.18929593 -0.07815131 0.04662497
0.19982117 -0.34135905 0.18911009 -0.24082099 -0.18274121 0.20819151 0.34698197 -0.29885176
0.019447371 0.07123356 0.039212726 0.3583361 0.15479773 0.0009823063 0.14913 -0.24680579
-0.2939539 -0.28458598 -0.01987163 -0.036119644 -0.044580605 0.06803604 0.32812706 0.33653444
0.25834915 0.034656346 0.11812153 0.13046792 0.074713066 0.27987984 0.19616295 0.05915852
0.0908195 0.09915558 -0.025604917 0.36889607 0.007051129 0.058952663 0.08221796 0.19356695
-0.06534317 0.14628267 0.05035834 0.15305328 0.13870174 0.12559952 -0.13241644 -0.44925964
-0.38313115 -0.17978825 -0.055163514 -0.10723193 -0.21291119 0.14946304 -0.02573982 -0.0080186585
-0.32741648 -0.32199505 0.046671394 0.17019247 0.0066562793 -0.019797413 0.080047645 -0.0005084596
0.08860319 -0.14586829 -0.14848758 0.3959987 0.052731 -0.11752386 0.0921501 0.5972214
0.11956829 -0.16255319 -0.08958604 -0.10637126 0.1988529 0.1312969 0.16275348 0.17279261
-0.10349878 0.1914779 -0.045565374 -0.03085718 -0.3006742 -0.12608156 0.28658554 -0.071675815
-0.12988254 0.117046304 0.037688766 0.19748133 0.24577641 0.21166019 0.013906062 -0.030361736
0.022311077 0.07211588 0.074899204 0.21034732 0.1931482 0.040848337 -0.17006029 0.12860416
0.11734525 -0.06061834 0.12486613 0.07244155 0.09168395 -0.19146182 0.10479388 -0.1714229
-0.14435577 0.050456118 0.24291572 -0.1040561 -0.1431832 -0.013827929 0.0028490415 -0.26654553
-0.2031325 0.1974244 0.3093435 0.15100542 0.10365461 0.15975523 -0.03450717 0.023992507
0.21132042 0.21219613 -0.07736508 -0.34595367 -0.13977456 0.18914916 0.007662185 0.048988137
0.16608569 0.06320659 -0.11500819 0.21414912 0.0025476057 -0.208781 0.066820845 -0.21605378
-0.43326744 -0.15069376 0.0754997 -0.134574 -0.08160104 0.22064054 0.32310018 -0.02810745
0.039240804 -0.011469435 -0.29824185 0.10140511 -0.0724411 0.13544796 0.10961575 0.058277253
0.018649245 -0.098878674 -0.21908076 -0.017716628 -0.3740852 -0.2533327 -0.056014605 0.20157346
-0.09521854 0.0047983783 -0.1261588 -0.017951539 0.007819286 0.009337949 0.21563898 0.046139445
0.0072561647 0.2789307 -0.24026132 -0.21699393 -0.08064164 -0.1529595 -0.28549 -0.08932957
-0.35465682 -0.50422686 -0.050387006 -0.046335045 -0.15698984 0.037390564 -0.09765634 -0.14109524
-0.24660502 -0.15800114 -0.3269454 0.0850764 0.22488678 0.24223739 0.15147658 0.19838782

conv2.bias f4 [16]
00000000: 8570 a03c 736a a03a 302e 633d 1637 94bc
00000010: e1a3 803d a0ce a13d 8cb8 0bbd a928 2cbd
00000020: 92f0 cdbd ba6e 493d 877a 223d cd68 aa3b
00000030: 2235 d53b a7f7 cbbc 5117 9cbb 28b4 833c
0.019584903 0.0012238756 0.05546397 -0.018092673 0.062812574 0.07900739 -0.034111544 -0.042030964
-0.10055651 0.049177863 0.039667632 0.0052004815 0.006506578 -0.024898363 -0.0047635217 0.016077116

bn2.weight f4 [16]
00000000: 8b7d 813f 7e2d 963f 0501 843f 2982 693f
00000010: 6a54 743f 5b36 7b3f 7e5f 843f c7a0 6b3f
00000020: 77af a13f f109 7f3f 6ab3 683f c4e8 443f
00000030: 59a8 833f 3be1 5a3f a52a 763f 5202 823f
1.0116438 1.1732633 1.0312811 0.91214234 0.95441306 0.98129815 1.0341642 0.920422
1.2631673 0.99624544 0.90898764 0.7691767 1.0285751 0.85499924 0.9615882 1.0156958

bn2.bias f4 [16]
00000000: 4b89 e6bc b4c1 d5be bcb2 cdbe f5d9 a8bd
00000010: adae 23be 6e57 8dbd ec28 febb ff1c f4bd
00000020: e75c d0be 97e2 d5bd ef0d 4dbe a6d3 46bc
00000030: 3b88 5cbe 91e9 5abe 6201 1bbd 5699 2b3d
-0.028141638 -0.41749346 -0.40175426 -0.08244697 -0.15984602 -0.069014415 -0.007756343 -0.11919593
-0.4069588 -0.10443609 -0.20024846 -0.012135422 -0.21536343 -0.21378161 -0.037843116 0.04189428

bn2.running_mean f4 [16]
00000000: fca0 c8be 0437 e63e e850 ac3e 1ee0 5bbf
00000010: ba9c 4e3f 906e ecbe c191 51bf fd51 36bf
00000020: afc8 a83f 797e 90be 44ec d7be 97d3 e8be
00000030: 1b44 28bf e3ef d23d 4c7a 7dbd 2827 d7be
-0.3918532 0.4496385 0.33655477 -0.8588885 0.80707896 -0.46178102 -0.8186303 -0.71218854
1.3186244 -0.2822149 -0.42172444 -0.4547393 -0.6572892 0.10299661 -0.06188421 -0.4202206

bn2.running_var f4 [16]
00000000: c840 1c40 9a59 883f f787 363f cecd 763f
00000010: 477b 5c3f 6a3b f23f 3321 8240 37ac 293f
00000020: 282b c43f 23b4 e23f 7dd4 bf3f c529 1a3f
00000030: 1892 873f ea12 cd3f 9c57 e63f 2aa0 a740
2.441454 1.0652344 0.71301216 0.96407783 0.86125606 1.8924382 4.0665526 0.66278404
1.532567 1.7711223 1.4986721 0.60219985 1.0591459 1.6021397 1.7995486 5.2383013

conv3.weight f4 [32, 16, 3, 3]
00000000: 90fe 493d 437c e23d 97b9 d63d 4637 6dbd
00000010: 62ef e53d 65ad 8b3e 99c9 b6bd 5c4d 8ebb
00000020: 0a1e 6abd bb7e 82bd 19ed 2dbd a71f 23be
00000030: 4498 853c fb62 853e fef4 513d f677 9f3d
00000040: 8d5a a9bd a93e 38be 43fe eabb 91ef d7bd
00000050: 17f2 323d d9ca 793d b69f 5cbd 5309 acbd
00000060: 93ad 50be e13f a9bd 3ee4 b8bc da00 25be
00000070: 7262 a43d 6f31 88bd f3d8 4b3d f768 393e
00000080: d415 163d 1942 243a b9c0 c23b 6014 9f3d
00000090: 9612 c7bd 2a6e 7ebe d2ef e7bd bf2c 00be
000000a0: 14f0 ec3c d3fe a7bd 09a2 12be c986 04be
000000b0: c007 9c3d bd45 80bd 82ea ca3d 51b8 8fbd
000000c0: c881 62be 5c22 643c fe0e 66bd d394 d3bb
000000d0: a00c 013d 5af0 ecbd ef5b 4fbe 9425 08be
000000e0: ad78 a6bd 8c84 7fbe a0f7 3abd fc89 b6be
000000f0: 70aa 46be f24a 37be 5be5 5fbb e617 f73d
00000100: cc38 e0bd 036a 3b3b a12b 8d3c 085d d4bd
00000110: 897f 92bd d389 cebd 99a0 43be 739b ba3d
00000120: 8043 8b3d 4471 423e 2446 2bbd 8fb4 fc3d
00000130: bcff 7cbe 7ddb a0be c71d 07bc 72d0 ec3b
00000140: 4bf3 a1bc 92be e1bd 2d4a a9be d2b7 a8be
00000150: 7ba8 e3bd a2c5 95bb 3376 03bd 7f2b 8ebd
00000160: 67d1 a4be eeb7 84be 4ed9 1b3e f321 f33d
00000170: 4f18 a33b 21eb 00be 93ac 04be 7b8c c83d
00000180: 5382 3fbd 9985 0d3d 3f43 a83d cf3e acbd
00000190: 8925 913c aa32 f1bd 98b4 4abd 2543 abbc
000001a0: 9b04 323c 1032 803e 85c4 be3c 1072 ba3c
000001b0: c058 cf3c de82 153e 512a 6a3e ff52 a13c
000001c0: 89cc 1c3e dcdd fc3d 3d5c 993e 1b5f 5e3e
000001d0: 2da6 953e fe9c 39bc 0f28 14bd 760b 5cbd
000001e0: 0d3d a33e b4cd f93c e15c 08be b52b 28be
000001f0: a874 29bc ef1f 20be 204e 3c3c 794e 8bbc
00000200: c956 593d 1e0c 023d 6aa8 80be 9c68 b63d
00000210: 7b52 3a3e 156a 183e 3777 5d3d 55a0 12be
00000220: d09f 20be 481d 81be fc58 613d 1606 d0bd
00000230: 12b3 e0bc 1cb7 f43d 1f0e 48be 1831 17be
00000240: 398a 9d3d 5490 b4b7 c5c9 e5ba e0f5 a7bd
00000250: 65f4 8e3c d986 20bd 2bb9 363d 6357 1a3d
00000260: 9e42 133e 731d c6bd b88a d3bd ce1f 9dbd
00000270: eb61 a4bd 3816 c0be 5d58 96be 87a6 103e
00000280: 0c54 a43e a701 8a3e ebe2 adbd 2603 8cbc
00000290: bd4f f83d c2d1 cf3d 5d22 2b3e 52cc 853e
000002a0: 3480 223e 5e6e 3d3e 32d9 1b3c a311 0bbc
000002b0: 8152 81bd 85e7 183d f242 ba3d 7f27 513d
000002c0: b890 093e 2b8c c6bd a583 f1bd 45f9 a2be
000002d0: 68a2 61bd 6176 8cbe cecf 63bd ac97 ae3d
000002e0: 3bcc 963d e71a 183e 08d5 4abe 3dbf b0be
000002f0: 6a33 5abe 79a6 51bd 7167 b33c 2e30 1e3e
00000300: cace 633c 3d55 2e3e 52ba 9c3d 8136 9f3d
00000310: 544d 203e 37fc dd3d 155c a3bc cf20 e1bd
00000320: 7d8c 9a3d 2050 4bbd 574a 8fbd b2c5 0b3d
00000330: 24cd 51bd 62b1 643d 3033 ac3d 8598 40be
00000340: 80a0 87be f9b6 76bd 776a a93c f42e a63d
00000350: d3f1 bbbd 0f7a 45be 9c6c 1abd 96df eebc
00000360: 784f 173d 583b 8ebc 35ad 35be d2fd bd3d
00000370: 2619 f43d 575a b33e 95ad 60be 2cb9 1dbe
00000380: 7e0b 54bd 1509 a8bd be07 b13c 46e4 d13d
00000390: b914 c73d 7dc7 f73d 02f9 39bc 13c1 e03d
000003a0: 402c 093e d346 c53d 1994 053d 0bfc ed3b
000003b0: c6bf abbd 9ad8 b23d 1a8b 5b3e ce55 9b3e
000003c0: 3e7b 9bbd c87a d6bd 9449 c13d 3ff2 17be
000003d0: b948 13be 11ad 18be cc8f 8c3c fa95 13bd
000003e0: 2bb5 47bd a474 89bd a249 623d d9b0 8cbc
000003f0: ee22 25bd 51f0 b33c d1e5 00be cce7 353e
0.049315035 0.11058857 0.10484617 -0.05791404 0.11227299 0.27280727 -0.089251705 -0.004342718
-0.057157554 -0.06371828 -0.042462442 -0.15930043 0.016307957 0.2605208 0.051259033 0.077865526
-0.08269224 -0.17992653 -0.0071714236 -0.105437405 0.043687906 0.060984466 -0.05386325 -0.08400216
-0.20378713 -0.08264137 -0.022569772 -0.16113606 0.080265895 -0.06650054 0.049767446 0.18106447
0.03664191 0.0006265953 0.0059433845 0.07767558 -0.09720342 -0.24846712 -0.11325039 -0.1251707
0.028923072 -0.08202901 -0.14319624 -0.12942041 0.07618666 -0.062633015 0.0990801 -0.070175774
-0.2211982 0.013924208 -0.05616664 -0.00645695 0.03150618 -0.11569281 -0.20249914 -0.13295585
-0.08128486 -0.24952906 -0.04564631 -0.3565215 -0.19400954 -0.17899683 -0.0034163806 0.12065105
-0.10948333 0.0028597123 0.017232718 -0.10369307 -0.07153232 -0.10084882 -0.19104232 0.09111681
0.06799984 0.1898852 -0.04181494 0.12339126 -0.2470693 -0.31417456 -0.008246846 0.007226997
-0.019769331 -0.110226765 -0.33064404 -0.32952744 -0.111161195 -0.004570679 -0.032095145 -0.0694189
-0.3219101 -0.25921577 0.15219614 0.1187171 0.004977263 -0.12589695 -0.12956457 0.097924195
-0.046755146 0.034551237 0.08215951 -0.08410417 0.017718093 -0.117772415 -0.049488634 -0.02090604
0.010865356 0.25038195 0.023287067 0.022759467 0.025310874 0.14600703 0.22867705 0.019692896
0.15312399 0.12347004 0.29953185 0.21715967 0.29228345 -0.011328934 -0.036171015 -0.053721868
0.31882516 0.030493595 -0.1331668 -0.16422923 -0.010342754 -0.15637182 0.011493236 -0.017005192
0.05306128 0.031749837 -0.2512849 0.089066714 0.18195526 0.14884217 0.05406877 -0.14318974
-0.15685964 -0.25217652 0.055016503 -0.10157411 -0.027429137 0.11948988 -0.19536637 -0.14764822
0.076923795 -2.152488e-05 -0.0017531445 -0.08201194 0.01745052 -0.0391911 0.044610184 0.037680995
0.14380881 -0.09673586 -0.10329193 -0.07672082 -0.08026489 -0.37516952 -0.2936429 0.14126025
0.32095373 0.26954386 -0.08490547 -0.017091345 0.12124584 0.1014743 0.16712327 0.26132447
0.15869218 0.18499133 0.009512233 -0.008488092 -0.063145645 0.03733017 0.090948 0.051063057
0.13434112 -0.09694704 -0.11792687 -0.31830803 -0.055086523 -0.27434066 -0.0556181 0.08525023
0.073631726 0.14854012 -0.19807827 -0.34520903 -0.21308675 -0.05118415 0.02189991 0.15448067
0.013904283 0.17024703 0.07652725 0.07774068 0.15654498 0.10839122 -0.01994137 -0.10992586
0.07546327 -0.04963696 -0.06996601 0.034124084 -0.051221028 0.055833228 0.08408201 -0.18808182
-0.2648964 -0.06023309 0.02068065 0.08114424 -0.09176984 -0.19284843 -0.037701234 -0.029159348
0.03694102 -0.017362282 -0.17741854 0.09276928 0.11918859 0.3502986 -0.21941216 -0.15402669
-0.051768772 -0.08204857 0.021610137 0.10248618 0.097207494 0.12098596 -0.011350872 0.10974326
0.13395786 0.09632649 0.03261194 0.007262712 -0.08386187 0.0873272 0.21439782 0.303389
-0.07591866 -0.104726374 0.09437862 -0.14838503 -0.1438321 -0.1490977 0.017158411 -0.0360317
-0.04875676 -0.067117006 0.055246003 -0.017174171 -0.040316515 0.021965178 -0.12587668 0.17764205

conv3.bias f4 [32]
00000000: ccfc 2c3b 9839 f43d e4c5 283b b3af a53d
00000010: dbe6 31bd aba8 573c c35d a73d 7761 a43d
00000020: 212b 133c 0b1c d7bd 1d53 25be 9857 f23c
00000030: 554a 33bd d1f9 b33d 0749 0ebc 1623 793d
00000040: 55e4 78bd 4aa9 32bd c06a 093c 8f4b d63c
00000050: 2b0d a6bc 8e21 383d a656 e53d 0c82 19bd
00000060: aa6a 07bd 6d7e 6fbd eccd f3bc 977b 8abd
00000070: be5e b93c ae0c 783c 90d6 4e3d 86b6 0abd
0.0026395796 0.11925048 0.0025752718 0.080901526 -0.04343305 0.013162772 0.081721805 0.080264024
0.008982451 -0.10503396 -0.16144986 0.029582784 -0.04377206 0.08787883 -0.008684403 0.060824476
-0.06076463 -0.043618478 0.008387268 0.026159076 -0.02026995 0.044953875 0.111981675 -0.037477538
-0.033060707 -0.05847018 -0.029761277 -0.06761854 0.022628184 0.015139742 0.05049759 -0.033865474

bn3.weight f4 [32]
00000000: 025b 793f 5977 913f de2d 813f 2aa4 863f
00000010: 72fa 853f 5bcc 703f 26e0 7f3f 82c7 7d3f
00000020: 6e85 773f f4af 723f aa8a 8a3f 9216 723f
00000030: 9a64 793f 1299 7a3f 9b2c 6c3f ed01 783f
00000040: 4201 7b3f 5af8 6e3f b444 573f bbb3 743f
00000050: 250a 743f 3a40 763f b701 843f a0ed 883f
00000060: 1cf5 6b3f 9a0f 853f 55ca 573f d210 6d3f
00000070: 01d2 933f c5ed 8e3f cf6f 693f 233b 7b3f
0.9740449 1.1364547 1.0092123 1.0518849 1.0467055 0.9406182 0.999514 0.9913255
0.9668797 0.94799733 1.0823567 0.9456569 0.9741913 0.97889817 0.9225556 0.9687794
0.98048794 0.93347704 0.8408921 0.95586747 0.9532798 0.9619175 1.0313023 1.0697517
0.9217088 1.0395386 0.8429311 0.9260379 1.1548463 1.1166312 0.9118623 0.9813711

bn3.bias f4 [32]
00000000: be2c 62bd 3d9b 09bf 764c babd 81a1 91be
00000010: dcab 7bbe a0e9 1ebe a52e edbe 3545 d33d
00000020: 8298 f4bd 2da4 46be 399b 8bbd ae0c 07be
00000030: ea39 51bd 2512 c1bd 7399 2ebe c033 42be
00000040: 3bcf 3bbe 7343 3cbe e0a1 6fbe 04b6 87be
00000050: 9e2a 68be 6921 99bd 5ab9 753d 4e43 d1bc
00000060: abdc 78be a2b3 7ebe ec8d 3abe 961b 89be
00000070: 85ea aabd 0d70 fd3d 104c c8be dce5 a9bd
-0.05521845 -0.537525 -0.09096615 -0.2844353 -0.24577278 -0.15518808 -0.4632465 0.103159346
-0.11943151 -0.19398566 -0.06816716 -0.1318843 -0.05108062 -0.09427289 -0.17050724 -0.18965054
-0.18340771 -0.18385105 -0.23401594 -0.26506054 -0.22672507 -0.074770756 0.05999122 -0.025544789
-0.24302928 -0.24873212 -0.18218201 -0.2677886 -0.08345512 0.123748876 -0.3912053 -0.08295795

bn3.running_mean f4 [32]
00000000: 58c4 57bf d9e1 1e3e ea5b 15be 6cdb 353f
00000010: e6af eb3e 0ab9 06bf c9df 333f 1f7b ebbe
00000020: 2dbf 08be 50d6 bf3e bc12 48bf 379a febe
00000030: 748b 01bf 5e5b 84be a450 4cbe 74fc e83e
00000040: 50ac a7bd af73 89bf 7589 44be 19fe 01bf
00000050: 0767 d7be 756a 96be 0b01 233e 6824 18bf
00000060: 47f1 893f 301b 81be 0743 47bf 78cd 71be
00000070: 1132 083f 5a59 97bf 592f 863f a2b9 97be
-0.8428397 0.15515842 -0.14585844 0.71037936 0.46032637 -0.526261 0.70263344 -0.4599237
-0.13354178 0.37468195 -0.78153586 -0.49727032 -0.50603414 -0.25850958 -0.19952637 0.45505106
-0.08187163 -1.0738429 -0.1919306 -0.5077835 -0.4207079 -0.29378095 0.15918367 -0.5943055
1.0776757 -0.25216055 -0.7783665 -0.23613536 0.53201395 -1.1824143 1.0483199 -0.29633814

bn3.running_var f4 [32]
00000000: ffa3 5a40 6a60 ec3e dd7c 803f f728 b63e
00000010: f71e 8e3f 98f0 ab3f 6c35 c83e 29e7 6e40
00000020: 3c6a ab3f eb6a 4c3f 9fcf dc3f 4f6d 6b40
00000030: 61ad 973f 15c3 6f40 0bba 2a40 d79e b63f
00000040: 435f 4d3f 1f3a 3940 c8e7 ad3f 4e79 a33f
00000050: 1ad2 003f dc3f c13f b522 da3f dfb9 2940
00000060: 6951 503f 1306 ad3f b67c df3f 87be df3f
00000070: dc09 623f b2e3 2041 036b 2d3f f06f 893f
3.4162595 0.46167308 1.0038105 0.3557813 1.11032 1.3432798 0.39103258 3.732859
1.3391795 0.79850644 1.7250861 3.6785467 1.1849786 3.7462819 2.6676052 1.4267224
0.8022348 2.8941724 1.3586359 1.2771394 0.5032059 1.5097613 1.7041842 2.6519697
0.8137422 1.3517479 1.7459934 1.7480019 0.88296294 10.05559 0.6774141 1.0737286

conv4.weight f4 [64, 32, 3, 3]
00000000: c928 cb3d 521d b13d 44d2 183e b9b3 cd3c
00000010: 9e0d 533b d39c 863b 7c1b 173c 0c08 11bd
00000020: 76e4 c9bc 3af2 03bc 6f0c 48bd b955 36bd
00000030: 58fa 82bd cf04 babc 4c0d a3bd 1633 b73a
00000040: 9735 d3bc d300 ecbc 2a11 52bd 7014 44bd
00000050: b428 19be fa7a c73d 1fc9 82bd 7137 92bc
00000060: b9c1 b3bd eaa4 07bd a9a6 dcbd 9dd4 df3c
00000070: 1699 a13a de80 4a3d cd96 18bd eebe eabd
00000080: 064a 773d 9f54 cabc 2e50 363e 4580 af3c
00000090: 408f ae3d b3f8 fe3d b6e3 543e 0345 7abd
000000a0: 863f 0abd fa15 503d 997e 523e 8fed 633e
000000b0: 7644 963e 71f0 25bd 8cfd 0ebd 7eda c2bd
000000c0: 015b 3e3c b6fe 31bd 0f11 bb3d 894c 75bd
000000d0: 1b93 08bc e581 87bd ae2f 1f3e cce3 2a3e
000000e0: 6167 413e 079e da3d 1b65 f23d 305f 113e
000000f0: c4ae df3d 89b5 523c 0e5d 2c3e 771c 1bbd
00000100: 27eb 63bd 946f c1bc 8004 ab3d 3a15 fb3d
00000110: 19d4 fc3d d390 74be cba1 dbbd d8eb 783d
00000120: ed8f e83d e2d2 2e3e 26ca 303e e7d7 123d
00000130: 4e45 093d fcde d63d d412 933d 1162 163e
00000140: 44c2 183e e029 2d3d 6976 653c d5c9 4fbe
00000150: a0ee 963d be42 e7bd 4173 7dbc 2d68 e73c
00000160: d58c 2d3d f100 49bd e223 753c 9f46 63bd
00000170: f216 c73d 7d0f 253d f9fa 9a3c de4e ee3d
00000180: 4ca8 a73d 0187 dfba e9e1 1a3c 17e8 48be
00000190: a838 81bc 557b 983c 2fbb 3e3d 253a 9e39
000001a0: 28d0 25bd 7e0b 7e3c 9435 153d d2a9 973d
000001b0: e2fb d93d 541c 9d3d 15cc 4c3d cae7 313d
000001c0: fdb6 5e3c ee0e 6d3c 7bed 4ebd fada 1b3c
000001d0: 93de a53c c600 ab3d b8b5 c7bd f3b5 3a3e
000001e0: 07a0 76bd c7c3 debd 244c 11be 8d02 e43d
000001f0: e054 5ebd d10f 623d b81e a6bd 3fdd 3bbe
00000200: 4795 2abe c89f ad3d 1e17 9abc 8e30 2dbc
00000210: 7c9a bbbd c7a6 61bd a289 0cbe b480 42bd
00000220: 743c 133d 81f6 66bc 3854 3ebd 9a55 a23d
00000230: a94d aebd 1129 013d be5f 233e d304 4d3d
00000240: aad6 023e 261c a73d a4e4 6c3d 4c80 a73b
00000250: 98ca 39be cedd 88bd 2f78 d23c ba8b e33d
00000260: f3ef b13d 603b 183e d181 643d bfb9 183e
00000270: 35de 933d 77cc a8bc 4002 5cbd 13d5 8f3c
00000280: 7ebb 853d 8980 49bc 6ec2 843d d150 fe3c
00000290: 8987 363d c852 8ebd d5ac 2c3a 188f 0f3d
000002a0: 6838 0dba 7c0d 03bc 491b 95bc 94e9 9bbc
000002b0: 867b d0bc 67ec 123d e87b 8bbd b24e b8bd
000002c0: 437c 24bd 4869 c5bc 5361 14bd b1f2 38be
000002d0: 355a 993d 2d08 1c3e 972a c53d bbce e8bc
000002e0: 10a2 20bd 4898 12bd 08ae 1e3c 7dee 113d
000002f0: 4ae3 a73d 1c44 50bc aaf3 183e c3f5 df3d
00000300: 012c 8cbd 8484 d6bd eb7a 6f3c 7721 d8bc
00000310: f5ad fd3d ef26 c93c 829b 16bc dc31 95bc
00000320: 665b a1bd 20c9 d73d b93a 563d b80f 013e
00000330: 290e 89bd e7e2 46be 3e4f 7ebe ca82 2a3c
00000340: 46e0 423d 8e01 b3bd 8949 ca3d 00d4 b43d
00000350: 4c3c b23d 6c3c 5fbd 8083 ba3c 2f31 b9bd
00000360: 1c3b 0fbd 06ff 4c3d 7b71 793c fef5 99bb
00000370: 0774 5bbc ddde d6bd 1b04 2cbc 5256 14bc
00000380: 96d0 9d3c d083 903e d9c7 983e 70f3 b33e
00000390: d171 2dbe cda4 53be ca0c bdbd 4b93 953e
000003a0: fb66 583e 791d 8a3e ffbf 31be eafe 083d
000003b0: a5bf 4f3d bcb3 563d ea95 123e 13a1 b43d
000003c0: aa6b 28be e958 dd3d 9b00 86bd cbfe cf3d
000003d0: 45b4 463e 9736 663e 2fb3 13bd 895a 123e
000003e0: 6a59 abbc e3ca 183e ed5c b63d d93e 743e
000003f0: be70 d9bb 8963 783c 4ccf 17bd e5f1 22be
0.099198885 0.086481705 0.1492396 0.025110113 0.0032204161 0.0041080504 0.009222861 -0.035408065
-0.024645071 -0.008053357 -0.048839983 -0.044515345 -0.063954055 -0.022707371 -0.079615206 0.0013977017
-0.02578239 -0.028808987 -0.0512859 -0.047871053 -0.14956933 0.09740253 -0.06386017 -0.017848702
-0.08777184 -0.03311626 -0.107739754 0.027323062 0.0012328948 0.049439304 -0.03725319 -0.11462198
0.06037333 -0.024698554 0.17804024 0.021423468 0.085234165 0.12449779 0.2078999 -0.06110097
-0.033751987 0.05080221 0.20556106 0.2225859 0.29349107 -0.040512506 -0.03490977 -0.0951433
0.011618377 -0.043455802 0.09134113 -0.059887443 -0.008335854 -0.06616572 0.15545532 0.1668846
0.18887092 0.106746726 0.118356906 0.14196467 0.10922006 0.012860664 0.16832373 -0.037868943
-0.05564418 -0.023612775 0.08350468 0.12259908 0.12345142 -0.23883371 -0.10724219 0.060771793
0.11355577 0.17072633 0.17264614 0.03585043 0.03351336 0.1049175 0.071813256 0.14685847
0.14917856 0.042276263 0.014005282 -0.20291837 0.07369733 -0.11292027 -0.015469373 0.028247917
0.042370636 -0.049073163 0.014962168 -0.05548727 0.09721173 0.040297974 0.018918501 0.116361365
0.08186397 -0.0017053784 0.009453275 -0.19619785 -0.015774086 0.018613497 0.04656523 0.0003017943
-0.040481716 0.01550567 0.03642805 0.074054375 0.10643746 0.07671419 0.049999315 0.043433942
0.0135934325 0.014468892 -0.050519448 0.009512657 0.020247733 0.08349757 -0.09751457 0.1823347
-0.060211208 -0.10877185 -0.14189202 0.11133299 -0.05428016 0.055190865 -0.08111328 -0.18346117
-0.16658507 0.084777415 -0.018809851 -0.010570658 -0.09160325 -0.055090692 -0.13724378 -0.047486022
0.035946324 -0.014096857 -0.046467036 0.079264835 -0.08510906 0.031533305 0.15954491 0.05005343
0.127772 0.08159666 0.057835236 0.0051117297 -0.1814369 -0.06682931 0.025692074 0.11110635
0.08688345 0.148664 0.055787865 0.14914607 0.07220117 -0.020605309 -0.053713083 0.017557656
0.06529902 -0.012298712 0.06482397 0.031044396 0.04456285 -0.06949383 0.0006587033 0.035048574
-0.00053871283 -0.00799882 -0.018201487 -0.019032277 -0.025449526 0.035869982 -0.068107426 -0.08999385
-0.040157568 -0.024098054 -0.036225628 -0.1806133 0.07487909 0.15237494 0.09627264 -0.02841889
-0.039217055 -0.035789758 0.009685047 0.03562783 0.08197649 -0.012711551 0.149367 0.10935547
-0.068443306 -0.10474494 0.014616708 -0.026383145 0.12386695 0.024554698 -0.009192349 -0.018212251
-0.07878761 0.105364084 0.052302096 0.12603652 -0.06692154 -0.19422494 -0.24834916 0.010407159
0.047577165 -0.08740531 0.09877307 0.08829498 0.08702907 -0.054500982 0.022767782 -0.09042584
-0.03496848 0.050047897 0.01522481 -0.004698514 -0.013394362 -0.104917265 -0.010499026 -0.0090537835
0.0192645 0.28225565 0.29839972 0.35146666 -0.16937949 -0.20668335 -0.09230955 0.29213938
0.21133034 0.2697561 -0.17358397 0.03344623 0.050719876 0.0524175 0.14315 0.08819785
-0.1644732 0.10807974 -0.06543084 0.1015602 0.19404705 0.22481762 -0.036059555 0.14292349
-0.02091666 0.14921145 0.08904443 0.238521 -0.0066357544 0.01516045 -0.037062928 -0.15912588

conv4.bias f4 [64]
00000000: 13bb 5d3c edc1 71bc 12dc 1dbd 871e 863b
00000010: 4ea7 f53c f908 76bd ec76 c53c 0682 6abc
00000020: 1345 a3bd 905e 46bb 30e2 e93c 7309 a83c
00000030: 3e68 34bd 4069 09bd a4ff a1bc a86c 673c
00000040: 5868 bb3c d6b4 7d3c 186b 733d 42dc 363d
00000050: 4e1b 183c 32d1 94bb efd9 58bd 8ded 78bd
00000060: ac57 4d3d 25d6 2bbd 413a bfbc 6a6c cd3c
00000070: 21f8 18bd 1fc5 013d 305d d23c e126 d43c
00000080: 4f89 bfbd c9fa 933c 383b 28bb b4b5 0dbc
00000090: 4fd5 513c bf9c 3ebc 34d4 163d 0dcb 513d
000000a0: ac66 8cbc f26f e5bb ffc2 a23c ae62 41bb
000000b0: dd96 1c3d dbf1 efbc c374 593d 411a df3c
000000c0: 0f70 c9bc d111 1a3b d30b 4e3d e9bb 273d
000000d0: 43a6 f43c 7960 e23b c6bd 253c 8045 0cb3
000000e0: 2404 233d b3e0 ecbb 1ac0 283d 8eae 443c
000000f0: e73a b1ba 1c6f f2bb 3902 aabc 5d1c 963c
0.0135333715 -0.014755708 -0.038539954 0.0040929946 0.029987004 -0.06006715 0.024104558 -0.014313227
-0.07972159 -0.0030268766 0.028550237 0.020512318 -0.044044726 -0.03354764 -0.01977522 0.014125027
0.022876903 0.015485009 0.059428304 0.044643648 0.009283854 -0.0045415396 -0.052942213 -0.06077342
0.05013244 -0.04195227 -0.023343207 0.02507611 -0.03734601 0.03168213 0.0256792 0.025897445
-0.093523614 0.01806392 -0.0025670063 -0.008649278 0.012807204 -0.011634051 0.036823466 0.051219035
-0.017138802 -0.0070018703 0.019868372 -0.002950828 0.038229812 -0.02929013 0.05308987 0.027234199
-0.024589567 0.0023509155 0.050304245 0.04095069 0.029864436 0.006908473 0.010116046 -3.26595e-08
0.03979887 -0.0072289347 0.041198827 0.012004508 -0.0013521583 -0.007398499 -0.020753013 0.018324072

bn4.weight f4 [64]
00000000: fcb9 0940 fc1d 2d40 b269 1f40 0f5c 1940
00000010: 255b ba3f 8bf9 0740 c44a 1940 0691 0a40
00000020: 696e 2340 e2ea 0140 878d 1a40 ab87 d43f
00000030: 67b9 eb3f f911 f63f 8613 2540 d8c3 1340
00000040: f051 2240 9824 1d40 53f8 0340 3497 d13f
00000050: 06b2 e13f 4789 fc3f 59fe 0740 3c42 2340
00000060: 7d8c 1740 d7f7 1d40 ddf4 1e40 dfb9 2f40
00000070: c3d0 e93f b095 a43f d04c dd3f 66d1 0140
00000080: 6117 0d40 e335 d33f ed5c 2740 a69e 2c40
00000090: 8396 f63f d3d7 1240 8efc e03f 6dae 0840
000000a0: f016 1e40 38d7 e03f 65e3 cc3f bde0 0b40
000000b0: e505 e53f 31fe ed3f e2e7 0c40 87b8 0c40
000000c0: b31a 0e40 85df 1640 81da 0640 4efa fb3f
000000d0: 1b71 f93f 8128 0140 6294 0140 0183 de3f
000000e0: 7f11 d83f b18f 1040 8166 1e40 d594 1940
000000f0: 9903 1b40 9b40 2140 d925 f03f beef 1440
2.1519766 2.704955 2.4908261 2.3962438 1.4559065 2.124606 2.3951883 2.1651015
2.553614 2.029961 2.4148881 1.6603903 1.8415955 1.9224235 2.5793166 2.3088284
2.536251 2.4553585 2.0620315 1.6374269 1.7632453 1.9729394 2.1248991 2.5509176
2.3679497 2.468252 2.4836953 2.7457197 1.8266834 1.2858181 1.7289066 2.0284057
2.204552 1.650082 2.6150467 2.6971831 1.9264683 2.2944229 1.7577074 2.135646
2.47015 1.756568 1.6006895 2.185592 1.7892424 1.8593198 2.201653 2.1987627
2.2203796 2.3573925 2.1070864 1.9685762 1.9487642 2.0180972 2.0246816 1.7383729
1.6880339 2.2587702 2.4750063 2.399709 2.4220946 2.5195682 1.876155 2.3271327

bn4.bias f4 [64]
00000000: 79a5 683e 1063 253e 3129 383e 059c c33d
00000010: 205e ca3e b5d5 763e 60f7 113e 85ce 813e
00000020: 0a82 7b3e 5fc2 983e a567 7e3e 9531 f93e
00000030: 4703 483e 34ad ee3e 46d8 8a3d 5679 023e
00000040: 9876 7d3e 7791 ba3d e986 c23e 2d6d da3e
00000050: 043c ff3e 0c92 0a3f d979 8d3e b427 ae3e
00000060: dff0 583e da92 493d 6f7b 813e f14f aebd
00000070: 5684 093f 6db2 803e 7563 043f 3394 a83e
00000080: 0f90 e03d 9079 ce3e 95f4 7d3e fff0 e83d
00000090: ad99 ba3e 3ad3 e63e 39af cc3e ce4c 013e
000000a0: 66e8 753e 06e4 013f 5173 ac3e c355 7b3d
000000b0: 0a7d 9a3e 3977 b93e ba2d 4b3e ef36 d43e
000000c0: 5b7c 713e 299a 413e 5add 803e 07f3 543e
000000d0: 182b d63e 0910 203e ac3d 593e 765a cf3e
000000e0: 8f30 f53e cbcf 573e 5787 253e c348 e83d
000000f0: cf38 713d b8a1 a23e 1295 023f 61ba d63e
0.22719373 0.1615107 0.17984463 0.09551243 0.39524937 0.2410496 0.14254522 0.25352874
0.24561325 0.29835793 0.24844225 0.4867064 0.195325 0.46616518 0.06779532 0.12741598
0.24752271 0.091097765 0.37993553 0.4266142 0.49850476 0.541291 0.27632025 0.34014666
0.21185635 0.049212314 0.25289485 -0.08511341 0.53717554 0.25136128 0.5171426 0.32925567
0.10964977 0.4032712 0.24800332 0.11374091 0.3644537 0.45083028 0.39977434 0.12626955
0.24014434 0.5073856 0.3368173 0.061361086 0.30173522 0.36223772 0.19841662 0.4144816
0.23582594 0.18906464 0.25168878 0.20795833 0.41829753 0.15631117 0.21214932 0.40498704
0.4788861 0.2107536 0.1616491 0.11342003 0.058892068 0.31764007 0.51008713 0.4193907

bn4.running_mean f4 [64]
00000000: d1f6 893e 74e8 453e c6f9 0f3f add8 003f
00000010: 4213 33bf acd1 d9bd 1fb1 d03d ea06 553e
00000020: 271d f13e cd8b 7b3d 5cab ab3e e2dd 66be
00000030: c02e b93e 335d 543c 2b24 f73e 6a4c 033f
00000040: 5f9a 403f 9558 e33c 5ebb 40bd 905a ee3e
00000050: d91f e23e cb0e 98be a2af 913e 603a be3e
00000060: 7689 073e 2dda 0a3d 67e9 40bc 5ad5 3d3e
00000070: 1e40 f6bd 43ce b9be b825 3fbd 0f02 043e
00000080: 3da1 ac3e 1421 ae3e 72d8 933e d7c8 763e
00000090: 728a e2bc a67f 3a3d fee8 20bd d1f1 bf3e
000000a0: 4b17 e1bd 1ec0 ed3e 1ac5 803e dc28 dbbd
000000b0: 1991 d73d 51bf fb3c 4475 cd3c 7949 063c
000000c0: 7265 4fbe 23d9 cfbd 74e3 863e cfde 8c3e
000000d0: df0d d83d 2398 12be 68e6 b73e c228 0d3f
000000e0: 035c 1fbd bfef b73e ccb5 8f3e 0db2 9d3d
000000f0: 9174 073f b823 c63e 638d 1c3e a894 d53e
0.26946118 0.19326955 0.562405 0.5033062 -0.6995126 -0.10635695 0.10190033 0.20803419
0.47092554 0.06141262 0.33529174 -0.22545579 0.3616848 0.012961674 0.4826978 0.51288474
0.7523555 0.0277522 -0.047053687 0.4655347 0.44164923 -0.29698786 0.2845431 0.37153912
0.13236031 0.033899475 -0.011774397 0.18538418 -0.12023948 -0.36290178 -0.04666683 0.1289141
0.33716765 0.34009612 0.28876072 0.24100052 -0.027653906 0.04553189 -0.0392847 0.3748918
-0.10990771 0.46435636 0.25150377 -0.10701153 0.10525722 0.030730875 0.02508033 0.008196228
-0.20253542 -0.101488374 0.26345408 0.2751374 0.10549521 -0.14315848 0.35917974 0.55140316
-0.03890611 0.359251 0.28068388 0.07699976 0.5291224 0.38699126 0.1528831 0.41714978

bn4.running_var f4 [64]
00000000: d4c2 713e a3dd 1e3f d74c e03e 5444 b93e
00000010: 9791 643e cf92 9e3e 1c8e 553f 3d4b 023f
00000020: bc1e f53e 4f43 673e 1944 a53e d8fb 9f3e
00000030: 9ac9 9f3e 0233 003f b319 083f 54f2 363f
00000040: 6a14 0d3f 35eb e23e 605c c63e 7387 c73e
00000050: c99e fe3e ef15 a13e 82bf 853e c040 313f
00000060: 7042 9a3e 6092 bf3e 0441 913e 060d 263f
00000070: 08b8 0f3f d4f6 923e e2a3 b53e 734f 403f
00000080: 4a9e b13e 8b16 be3e 6683 fc3e d9b3 423f
00000090: ec79 d63e edba 8c3e 70c5 b73e 4b21 013f
000000a0: 4945 053f fb30 de3e 6aae cb3e 1d9d 0a3f
000000b0: 999a 2a3f 366e ba3e 9b55 e23e 0c31 9c3e
000000c0: f932 e13e 6c8f 003f 50e8 bf3e a330 8d3e
000000d0: 927c 983e 06d5 0d3f de96 de3e 307c 063f
000000e0: 483b 8b3e acb9 f43e f25e c93e 4992 f23e
000000f0: c622 073f 506d d33e 15e9 0c3f 59a1 9a3e
0.23609477 0.6205694 0.43808624 0.36184943 0.22321163 0.3097138 0.83419967 0.50896055
0.4787501 0.2258427 0.32278517 0.3124683 0.31208497 0.5007783 0.53164214 0.71463513
0.55109274 0.44320074 0.38742352 0.38970527 0.49730518 0.31462047 0.2612267 0.69239426
0.30128813 0.37416363 0.28369915 0.6486362 0.56140184 0.2870394 0.35476595 0.7512123
0.34691077 0.37126574 0.49319 0.76055676 0.41889894 0.27486363 0.3589282 0.50441426
0.52058846 0.43396744 0.39781505 0.54145986 0.6664215 0.3641221 0.44205937 0.3050617
0.43984202 0.50218844 0.37481928 0.2757617 0.2978254 0.5540317 0.43474478 0.52533245
0.27193666 0.47797906 0.3933025 0.47377232 0.52787435 0.41294336 0.55043155 0.30201223

lin.weight f4 [36, 64]
00000000: 3400 90be c0a3 87bb 5017 283e 03aa a53d
00000010: 7e0e 043d 4d1e d0be 8346 84be c2c3 f83b
00000020: 22cb b5bd a30e 9bbe 1a39 54be 57fa f33d
00000030: 0558 debd 59fc 5e3e 26ee fdbe d081 c8bc
00000040: b0e3 14bd c3f3 623e e7fd bb3d a607 5f3d
00000050: d0aa a43d 17a8 d83d b0c0 d3be 5bdf 593e
00000060: 79ef 07be 4483 d3be a659 afbe 5146 02be
00000070: 5832 503e 650b 2b3e 2da3 223b 70a0 163e
00000080: 6f22 f23d 871e 153e 7e39 ffbd 7d0f 21be
00000090: e01c 02bd 004b 8fbd 5bfa 0d3e ccab d2bd
000000a0: d67a babe 4869 7b3e 95a3 293d c254 d4bd
000000b0: f645 2abc 1bd8 b73d 658a de3d 39f3 d9bc
000000c0: b450 3ebf 8af4 e2be a497 39be f2b8 6abe
000000d0: 47f6 1b3e 66a3 a33d 3abb 3bbe c899 483e
000000e0: a326 743e 5937 87be c7d3 cc3d ca6f c1be
000000f0: f3aa b0ba d664 a8bc 5fed 6e3d d1cb 47bd
00000100: bd08 493e cd25 213f b48f 27bf 4116 0fbf
00000110: 4a28 c9be 7516 9f3e e400 d03e f0aa 59be
00000120: 9403 053e 2edd 343e 9760 b33d a8b3 5abe
00000130: da72 443e e78e 283c ddda f6bd ddf9 793e
00000140: 8624 903e 3e4e bcbe f358 633d 5ff9 77be
00000150: 15ef ecbe 6910 02bf 18f7 8b3d de36 56bf
00000160: 7f0a be3e 4ed6 7c3e 67db ab3e 19b9 dbbe
00000170: f186 fdbe 0e41 27be 7875 8bbe 5079 5abe
00000180: 0c2a aabe 7ec2 2fbe 17f2 7e3e b6b8 2c3e
00000190: f3a8 bdbe 7a48 763e b487 31bf 290e 773d
000001a0: 2617 af3e c332 43be 5b4f 72be 00fe bebe
000001b0: 73be 99be 5a1d 2abe 9b0a f53e b75d d33d
000001c0: d1e5 e13e 53bd a63e 3118 ae3e ec02 a23e
000001d0: 9c9c 84be c0ec 8bbe f4d9 9cbd 0040 f4be
000001e0: 868c d5be 8b67 203e e134 0fbf d74c 093e
000001f0: 51a4 2ebf f152 ca3e 91e0 c4be c5a7 8d3e
00000200: 8628 db3d f1e1 123f beb2 14bf 127a efbe
00000210: e77b 7dbc 418f dd3e 81af dc3e 9223 d5be
00000220: c935 67bb c64a 073e a400 a9be c384 b33d
00000230: 70a3 aebd c686 1e3e b98a d6be 9b04 d6be
00000240: 83d9 6b3e 4a9c 12bf 73a7 cfbc d2c4 64bc
00000250: 78b9 ddbd 151b 85be 558a 00bd 045e 24bf
00000260: 2fe3 eb3d f351 9f3e 23a0 223e 9232 debe
00000270: 3819 32be e48a fbbd 578b 26be d6f7 e5be
00000280: 5a8d a6be d379 0bbc 3849 493e d802 75be
00000290: 8c43 0dbd 24d8 203e cfad bcbe aa4f 70be
000002a0: a355 c13e b8e8 bb3b 41fb 02be 228e 02be
000002b0: 3cfc cbbe 270d 8e3d 8770 c33e 22f8 c1bd
000002c0: 487e 913d 62a2 e33e 0fd5 2c3e b502 083d
000002d0: 39cb 91bd ad5e 21bd 7960 f7bd 40ce 7ebe
000002e0: a3cb 7bbe a26b 843e c1db fdbe a7b7 a33d
000002f0: 8c3f 1abf fae7 bc3e ad41 09be 2c89 1c3e
00000300: f443 a5bd 427e 113e c43b f9be d37c 0ebf
00000310: 06cb 8dbd 7ba0 bb3e cc00 b73d e461 ccbe
00000320: a580 8a3e b1fc 663e 64ef a2be c856 6f3d
00000330: 55de fd3c 4afe 2f3c 0d08 febd 0999 89be
00000340: 0a9b 683d c949 4abf a903 03bc 9db1 09bd
00000350: 0416 903d 06d4 2ebe 495a 3dbc e2b8 45bf
00000360: 6c82 0bbe db5f a33d 0c59 8d3e 56b5 66be
00000370: 20f1 58be faf0 823d dcdb 713d ef61 7bbe
00000380: e691 04bf ba59 a3bd 631e 8b3d 6ace bf3d
00000390: 0662 b63d 401b 903e 22a8 2dbd 155f 2bbe
000003a0: f5ed c43e c0c5 dabd 2268 efbd 073a b6be
000003b0: fab2 8b3c 9480 bdbd e1e1 123e 2189 27be
000003c0: 0eb2 08be 5fd5 053e bc6c 2cbe 63d7 703c
000003d0: 2252 6b3c 2fbb 0cbe 26e9 2bbd 09d6 2bbe
000003e0: 8ef0 84bd 1f16 893e de3a 20bf 4ecd 3b3e
000003f0: 63b5 54bf 8233 d33e 020c 02bd eb9a 8a3e
-0.28125155 -0.0041393936 0.16415143 0.08089068 0.032240383 -0.40648118 -0.25835046 0.0075916955
-0.08876635 -0.30284604 -0.20724908 0.11912983 -0.10856632 0.2177595 -0.49595755 -0.024475962
-0.036349952 0.221633 0.091792874 0.054450653 0.080403924 0.105789356 -0.41357946 0.2127661
-0.13274945 -0.41311085 -0.34248084 -0.12722136 0.20331705 0.16703565 0.0024816499 0.1470964
0.11822974 0.14562427 -0.12462138 -0.15728565 -0.03176582 -0.06996727 0.13865034 -0.10286674
-0.3642184 0.2455188 0.04141577 -0.10367729 -0.010392657 0.08976766 0.108662404 -0.026605235
-0.74341893 -0.44327193 -0.18124253 -0.22922114 0.15230666 0.0799015 -0.1833314 0.19589913
0.23842864 -0.26409414 0.10001331 -0.377806 -0.0013478681 -0.020555895 0.058331843 -0.04877836
0.1963224 0.62948304 -0.6545365 -0.5589333 -0.3928855 0.3107182 0.4062568 -0.21256614
0.12989646 0.17662498 0.087586574 -0.21357596 0.19184437 0.010287977 -0.120534636 0.24411722
0.28152865 -0.36778444 0.05550475 -0.24216221 -0.46276155 -0.5080629 0.06834239 -0.8367747
0.37117383 0.24691126 0.33565828 -0.42914656 -0.49517015 -0.1633341 -0.2723806 -0.2133534
-0.33235204 -0.17164037 0.24897037 0.16867337 -0.3704296 0.24051085 -0.6934769 0.06031624
0.34197348 -0.19062333 -0.23663084 -0.37303162 -0.30028114 -0.16612759 0.47859654 0.10320609
0.44120649 0.32566318 0.34002832 0.31642854 -0.25900733 -0.27329063 -0.07658759 -0.47705078
-0.41708773 0.15664499 -0.5594006 0.13408218 -0.68219477 0.39516404 -0.3845258 0.2766706
0.107010886 0.5737601 -0.5808524 -0.4677282 -0.015471435 0.43273357 0.4310265 -0.416287
-0.0035279861 0.13212118 -0.330083 0.08765557 -0.08527267 0.154811 -0.41902712 -0.4180039
0.23032193 -0.5726973 -0.0253484 -0.013962941 -0.10826391 -0.25997224 -0.031381924 -0.64205956
0.11517941 0.3111721 0.158814 -0.43397957 -0.17392433 -0.12282351 -0.16264091 -0.44915646
-0.32529718 -0.008512932 0.19656837 -0.23926866 -0.034488246 0.15707451 -0.36851355 -0.2346789
0.37760648 0.0057345293 -0.12791158 -0.12749532 -0.39840877 0.06936102 0.3817179 -0.09471156
0.07104164 0.44459826 0.1687815 0.033205707 -0.0711884 -0.03939693 -0.120789476 -0.24883366
-0.245894 0.25863367 -0.4958172 0.07994013 -0.60253215 0.36895734 -0.1340396 0.15286702
-0.08069602 0.1420832 -0.4867841 -0.55659217 -0.06923489 0.36645874 0.08935699 -0.39918435
0.27051273 0.22557332 -0.31823266 0.05843237 0.030989805 0.01074178 -0.12403879 -0.2687457
0.05678848 -0.7901884 -0.007996478 -0.03361665 0.07035449 -0.17073068 -0.01155717 -0.77235234
-0.13623971 0.07977267 0.27607 -0.22530112 -0.21185732 0.06393619 0.059047565 -0.24549077
-0.51785123 -0.07976098 0.06792905 0.09365542 0.08905415 0.2814579 -0.042396672 -0.1673549
0.38462797 -0.10682249 -0.11689784 -0.35591146 0.017053116 -0.0925304 0.14343978 -0.16360904
-0.13349172 0.13069676 -0.16838354 0.01469979 0.014362844 -0.1374328 -0.041970395 -0.16780867
-0.06491195 0.2677469 -0.62589824 0.18340036 -0.83089274 0.41250235 -0.031749733 0.27071318

lin.bias f4 [36]
00000000: e70b 9d3d dcde 50be fe9a 993d 9c55 fbbd
00000010: bf7f 123e a2e5 f6bd 5e88 cf3d 87ce a1bd
00000020: 0ea6 0ebd f5c3 003e 4f63 69bc 02b9 963c
00000030: 815c 06be 44e1 c8bd f276 813d bddf f3bc
00000040: be61 bbbb 6196 4dbd 0be6 ab3d 4b4c a0bd
00000050: a677 80bd 69b5 37bd 7633 953d bcb5 6c3d
00000060: fc92 ed3b e86b c93d 0129 083d bad3 9f3d
00000070: 610d 3fbd b791 0c3d c352 00bd fb55 14be
00000080: 632e b73c d90a 54bd dc84 2a3b de0d 0cbb
0.07668286 -0.20397514 0.075002655 -0.12272188 0.14306544 -0.12055518 0.10133432 -0.0790072
-0.03482633 0.12574752 -0.014244868 0.018398765 -0.13121225 -0.09808591 0.06321515 -0.029769773
-0.005718439 -0.05019224 0.083934866 -0.07827052 -0.06272821 -0.04485074 0.07285206 0.057790503
0.007250188 0.098350346 0.03324223 0.078040555 -0.04664362 0.034318652 -0.031328928 -0.14485924
0.022360986 -0.051768158 0.0026019132 -0.002137057

conv.0.weight f4 [8, 1, 5, 5]
00000000: a602 893d 610d 87be 6b18 933a da33 07be
00000010: f13a ec3d 4ea1 1fbf 9980 98be 3c36 49bd
00000020: c1a6 ad3e 3e52 873e 5b67 c6be ba14 dc3d
00000030: 4a43 6abe 3c16 10be 9ce0 2a3f 1342 003e
00000040: 93e1 323e 596d fcbc 8c1a d83e 3487 e83e
00000050: e078 ee3d e0a3 35bf 9230 a03d 5ebd 03be
00000060: 4c19 993e e956 b2bc 25f8 23bf d780 a83e
00000070: 3a5e a2bd f4fe be3c 8eec c53d b3d2 993e
00000080: a7cb 49bd cbbd 1d3e 7eb6 63be 3017 5a3e
00000090: 486f 563d 1e51 b1be 3ed9 06bf eb90 c53d
000000a0: cbe1 cebd d286 fe3c ff3d 84be f1f4 49be
000000b0: 70bf 36be d64d a33d 6cc1 163f 6b06 303f
000000c0: 1662 1e3f aea7 ea3e 5e0e 0bbf 8b93 cabe
000000d0: 26ba dbbe b060 7bbe 29d5 83be 8db8 98bc
000000e0: be33 02be 74c4 8b3e 5f01 e6be 8741 e03d
000000f0: 975f 9bbe 1b65 1abf bbff 4c3d 07d3 ed3e
00000100: 3ffb 773e 6336 73be 9b2e 86be 8ccb 37be
00000110: d1f0 53be 9279 923d e135 c5be 52af a0be
00000120: 10a8 e73e 5702 7cbe 9571 453d 7c60 803e
00000130: 7d95 473d 9666 ce3e 316a 503d cb8b 1d3e
00000140: c828 1f3e 4410 bd3d 9b6b ad3d 129b f73e
00000150: 001f a83e fd5f a53e 4040 fa3d 71ae 31be
00000160: 3f56 493e 6913 0e3d 9545 b73d 66e7 c83e
00000170: 3b25 9ebe 062d 69be eaed 873e a636 3ebe
00000180: 1154 54bf 9297 7cbd 2481 10be 76e1 37bf
00000190: a78c f63d 44d8 4ebe afc0 903e a179 d83d
000001a0: 1e7a 1bbd bf4b 58be 9df8 b93d 4a20 bbbe
000001b0: 1d52 a7be 3d15 0ebf 27c8 d53e 3f4b f7bc
000001c0: fed6 22be 7be5 b0be 2852 953d 00d0 c13d
000001d0: 9d53 073e cc47 a63e a88a c93e 1934 58be
000001e0: b683 6d3e f312 eabe 4dca 5bbd bbc3 b83e
000001f0: 6539 84be 7c30 7ebb 43ea e2be abca 87bd
00000200: 8d24 e13e 1b9b 3fbd ec1b 8d3d e03b 54bf
00000210: c651 cb3e d70c 4bbd e2e0 56be 7b20 523e
00000220: a2b1 15be 40c0 833d 2077 90bd e767 60be
00000230: c7f5 653e e240 97be eb69 9fbe 9ecb 603e
00000240: 396c 8a3d 9870 9bbe 4777 80be 7f71 71be
00000250: 1915 483e ee9e 43be e173 90be c211 be3c
00000260: 8c6c f83e d815 4f3e 6e22 383f f497 823e
00000270: 219d c03d ebf5 d83a 6e10 a73e 0802 c1bd
00000280: 9591 15be 38c7 ba3d 0540 063f cb74 d43d
00000290: 836e 1a3f c5d7 3fbc 4719 1b3f 0e1b b0bd
000002a0: 0d18 553e b6a2 123f 3abf 0f3e 85a4 3abf
000002b0: a413 df3e b5cd ab3d 2945 a1be fc4b 1b3e
000002c0: b42d ce3d 6c3f a0be f450 78be f973 b3be
000002d0: ebb4 bf3d b56a dcbc 04ae 6c3e 10c0 0fbe
000002e0: bd85 053f efcc c23e a65a 6b3e c52b 56bb
000002f0: 1d5e b2be 6515 0dbf d456 1bbe b0b5 a1bc
00000300: 9ad1 99be d458 efbe 6468 a83d 5609 9c3e
00000310: b159 6fbc d422 c5bd 311e 43be 00c9 e9ba
0.06689958 -0.26377395 0.0011222487 -0.13203374 0.1153468 -0.62355506 -0.29785612 -0.049123988
0.33916286 0.26429933 -0.3875073 0.10746141 -0.22877231 -0.14070982 0.66748977 0.12525205
0.17468862 -0.03081386 0.42207754 0.45415652 0.11644149 -0.7095318 0.07821764 -0.12865207
0.29902112 -0.021769958 -0.64050514 0.32910797 -0.079281285 0.02331493 0.0966426 0.30043563
-0.049266484 0.15404432 -0.22237584 0.21297908 0.05235222 -0.346322 -0.52675235 0.096467815
-0.1010166 0.031070147 -0.2582855 -0.19722344 -0.17846465 0.079738304 0.5888889 0.68759793
0.6186842 0.45831054 -0.543188 -0.3956569 -0.42915457 -0.24548602 -0.25748566 -0.018642688
-0.1271505 0.2729832 -0.4492292 0.10949998 -0.30346367 -0.60310525 0.05004857 0.46450064
0.24216937 -0.23751216 -0.26207432 -0.1794874 -0.20697333 0.07152094 -0.3851767 -0.3138376
0.4524541 -0.24610268 0.048204023 0.25073612 0.048726548 0.40312642 0.050882522 0.15385358
0.155429 0.09231618 0.0846779 0.48360497 0.3283615 0.32299796 0.12219286 -0.173517
0.19661807 0.03468648 0.089488186 0.39239043 -0.3088778 -0.22771081 0.26548702 -0.18575534
-0.82940775 -0.061667986 -0.14111763 -0.718284 0.12038546 -0.20199686 0.28272006 0.10570074
-0.037958257 -0.21122645 0.09080622 -0.36548072 -0.32679835 -0.5550116 0.41754267 -0.030187247
-0.15902326 -0.3455008 0.07291061 0.09463501 0.1321549 0.32476652 0.393636 -0.21113624
0.23194775 -0.45717582 -0.053659726 0.3608683 -0.2582504 -0.0038786223 -0.44319353 -0.06630453
0.439732 -0.04677878 0.06890091 -0.8290386 0.39710826 -0.049572792 -0.20984223 0.20520203
-0.14618543 0.06433153 -0.07053971 -0.21914636 0.22457038 -0.2954169 -0.31135496 0.21952674
0.06758923 -0.3035934 -0.25091 -0.23578452 0.19539298 -0.19103596 -0.2821341 0.023201827
0.48520315 0.20223176 0.71927536 0.25506556 0.0940497 0.0016552781 0.32629722 -0.094242156
-0.14606316 0.09120029 0.52441436 0.10373839 0.6032488 -0.011709158 0.60585445 -0.0859891
0.20809956 0.5727953 0.14037791 -0.72907287 0.43569672 0.08388845 -0.31498078 0.15165704
0.10067311 -0.31298387 -0.24249631 -0.35049418 0.09360679 -0.02690635 0.23113257 -0.1403811
0.52157193 0.38046977 0.22983798 -0.0032679897 -0.34837428 -0.5511077 -0.15169841 -0.019739956
-0.30042726 -0.46747458 0.08223036 0.30475873 -0.014608786 -0.096257836 -0.19054486 -0.0017836392

conv.0.bias f4 [8]
00000000: f0f4 60bd 7421 e43c 7377 ea3c 76b3 823d
00000010: b76d 96bd 1bbf 503d d671 d1bc 458d dfbb
-0.05492109 0.027847983 0.028621411 0.06381886 -0.07345145 0.050963502 -0.025566977 -0.0068222606

conv.1.weight f4 [8]
00000000: a8ca 753f 3379 823f 0ba2 923f 32ce 8a3f
00000010: 396b 4f3f d5a6 893f 502b 7a3f a828 7e3f
0.96012354 1.0193237 1.1455702 1.0844176 0.81022984 1.0754038 0.9772234 0.99280787

conv.1.bias f4 [8]
00000000: 2ff2 0ebe 90f2 623b a3e2 273d 05de e0bc
00000010: 1568 b6bd 7fc9 1fbe 9a54 b6be a0c0 61bd
-0.13959573 0.0034629442 0.040987622 -0.027449617 -0.08906571 -0.15604208 -0.3561142 -0.055115342
