checkpoints/Archive/linear_no_spec.pt (torch, 367133 bytes, 86 tensors)

conv1.weight f4 [8, 1, 5, 5]
0	0xbe20c193	-0.15698843
1	0xbe92db6c	-0.2868303
2	0xbd34463b	-0.04401229
3	0xbdbdab2a	-0.092611626
4	0xbe4663a2	-0.19373944
5	0xbedc5274	-0.43031657
6	0x3d980e5a	0.07424612
7	0xbe915923	-0.28388318
8	0x3de93efa	0.11388965
9	0x3ca5f19d	0.020256812
10	0xbd23f106	-0.04002478
11	0xbebd36a1	-0.3695574
12	0x3e43398f	0.19064926
13	0x3f84614c	1.0342193
14	0x3edd147f	0.431797
15	0xbe5e9b0c	-0.21738833
16	0x3e582af3	0.21110134
17	0x3ebaf47c	0.36514652
18	0x3e1d738d	0.1537611
19	0xbdb6189d	-0.08891413
20	0x3df03db4	0.11730519
21	0xbf08b77c	-0.53404975
22	0xbda9f938	-0.08299488
23	0xbef0cd73	-0.47031745
24	0x3edf03d7	0.43557617
25	0x3e7d1f2a	0.2471892
26	0xbe6cd325	-0.2312742
27	0x3ee76d4c	0.45200574
28	0x3ecb2d03	0.3968278
29	0xbe8b1998	-0.27167964
30	0xbed05d0b	-0.40695986
31	0xbe846318	-0.25856853
32	0x3e860bad	0.26180783
33	0xbcf844c2	-0.030306224
34	0x3e0bc6f3	0.13650112
35	0xbd9ccbb5	-0.076560415
36	0xbf092422	-0.5357076
37	0xbe1ccb6f	-0.15311979
38	0xbf1cd5ab	-0.6126353
39	0xbc79769a	-0.015226031
40	0x3f13cb97	0.5773253
41	0x3de7d61f	0.11320137
42	0xbd887148	-0.06662232
43	0xbea55a65	-0.32295528
44	0xbe1adfc5	-0.15124424
45	0x3d91fd9c	0.0712845
46	0xbe3b8c94	-0.18315345
47	0x3cbc064c	0.022952221
48	0xbe9a4863	-0.30133352
49	0xbe4794dc	-0.19490379
50	0x3e654648	0.22390091
51	0x3e25909a	0.16168442
52	0x3ec12688	0.3772471
53	0x3f599d15	0.85005313
54	0x3e7e8ad8	0.24857652
55	0x3df0d8e5	0.11760119
56	0x3ebf6a8a	0.3738597
57	0x3d715cb0	0.058926284
58	0xbdfa1863	-0.12211683
59	0x3de66866	0.11250381
60	0xbed30cbc	-0.41220653
61	0xbd8bea01	-0.06831742
62	0xbeb2f2ae	-0.34950775
63	0x3d186452	0.037205048
64	0x3de4274c	0.11140308
65	0xbe615c9c	-0.22007984
66	0xbe5102c7	-0.20411216
67	0x3d7a74a8	0.06114641
68	0xbd0524bb	-0.032505732
69	0xbf0a1074	-0.53931355
70	0xbe79fa5f	-0.24411915
71	0xbe81758e	-0.25285
72	0xbd1197a5	-0.03554501
73	0xbe0e9383	-0.13923459
74	0x3e92bb27	0.2865841
75	0x3de5977d	0.11210535
76	0x3e8de28d	0.27711907
77	0x3e58837b	0.21143906
78	0xbbd6ef00	-0.0065592527
79	0x3ea12ed6	0.31481045
80	0x3e1c77d6	0.15280089
81	0x3d081860	0.03322637
82	0x3ea67333	0.32509765
83	0x3efaff84	0.49023068
84	0x3e0537ab	0.13009517
85	0x3e13ecdd	0.14445825
86	0xbe480e1c	-0.19536632
87	0xbd4518ce	-0.04811936
88	0xbe7b051d	-0.2451367
89	0xbea68715	-0.32524934
90	0xbe30437f	-0.17213248
91	0xbe27bc2b	-0.16380374
92	0xbe2cbcfe	-0.1686897
93	0xbe169e3b	-0.14708798
94	0xbd9e690b	-0.07734879
95	0x3e49485d	0.1965651
96	0x3eacffae	0.33788818
97	0xbd9460e4	-0.07245043
98	0xbd76ae7a	-0.060224988
99	0xbd98bc43	-0.07457783
100	0x3e94b23e	0.29042238
101	0x3ebe8aba	0.37215215
102	0x3e387007	0.18011485
103	0xbca8642e	-0.020555582
104	0xbe9254ff	-0.28580472
105	0x3e8aa62d	0.27079907
106	0xbe14e7ac	-0.14541501
107	0x3ea6c488	0.32571816
108	0xbe293ff2	-0.165283
109	0xbd3de47c	-0.046360478
110	0x3dcda82c	0.10041842
111	0xbcb1adf9	-0.021689402
112	0xbe1fc19b	-0.15601198
113	0xbe9f5aff	-0.31124112
114	0xbe01f306	-0.12690362
115	0xbeadd1ce	-0.3394913
116	0x3dc61f1c	0.096739024
117	0xbeb6b57e	-0.35685343
118	0x3dd83831	0.10557593
119	0xbe9f51c3	-0.31117067
120	0x3f16ad72	0.58858407
121	0x3e8a6005	0.27026382
122	0x3d92505d	0.07144234
123	0x3df09c12	0.11748518
124	0xbe1a5cb3	-0.15074424
125	0xbddd1152	-0.10794319
126	0xbde0990c	-0.109666914
127	0x3e858143	0.2607518
128	0x3e1cd9aa	0.15317407
129	0xbda592f4	-0.0808467
130	0xbecca1ba	-0.39967138
131	0xbea4862d	-0.32133618
132	0xbe03025c	-0.12793869
133	0x3d14b27f	0.03630304
134	0xbf1dc0f9	-0.6162258
135	0xbdebdb75	-0.115164675
136	0x3e010ceb	0.12602584
137	0x3ddf0fae	0.108916625
138	0xbe40adea	-0.18816343
139	0x3d73537d	0.059405793
140	0x3ede8706	0.4346239
141	0x3e7f74d8	0.24946916
142	0x3cf0196f	0.029309003
143	0xbd9d7b51	-0.07689536
144	0xbe68b640	-0.22725773
145	0x3f4a7722	0.7908803
146	0x3db25e06	0.0870934
147	0xbe27db5b	-0.16392271
148	0x3e4164a7	0.18886052
149	0xbb7565c7	-0.0037444697
150	0xbe66ce6c	-0.22539681
151	0xbea4656e	-0.32108635
152	0x3e7551c3	0.23956971
153	0xbdaa2365	-0.08307532
154	0x3e09aba3	0.1344438
155	0x3e742c7d	0.23845096
156	0x3eaf5c86	0.34250277
157	0x3ce672f1	0.02813098
158	0x3e1dc85b	0.15408461
159	0x3c7ab9f6	0.015303126
160	0x3b1b8112	0.0023728055
161	0x3f747837	0.95495933
162	0x3ed3c783	0.41363153
163	0xbde5691d	-0.112016894
164	0xbe201ea6	-0.15636691
165	0xbe77373f	-0.24142168
166	0x3e88934e	0.26674885
167	0x3e2c9a29	0.16855682
168	0x3e792722	0.24331334
169	0x3e97ba29	0.29634216
170	0xbd0eb542	-0.03484083
171	0xbeae3bdc	-0.34030044
172	0x3e4d1601	0.20027925
173	0xbd448a8b	-0.047983687
174	0x3e7e2214	0.24817687
175	0xbf395861	-0.7240048
176	0x3e37eccf	0.17961429
177	0xbe98e1ef	-0.29859874
178	0x3d165918	0.03670606
179	0xbe06e2f1	-0.13172509
180	0xbeee55a8	-0.46549726
181	0xbe80021f	-0.25001618
182	0xbeb6828a	-0.35646468
183	0x3e90565a	0.2819088
184	0xbe57561d	-0.21028943
185	0xbd8819a9	-0.06645519
186	0x3ea55869	0.32294014
187	0x3dc1d167	0.094637685
188	0xbe0c8234	-0.13721544
189	0xbddcac1c	-0.10775015
190	0x3e967911	0.2938924
191	0x3ed5e036	0.41772622
192	0xbe40ade9	-0.18816341
193	0x3d83c204	0.0643349
194	0x3d03c2a2	0.03216804
195	0xbec7bf4e	-0.3901314
196	0xbe48e609	-0.19619001
197	0xbe1dd722	-0.15414098
198	0xbe99e8fc	-0.30060565
199	0xbdce9db7	-0.100886755

conv1.bias f4 [8]
0	0xbd4bdc90	-0.04977089
1	0xbd6def35	-0.058089454
2	0x3c9a46fb	0.018832674
3	0x3d907cee	0.070550784
4	0xbdaafd21	-0.08349062
5	0x3c87a825	0.01655967
6	0x3dccd9da	0.100024894
7	0xbd2be224	-0.04196371

bn1.weight f4 [8]
0	0x3f6f5ab8	0.934978
1	0x3fabc49f	1.3419379
2	0x3f8ce4ce	1.1007326
3	0x3f804f5e	1.0024221
4	0x3f49cd30	0.78828716
5	0x3f71cb69	0.94451004
6	0x3f7d5097	0.98951095
7	0x3facb476	1.3492572

bn1.bias f4 [8]
0	0xbd4dd0b1	-0.05024785
1	0x3de40702	0.11134149
2	0xbb8adb13	-0.0042375415
3	0xbe7fd584	-0.24983793
4	0x3dfa0242	0.12207462
5	0x3d4d2a94	0.050089434
6	0x3d240bbe	0.04005026
7	0x3d8c5a98	0.06853217

bn1.running_mean f4 [8]
0	0xbd84f984	-0.06492904
1	0xbd1b995f	-0.037988063
2	0x3c5f0b38	0.013613515
3	0x3d906ee3	0.070524
4	0xbd86432a	-0.06555779
5	0x3cf5ad6d	0.029989922
6	0x3da9198b	0.08256825
7	0xbcf2a441	-0.029619338

bn1.running_var f4 [8]
0	0x3f8e3aab	1.1111654
1	0x4008d9d8	2.1382961
2	0x3f9e1bc3	1.2352222
3	0x3f8c99b1	1.0984403
4	0x3f6763ba	0.90386546
5	0x3f2c647f	0.67340845
6	0x409afa46	4.843051
7	0x408291f2	4.0803156

conv2.weight f4 [16, 8, 3, 3]
0	0x3dc6947f	0.09696292
1	0xbd956d87	-0.07296281
2	0x3dfbead1	0.12300647
3	0xbe0009cf	-0.12503742
4	0xbd23cb7f	-0.03998899
5	0x3e15e43b	0.14637844
6	0x3d475081	0.04866076
7	0xbe1b36db	-0.15157644
8	0x3e05cfa7	0.13067494
9	0xbda99d43	-0.082819484
10	0xbe4d263b	-0.20034115
11	0xbe471d51	-0.19444777
12	0xbde326a3	-0.11091354
13	0xbdc53109	-0.09628493
14	0xbe70ccde	-0.2351565
15	0xbe768505	-0.2407418
16	0xbdde367e	-0.10850237
17	0xbe171479	-0.14753903
18	0x3d1d3940	0.038384676
19	0x3e5a4ef6	0.21319184
20	0xbe901096	-0.28137654
21	0xbcc763d5	-0.024339596
22	0x3d08bac2	0.03338123
23	0x3d1d581c	0.038414106
24	0xbe33db8e	-0.17564222
25	0xbe1d6dd5	-0.15373929
26	0x3bcf27b4	0.0063218717
27	0x3e9f1292	0.31068856
28	0x3d9c0d2a	0.07619698
29	0xbe90ec82	-0.2830544
30	0x3ccc8ccc	0.024969481
31	0x3e3b6cfe	0.18303296
32	0xbe60d1cb	-0.2195503
33	0xbd0dead0	-0.034647763
34	0xbd55e121	-0.052216653
35	0xbdf776ff	-0.120832436
36	0xbd4c17b0	-0.049827278
37	0xbe1e7b90	-0.15476823
38	0x3ddae0b2	0.106873885
39	0xbc60d97c	-0.013723727
40	0x3ded5439	0.1158833
41	0x3e373aae	0.17893478
42	0xbe2e2c91	-0.17009188
43	0x3d626741	0.05527425
44	0xbe38c9b9	-0.18045701
45	0xbda7ef6b	-0.08199962
46	0xbd698127	-0.057007935
47	0x3d6e258c	0.058141276
48	0x3e35425e	0.17701098
49	0x3cdd89c9	0.02704324
50	0x3e16042a	0.14650026
51	0x3e282f3d	0.1642427
52	0x3e80854e	0.25101703
53	0x3dda1eee	0.106504306
54	0xbee6ac2d	-0.45053235
55	0x3e985355	0.29751077
56	0xbe844892	-0.25836617
57	0xbe170919	-0.14749564
58	0x3e392226	0.18079433
59	0xbeda8bdc	-0.4268483
60	0x3e999f0e	0.30004162
61	0xbea5d45b	-0.32388577
62	0xbda15644	-0.07877782
63	0xbd9e1b91	-0.077201016
64	0xbe20cc8c	-0.15703028
65	0xbe167895	-0.14694436
66	0xbca69b81	-0.020337822
67	0xbe8a19b2	-0.2697273
68	0xbefca8f9	-0.49347666
69	0x3de1fdc2	0.110347286
70	0xbe62ec0a	-0.22160354
71	0xbf0a6c78	-0.5407176
72	0xbe5578d8	-0.2084688
73	0xbc1526b6	-0.009103468
74	0xbe116736	-0.14199528
75	0xbe3a12dd	-0.18171258
76	0x3e02662c	0.12734288
77	0xbde385e1	-0.1110952
78	0xbed41709	-0.41423824
79	0x3d6f5d40	0.05843854
80	0xbe9e1c08	-0.3088076
81	0x3e80bc8e	0.25143856
82	0x3ddbf2d9	0.10739679
83	0x3e0c7047	0.13714705
84	0x3d733405	0.05937578
85	0xbdedb1af	-0.11606156
86	0x3db60ee2	0.088895574
87	0x3eafea29	0.34358338
88	0xbe7b3b6b	-0.24534385
89	0xbe739e3b	-0.23790829
90	0xbd29cefa	-0.041457154
91	0xbdc31e25	-0.09527234
92	0x3c15e84e	0.009149624
93	0xbe924e08	-0.28575158
94	0xbe823050	-0.25427485
95	0x3e1bc6ce	0.15212557
96	0xb980bb6e	-0.00024553708
97	0xbd8b5eb0	-0.068051696
98	0xbded7373	-0.11594286
99	0x3de476da	0.11155482
100	0x3d367b7c	0.044551358
101	0x3eca9290	0.39564943
102	0xbe433a9e	-0.1906533
103	0xbe4feda9	-0.20305504
104	0x3e97d561	0.29654983
105	0x3d01f9fa	0.031732537
106	0xbe455c64	-0.19273525
107	0x3cf37cec	0.029722653
108	0x3de6c244	0.11267522
109	0xbd90bf1a	-0.070677
110	0x3de28f68	0.11062509
111	0x3df1769c	0.11790201
112	0x3de56e5c	0.1120269
113	0x3d9ffdbc	0.07812068
114	0xbd6df774	-0.058097318
115	0xbd46ff01	-0.048583034
116	0xbd13a96f	-0.036050256
117	0xbdaf6334	-0.08563843
118	0x3d8bd8aa	0.06828435
119	0x3e811999	0.25214842
120	0x3ea630b5	0.32459036
121	0x3ec7e6c9	0.39043263
122	0x3e351901	0.1768532
123	0x3e2466d9	0.16054858
124	0x3de54a12	0.111957684
125	0xbe4a65fd	-0.19765468
126	0xbe27b352	-0.16376999
127	0xbe324e8c	-0.17412776
128	0x3de5059b	0.1118271
129	0x3d788f90	0.060683787
130	0xbe7ea16b	-0.24866264
131	0x3dfeee06	0.12447743
132	0xbe408410	-0.18800378
133	0x3b84a091	0.0040474613
134	0xbe2b0ab5	-0.16703303
135	0xbdb3e62b	-0.087841354
136	0xbe9012c1	-0.28139308
137	0xbe87788e	-0.26459163
138	0x3e8248d8	0.254462
139	0xbcbd8996	-0.023136895
140	0xbd4143e3	-0.047183882
141	0xbd43d901	-0.047814373
142	0xbd6ecce2	-0.05830086
143	0xbc290167	-0.010315276
144	0xbdd97cbe	-0.10619496
145	0xbdf8d8c8	-0.12150723
146	0xbde9932a	-0.114050224
147	0x3e5bad6d	0.21452875
148	0xbde49671	-0.11161507
149	0xbd9fe2b4	-0.07806912
150	0x3eb31909	0.34980038
151	0xbd655a18	-0.055994123
152	0xbe685446	-0.22688398
153	0x3ed3bf06	0.41356677
154	0x3e0cf48d	0.13765164
155	0xbefa8f9a	-0.48937684
156	0xbde5d0f9	-0.11221499
157	0x3d8a1964	0.06743124
158	0x3e6a4109	0.22876371
159	0x3e083a6b	0.13303535
160	0x3e5eeda3	0.21770339
161	0xbd16fc0d	-0.036861468
162	0xbdc84882	-0.09779455
163	0xbe1ebc45	-0.15501507
164	0xbcaf3e3b	-0.021391978
165	0xbe574afa	-0.21024695
166	0xbe9f5fd4	-0.311278
167	0xbe89921c	-0.26869285
168	0xbeb4c033	-0.35302886
169	0xbc21ef05	-0.009883647
170	0xbd864004	-0.06555179
171	0xb8d06c71	-9.938412e-05
172	0x3e35b3bc	0.17744344
173	0xbe1875c0	-0.14888668
174	0x3cdd28d5	0.02699701
175	0x3e6296f0	0.2212789
176	0xbd80c272	-0.062870875
177	0x3ea1bc07	0.31588766
178	0x3eaeb3bb	0.34121498
179	0xbdb3e9df	-0.08784842
180	0x3ddc3f30	0.107542396
181	0xbdd7b1d5	-0.10531966
182	0x3d4b185f	0.04958379
183	0xbe286c11	-0.16447474
184	0x3cc9a934	0.024616815
185	0x3de68478	0.11255735
186	0xbe4d64ac	-0.20057935
187	0xbc87e474	-0.016588427
188	0xbbfae136	-0.0076562418
189	0x3e301fc2	0.17199615
190	0x3ead5302	0.33852392
191	0x3e978e9f	0.29601
192	0xbc31824c	-0.010834288
193	0x3dfa7bcb	0.12230643
194	0xbe603c45	-0.21897991
195	0x3da1fd8b	0.079096876
196	0xbdcc44e0	-0.09974074
197	0x3e16de47	0.1473323
198	0xbe74a22a	-0.23889986
199	0xbdc96bf1	-0.09835041
200	0xbe102049	-0.14074816
201	0x3e43903d	0.19097991
202	0x3de57701	0.11204339
203	0x3d96dc21	0.07366205
204	0xbca0bc7b	-0.019621124
205	0x3e84a432	0.2590652
206	0x3e2289da	0.15872899
207	0xbe035c02	-0.12828067
208	0xbd0bc8cb	-0.034127038
209	0xbe6fdd82	-0.23424342
210	0xbcef3081	-0.029197933
211	0xbe549653	-0.20760469
212	0x3e9652b1	0.29359964
213	0x3d7a69fc	0.06113623
214	0xbd0536a3	-0.03252281
215	0xbe4ae50d	-0.19813938
216	0xbd637620	-0.055532575
217	0xbc251037	-0.010074667
218	0x3d846e48	0.06466347
219	0x3e345c6d	0.17613383
220	0xbe948d22	-0.29013926
221	0xbe967f02	-0.29393774
222	0x3dab70ba	0.0837111
223	0x3e8cff14	0.2753836
224	0xbdffe6a3	-0.12495162
225	0x3dc05596	0.09391324
226	0x3d8dad5f	0.069178335
227	0x3b1f2d5e	0.0024288516
228	0x3da85d1d	0.08220885
229	0xbe2e6971	-0.1703241
230	0x3e518c03	0.20463566
231	0x3dc632da	0.09677668
232	0x3d94bc49	0.07262475
233	0xbdee0864	-0.11622694
234	0x3d750410	0.059818327
235	0xbd9a79e7	-0.07542782
236	0x3e880b70	0.26571226
237	0x3e44dd33	0.19225006
238	0xbe52d9af	-0.20590852
239	0x3e8053f1	0.25064042
240	0xbe33e82b	-0.17569034
241	0xbe7f180f	-0.24911521
242	0xbe47db3b	-0.19517224
243	0x3c8caa55	0.017171064
244	0x3d55bdbc	0.052182898
245	0xbe4927d0	-0.19644094
246	0xbe153411	-0.14570643
247	0xbe1d4636	-0.15358815
248	0xbcac0073	-0.020996308
249	0xbd585b71	-0.05282158
250	0x3e408979	0.18802442
251	0xbd930a96	-0.071797535
252	0xbecdd988	-0.40205026
253	0x3c2b8646	0.010469025
254	0xbe3282a0	-0.17432642
255	0xbf044e75	-0.51682216

conv2.bias f4 [16]
0	0x3cdf6e8c	0.027274393
1	0x3d48d0cc	0.04902725
2	0x3d609cea	0.054837145
3	0x3d949554	0.072550446
4	0xbbbbb4fb	-0.0057283617
5	0xbbe050f5	-0.0068455883
6	0x3cc4889e	0.023990925
7	0x3c20eb43	0.009821716
8	0xbd6f5fcb	-0.058440965
9	0x3d044863	0.032295596
10	0x3d98d9af	0.07463395
11	0x3dbc102a	0.091827706
12	0xbcf06016	-0.029342692
13	0xbd5e2949	-0.05423859
14	0xbcd35106	-0.02579547
15	0x3b0e8ece	0.0021752599

bn2.weight f4 [16]
0	0x3f84abb3	1.0364898
1	0x3f751a4c	0.9574325
2	0x3f7241f3	0.9463188
3	0x3f80ac5a	1.0052598
4	0x3f5d9aeb	0.8656451
5	0x3f6f2148	0.9341016
6	0x3f82847f	1.0196685
7	0x3f8a0f4f	1.0785922
8	0x3f80e81e	1.0070837
9	0x3fa1be6f	1.2636241
10	0x3f7e62ec	0.9936969
11	0x3fab893c	1.3401256
12	0x3f5c8045	0.86133224
13	0x3f6a1239	0.91434056
14	0x3f85997c	1.0437465
15	0x3f847b78	1.035018

bn2.bias f4 [16]
0	0x3dabe1ff	0.08392715
1	0x3dff9858	0.12480229
2	0xbd8d1a19	-0.06889743
3	0x3e1ea743	0.15493493
4	0xbe30cf53	-0.17266588
5	0x3c89205e	0.016739067
6	0x3debc1ee	0.115115985
7	0x3b5c6b30	0.0033633225
8	0xbe36abf8	-0.17839038
9	0xbe175120	-0.1477704
10	0xbdb73c14	-0.08947006
11	0xbc18b5ec	-0.009320717
12	0xbe8f5cf3	-0.28000602
13	0xbd571574	-0.052510694
14	0x3e2bba02	0.16770175
15	0x3cada138	0.02119504

bn2.running_mean f4 [16]
0	0xbfa8e424	-1.3194623
1	0xbd50b640	-0.050955057
2	0x3d41ddea	0.047330774
3	0xbdc69e79	-0.09698195
4	0x3f3fe14b	0.74953145
5	0x3f55f532	0.83577263
6	0x3e5d1fbc	0.21594137
7	0x3e16baa2	0.14719632
8	0x3f2f0a9d	0.6837557
9	0x3f3404bc	0.70319724
10	0xbe59bea3	-0.21264128
11	0x3f63e8c7	0.89027065
12	0x3f1e346d	0.61798745
13	0xbe1b0de9	-0.15142025
14	0xbe8b9d06	-0.27268237
15	0x3dfbb522	0.12290408

bn2.running_var f4 [16]
0	0x3f8c6176	1.0967243
1	0x3f79744b	0.97443074
2	0x3f63b506	0.88948095
3	0x3fa614c8	1.2975092
4	0x3fb42714	1.4074426
5	0x3fd30c1b	1.6488069
6	0x3f522ec8	0.8210263
7	0x3fed3f46	1.8534935
8	0x3f844abf	1.0335311
9	0x3f415f43	0.7553598
10	0x3f4ea577	0.8072123
11	0x3f201763	0.62535685
12	0x3f096bc9	0.5368009
13	0x3f33b162	0.7019254
14	0x3f436dfe	0.7633971
15	0x3f05c618	0.5225539

conv3.weight f4 [32, 16, 3, 3]
0	0xbd98bb6d	-0.07457624
1	0xbc94781f	-0.018123684
2	0x3dbc4cd8	0.09194344
3	0x3e698a99	0.22806777
4	0x3d3580d6	0.04431232
5	0xbddadaa7	-0.10686236
6	0xbd3d8703	-0.046271335
7	0x3e198172	0.14990786
8	0xbd8df0aa	-0.06930669
9	0xbd0a4d43	-0.03376509
10	0xbe03f246	-0.12885389
11	0xbdb52a63	-0.08845975
12	0xbbc39336	-0.0059684766
13	0xbdd43334	-0.10361329
14	0x3d680550	0.05664569
15	0xbe47f1dd	-0.19525857
16	0xbd8c35bb	-0.06846186
17	0x3ea16e63	0.3152953
18	0x3d50e755	0.051001865
19	0x3d535a17	0.05159959
20	0xbc356a57	-0.011072717
21	0xbdc64f63	-0.096831106
22	0xbbce64c0	-0.0062986314
23	0xbde078e9	-0.10960562
24	0xbdf7a145	-0.120913066
25	0x3c99dfd4	0.018783487
26	0xbdd9b090	-0.1062938
27	0x3dcabb9b	0.09899064
28	0xbd7d36f8	-0.06182
29	0xbdea2f6f	-0.114348285
30	0x3e0973db	0.13423102
31	0xbe3fa1e3	-0.18714099
32	0x3d177126	0.03697314
33	0x3dcccf31	0.10000456
34	0xbecced4a	-0.40024787
35	0xbda0650a	-0.07831772
36	0xbe0c511a	-0.13702813
37	0x3db9f8aa	0.09080632
38	0xbcefd5ff	-0.029276846
39	0xbdf2cae5	-0.11855105
40	0x3d9159ca	0.07097204
41	0xbe81bdbc	-0.25340068
42	0x3e2c3a68	0.16819155
43	0x3bca8d81	0.0061814194
44	0xbdb5b5c1	-0.088725574
45	0xbc832fd8	-0.016014025
46	0xbdad26bb	-0.08454653
47	0xbda33f2c	-0.079710335
48	0x3e1a7cbe	0.15086648
49	0xbaff08e7	-0.0019457609
50	0xbd186655	-0.037206966
51	0x3d15ec9b	0.036602598
52	0xbdb5b826	-0.08873014
53	0x3e172d8e	0.14763471
54	0xbdc6ded0	-0.09710467
55	0x3e15d829	0.1463324
56	0x3e1c35c4	0.15254885
57	0xbbd90529	-0.0066229296
58	0xbebbbf32	-0.36669308
59	0xbe0922d6	-0.13392195
60	0xbd3c6e9d	-0.046003927
61	0xbd93965a	-0.07206412
62	0x3dcc7569	0.09983332
63	0xbdc113ce	-0.094276056
64	0xbe53adec	-0.20671815
65	0xbd3179c0	-0.043329
66	0x3d49f881	0.049309257
67	0x3cc83b1a	0.024442244
68	0x3d7856c7	0.060629632
69	0x3d213bc1	0.039363626
70	0x3d8a17cc	0.0674282
71	0x3db5d530	0.08878553
72	0xbe4319ab	-0.1905276
73	0xbdb8d144	-0.09024289
74	0xbe002c6d	-0.12516947
75	0x3e814d06	0.25254077
76	0x3baa8622	0.005203978
77	0x3e3a7b44	0.18211085
78	0xbe16999a	-0.14707032
79	0xbd32e147	-0.043671872
80	0x3db525c9	0.088450976
81	0x3d98d3a3	0.074622415
82	0xbe3ed4f8	-0.18635929
83	0xbe50628b	-0.20350091
84	0xbcdbb29b	-0.026818564
85	0xbd983063	-0.07431104
86	0xbc66e500	-0.014092684
87	0x3e596e98	0.21233594
88	0x3d2ef5d2	0.0427149
89	0x3c9fd414	0.019510306
90	0x3a807e00	0.0009803176
91	0x3d923aa8	0.07140094
92	0x3de21373	0.11038866
93	0xbe19a42c	-0.15004033
94	0xbdbc4e31	-0.09194601
95	0xbdc075f1	-0.093974955
96	0x3e2a2010	0.16613793
97	0x3dd8de3e	0.10589264
98	0x3e4e9c95	0.20176919
99	0x3dbcd97c	0.09221169
100	0xbdd7104c	-0.10501155
101	0xbd6349c4	-0.05549027
102	0x3c07e554	0.008294422
103	0x3e0eb14c	0.13934821
104	0xbd789805	-0.060691852
105	0x3e343675	0.17598899
106	0xbbcff0ba	-0.0063458355
107	0x3e712a58	0.23551309
108	0x3da464b0	0.08027017
109	0x3de5e93b	0.11226126
110	0x3da9a6e0	0.08283782
111	0xbd8b853b	-0.06812521
112	0x3de2f468	0.11081773
113	0xbde73c7a	-0.11290832
114	0x3e5488c7	0.20755301
115	0x3dc953bc	0.09830424
116	0xbd083d8c	-0.03326182
117	0x3d35b926	0.044366024
118	0x3d550aab	0.052012127
119	0xbce32ac7	-0.027730359
120	0x3df94571	0.12171448
121	0x3de5df59	0.11224241
122	0x3e3c8b61	0.18412544
123	0xbdcdf4d5	-0.10056464
124	0xbd047a12	-0.032342978
125	0xbdb7b18a	-0.0896941
126	0x3d8d2ef7	0.068937235
127	0xbdff46c2	-0.12464668
128	0xbdc6df00	-0.097105026
129	0xbea265af	-0.31718203
130	0xbe21b3ab	-0.15791194
131	0xbc9c5041	-0.019081237
132	0x3ddc0cd3	0.107446335
133	0xbdb51554	-0.08841959
134	0x3d197e2d	0.037473846
135	0xbee3fb6c	-0.44527757
136	0x3d1ebcb3	0.038754176
137	0x3dae9578	0.08524603
138	0x3e0bb4fb	0.13643257
139	0x3d9d70e3	0.07687547
140	0x3ea668fb	0.3250197
141	0xbe72b33f	-0.2370119
142	0xbd10838f	-0.035281714
143	0x3d579c77	0.05263945
144	0x3e0c10f4	0.13678342
145	0x3e561547	0.20906554
146	0x3d1f6eaa	0.038923897
147	0xbe2f4d10	-0.17119241
148	0x3d594273	0.053041887
149	0x3e57dd28	0.21080458
150	0x3de65c44	0.11248067
151	0x3c7b00a4	0.015319977
152	0xbd5b44f9	-0.053532574
153	0xbdbe2c91	-0.09285844
154	0x3dba8197	0.091067486
155	0x3d6fcbe6	0.058544062
156	0xbb6251a0	-0.0034533516
157	0x3cf3c9c3	0.029759293
158	0x3e3a7962	0.18210366
159	0x3d9eb688	0.07749659
160	0x3da5f843	0.08103993
161	0x3ebce93d	0.36896697
162	0xbd9b083c	-0.0756993
163	0xbd23f806	-0.040031455
164	0xbd45f074	-0.048325017
165	0xbcb4f756	-0.022090595
166	0x3d5916b4	0.053000167
167	0x3cdb50b4	0.02677188
168	0x3dd90aa9	0.105977364
169	0x3de08b13	0.10964026
170	0xbe90c9f5	-0.2827908
171	0xbe7563b0	-0.23963809
172	0xbcae7bc2	-0.021299247
173	0xbcf9f4a9	-0.03051217
174	0xbc8f3b68	-0.017484382
175	0xbc94c84f	-0.01816192
176	0xbcbd379f	-0.023097811
177	0xbd88a25a	-0.06671591
178	0xbdaabac9	-0.08336408
179	0x3eb3531a	0.3502434
180	0x3d7346bf	0.05939364
181	0xbd8e00f8	-0.069337785
182	0x3d2ac7db	0.041694503
183	0x3e4548f6	0.19266114
184	0xbb478f22	-0.0030450304
185	0x3dba9a48	0.09111458
186	0x3d7f1246	0.062273286
187	0x3c483c87	0.012221462
188	0xbde38ecc	-0.11111221
189	0x3e166ad2	0.14689186
190	0x3e35e1f1	0.17761971
191	0xbe8b805b	-0.27246365
192	0x3dc7644a	0.097359255
193	0x3d483415	0.048877794
194	0xbe01577a	-0.12631026
195	0xbd8fb0b4	-0.07016125
196	0x3dee38c8	0.11631924
197	0xbe412be7	-0.18864404
198	0x3e313010	0.1730349
199	0x3e64694a	0.2230579
200	0x3e0d1f14	0.13781387
201	0x3d97db75	0.07414905
202	0xbd733417	-0.05937585
203	0x3e73f96f	0.2382562
204	0x3de2b3c7	0.11069446
205	0x3e81cfd3	0.2535387
206	0x3e46a0a3	0.19397216
207	0xbcd49b4b	-0.025952956
208	0xbe522875	-0.20523246
209	0x3d89a86c	0.06721577
210	0x3e22986e	0.1587846
211	0x3d3f710c	0.04673867
212	0x3cc1a543	0.023638373
213	0x3ceb70fe	0.028740402
214	0x3bd78eea	0.006578316
215	0xbe4099ab	-0.1880862
216	0x3db05d0e	0.08611499
217	0x3d028881	0.03186846
218	0x3e812978	0.2522695
219	0x3d91cb7a	0.07118888
220	0xbe4f7695	-0.20260079
221	0x3e18a34b	0.14906041
222	0x3d6aa400	0.05728531
223	0x3e2692fb	0.16267006
224	0xbca998b2	-0.020702694
225	0x3df049a6	0.11732797
226	0x3e8189d4	0.25300467
227	0xbdc89188	-0.09793383
228	0x3e3fec1b	0.18742411
229	0xbe36ddef	-0.17858098
230	0xbdcf64cd	-0.10126648
231	0x3e03fe30	0.12889934
232	0x3d93cdab	0.072169624
233	0xbe2a1538	-0.16609657
234	0xbd522481	-0.051304344
235	0x3c8f0039	0.01745616
236	0x3db6e948	0.089312136
237	0xbdda9f37	-0.10674899
238	0x3d961947	0.0732904
239	0xbddf4958	-0.10902661
240	0xbe9459d6	-0.2897479
241	0xbe6d93e7	-0.23200952
242	0xbe43b82f	-0.19113229
243	0x3c4458ea	0.011984089
244	0x3e07ef88	0.13274968
245	0x3e65ae93	0.22429876
246	0x3da22fa3	0.07919242
247	0xbe4f682e	-0.20254585
248	0x3e07b232	0.1325157
249	0x3de9e361	0.11420322
250	0x3e06b91e	0.13156554
251	0x3eb1d3bb	0.3473185
252	0x3dee96da	0.116498664
253	0xbdbf4184	-0.09338668
254	0xbe19d212	-0.15021542
255	0x3dabd2be	0.08389805

conv3.bias f4 [32]
0	0x3e1e22c8	0.15442955
1	0xbbf43c36	-0.0074534668
2	0x3e185f89	0.14880194
3	0xbbc18c55	-0.0059066215
4	0xbd8d2d1b	-0.06893369
5	0x3d26ff71	0.04077095
6	0x3d1d8558	0.038457245
7	0x3da29b55	0.079397835
8	0xbdb89e18	-0.09014529
9	0x3c1058e8	0.008810259
10	0xbd7c95e4	-0.061666384
11	0x3d126d9a	0.035749055
12	0x3d920acd	0.07130966
13	0xbd8cd17c	-0.068758935
14	0x3dd7b8de	0.105333075
15	0xbdb05037	-0.0860905
16	0x3c856a8e	0.01628616
17	0x3cd048dc	0.025425367
18	0xbd4079ed	-0.046991277
19	0xbca365d3	-0.019946015
20	0x3e12e6ee	0.14345905
21	0x3e05ac14	0.13053924
22	0x3ae0619d	0.0017118935
23	0xbdcc4ad5	-0.099752106
24	0xbdb3f13b	-0.087862454
25	0x3d983347	0.074316554
26	0xbddf7e07	-0.1091271
27	0x3d20deca	0.03927497
28	0x3ba6674b	0.0050782315
29	0x3d8d7cbd	0.069085576
30	0x3d489a55	0.048975307
31	0xbd5dc746	-0.05414512

bn3.weight f4 [32]
0	0x3f754970	0.9581518
1	0x3f6bd7df	0.9212627
2	0x3f77764c	0.9666488
3	0x3f493351	0.7859393
4	0x3f74598d	0.95449144
5	0x3f9677b5	1.1755282
6	0x3f84b82d	1.0368706
7	0x3f4c8e12	0.7990428
8	0x3f783db2	0.9696914
9	0x3f9a17f8	1.2038565
10	0x3f31c510	0.6944132
11	0x3f5e3a2d	0.8680752
12	0x3f7d7a1f	0.99014467
13	0x3f82ad79	1.020919
14	0x3f830ded	1.0238625
15	0x3f87f36a	1.0621159
16	0x3f8d4f39	1.1039802
17	0x3f707cdf	0.9394054
18	0x3f878996	1.0588863
19	0x3f76b927	0.9637627
20	0x3f8989c8	1.0745173
21	0x3f8089d1	1.0042058
22	0x3f8b3578	1.0875692
23	0x3f7b21fd	0.98098737
24	0x3f860eab	1.0473226
25	0x3f84f4de	1.0387228
26	0x3f957ccb	1.1678709
27	0x3f7689ef	0.9630422
28	0x3f7bf8dd	0.9842661
29	0x3f700233	0.93753356
30	0x3f845e6a	1.0341313
31	0x3f7765cb	0.966397

bn3.bias f4 [32]
0	0xbd9424a9	-0.07233555
1	0xbe427419	-0.189896
2	0xbe65f0f0	-0.22455192
3	0xbe622936	-0.22086033
4	0xbeaf33f4	-0.34219325
5	0xbd5b0358	-0.053469986
6	0xbd6a5d8c	-0.05721812
7	0xbe8dd80b	-0.2770389
8	0xbe9c3e5c	-0.30516326
9	0xbe0ac464	-0.1355148
10	0xbe9f80e1	-0.31153014
11	0xbe53718e	-0.20648786
12	0xbe83161e	-0.25602812
13	0xbe23c00f	-0.15991233
14	0xbe363b29	-0.17796005
15	0xbe15f248	-0.14643204
16	0xbe90c02e	-0.2827162
17	0xbe0f328c	-0.13984126
18	0xbe50822d	-0.20362158
19	0xbe543c81	-0.20726205
20	0xbe56a234	-0.20960313
21	0xbe3e94bb	-0.18611424
22	0x3ba8a74e	0.0051468974
23	0xbdd7259d	-0.10505221
24	0xbda41eba	-0.08013673
25	0xbe4b6ac4	-0.19864947
26	0xbdfd723b	-0.12375303
27	0xbe3e0b48	-0.18558991
28	0xbed4f61a	-0.4159401
29	0xbe8543d9	-0.26028326
30	0xbe3d86dd	-0.18508478
31	0xbe87d109	-0.2652667

bn3.running_mean f4 [32]
0	0xbe82b9f7	-0.25532505
1	0x3f48e760	0.7847805
2	0x3cadc65f	0.021212755
3	0x3e8ac391	0.2710233
4	0x3e2dd3dc	0.16975349
5	0xbe7401df	-0.23828839
6	0x3f1eb171	0.61989504
7	0xbe3360bc	-0.1751737
8	0x3f2197de	0.63122356
9	0x3f6b5840	0.91931534
10	0x3ec2f96b	0.38080916
11	0x3f3e3555	0.7430013
12	0x3e861472	0.26187474
13	0x3f119715	0.5687116
14	0x3f148272	0.58011544
15	0x3ded7542	0.11594631
16	0x3f0b632e	0.5444821
17	0x3f52b264	0.8230345
18	0xbeff879e	-0.49908155
19	0xbecda993	-0.40168437
20	0xbed3ac19	-0.41342238
21	0x3e30d462	0.17268518
22	0x3c19466f	0.009355172
23	0x3e884bcf	0.26620337
24	0xbf1fd564	-0.62434983
25	0x3df9f637	0.12205165
26	0xbf92d98c	-1.147264
27	0x3f27a6db	0.65488976
28	0x3efaa7c0	0.48956108
29	0x3d7b605d	0.061371196
30	0xbf3cf05b	-0.73804253
31	0x3e47ae8a	0.19500175

bn3.running_var f4 [32]
0	0x3ee0cf36	0.4390809
1	0x3f63622b	0.8882167
2	0x3f1d6aeb	0.6149127
3	0x3f9ffe0f	1.2499408
4	0x3ef41504	0.47672284
5	0x3f501ec7	0.8129696
6	0x3f0d8806	0.5528568
7	0x3f141519	0.5784469
8	0x3f27bdbc	0.65523887
9	0x3f0a4550	0.5401201
10	0x3f38ed2d	0.722369
11	0x3f051d60	0.5199795
12	0x3f10259f	0.56307405
13	0x3eb15207	0.34632894
14	0x3f49023f	0.7851905
15	0x3f69c547	0.91316646
16	0x3f1f29b5	0.62173015
17	0x3f0b7945	0.5448192
18	0x3f04190b	0.5160071
19	0x3f207238	0.62674284
20	0x3f4352bb	0.7629811
21	0x3ee8dd3e	0.45481294
22	0x3f0185a8	0.5059457
23	0x3f01d632	0.5071746
24	0x3f126601	0.57186896
25	0x3f06c5b8	0.52645445
26	0x3f4c7c3a	0.79877055
27	0x3f809f97	1.0048703
28	0x3f5facf1	0.8737326
29	0x3f29523d	0.6614111
30	0x3f48fc9a	0.7851044
31	0x3f3b67fc	0.7320554

conv4.weight f4 [64, 32, 3, 3]
0	0x3d4f4a96	0.05060824
1	0xbd96f935	-0.07371751
2	0x3dbcd002	0.09219362
3	0x3e21e60c	0.15810412
4	0xbb9d8f35	-0.0048083314
5	0x3db0d26c	0.08633885
6	0x3d568a88	0.052378207
7	0xbc77137b	-0.015080328
8	0x3dc1b9c8	0.09459263
9	0xbdd03592	-0.10166468
10	0xbd9e56ec	-0.07731423
11	0xbd8389b1	-0.06422747
12	0x3dcdebc7	0.100547366
13	0x3d047512	0.03233821
14	0x3da021e0	0.07818961
15	0xbbfe0a7a	-0.0077527137
16	0xbd189f7b	-0.037261467
17	0xbe0e6618	-0.13906133
18	0x3e1374be	0.14400002
19	0xbdd429e4	-0.103595525
20	0x3ccc539b	0.02494221
21	0x3c7a4e8d	0.015277517
22	0x3e07da84	0.13266951
23	0x3dfae768	0.122511685
24	0x3c893074	0.016746737
25	0xbde4d2d1	-0.111730225
26	0xbc32615e	-0.010887472
27	0xbe1aa3a5	-0.15101488
28	0xbcfa5879	-0.030559765
29	0xbe206917	-0.15665089
30	0xbd796f04	-0.06089689
31	0xbcd8a0db	-0.02644389
32	0x3c616218	0.0137562975
33	0xbe3cef5e	-0.18450686
34	0xbc644e78	-0.013934724
35	0xbdc3f1db	-0.09567615
36	0x3da18ed5	0.07888571
37	0xbd69e59f	-0.05710375
38	0x3bb9497c	0.005654512
39	0xbd02524c	-0.031816766
40	0xbc83945d	-0.016061956
41	0x3d6d5739	0.05794451
42	0x3e32f7f1	0.17477395
43	0xbdfec6c8	-0.12440258
44	0x3ddae191	0.10687555
45	0x3d8113e9	0.06302626
46	0xbc95afb2	-0.018272255
47	0x3e161ff8	0.14660633
48	0xbb332027	-0.0027332397
49	0x3cafff00	0.021483898
50	0x3d90cde7	0.07070523
51	0xbc81b15e	-0.015831646
52	0x3c68c34b	0.014206718
53	0x3e0bab1e	0.13639495
54	0xbdc07cd2	-0.093988076
55	0xbd54e435	-0.051975448
56	0x3d2afab1	0.041742984
57	0xbe6afe6c	-0.22948617
58	0xbc1d120c	-0.009586822
59	0x3d11f3c4	0.035632864
60	0xbde52620	-0.111889124
61	0xba6bebb1	-0.00089996593
62	0x3bb26e2c	0.0054452624
63	0xbdf0d42d	-0.11759219
64	0x3c0997a9	0.008397975
65	0xbe438dab	-0.19097011
66	0x3da086b8	0.078381956
67	0x3dbb5275	0.09146587
68	0x3d7911ed	0.06080811
69	0xbd8ac5d1	-0.06776012
70	0x3dc1a2d4	0.09454885
71	0xbde6caf1	-0.11269177
72	0xbdbe5b13	-0.09294715
73	0xbdfbbb57	-0.122915916
74	0xbd8359d8	-0.06413621
75	0x3d6e92d9	0.058245514
76	0x3d5a27f8	0.053260773
77	0x3cb02f87	0.021507038
78	0xbd225711	-0.039633814
79	0xbdf57673	-0.11985483
80	0xbdeab73a	-0.11460729
81	0x3cc200a0	0.023681939
82	0x3ddb76ee	0.107160434
83	0x3d3386bc	0.043829665
84	0xbd31465a	-0.043279983
85	0x3cf1402b	0.029449543
86	0xbdaf3d87	-0.08556657
87	0x3c909328	0.017648295
88	0x3dfc4175	0.123171724
89	0x3ccff0f5	0.025383452
90	0xbc095e3b	-0.008384283
91	0x3dbc3ffd	0.09191892
92	0x3b16ac90	0.002299104
93	0x3dbf7105	0.09347729
94	0x3d8e3563	0.069437765
95	0x3df9667f	0.12177753
96	0xbdbf4482	-0.09339239
97	0x3d5362e2	0.051607974
98	0xbd45516a	-0.048173346
99	0xbe6016f5	-0.21883757
100	0x3d223895	0.039604742
101	0xbe3cc7a0	-0.18435526
102	0x3ca565ca	0.020190138
103	0xbe0981b0	-0.13428378
104	0xbc3fbe14	-0.011703033
105	0xbe284bee	-0.16435215
106	0x3d60826b	0.054811876
107	0xbde21f05	-0.11041073
108	0x3d8919a9	0.066943474
109	0x3df11288	0.11771113
110	0x3d268acc	0.04065971
111	0x3d724612	0.059148856
112	0x3d5c8241	0.053835157
113	0x3d679e29	0.056547318
114	0x3da3e61d	0.08002875
115	0x3d5fcc67	0.054638293
116	0x3e0fbed6	0.14037642
117	0x3ac7532d	0.0015207283
118	0xbdead73c	-0.11466834
119	0xbd374c09	-0.044750247
120	0x3dc78a38	0.0974316
121	0xbd22cf79	-0.039748643
122	0x3dd23179	0.102633424
123	0xbd6e2fe9	-0.05815116
124	0xbdbe7252	-0.092991486
125	0xbcbfaa51	-0.023396643
126	0x3dafa88a	0.08577068
127	0xbe05890a	-0.13040558
128	0x3dfa4e4c	0.12221965
129	0xbca844d8	-0.02054064
130	0xbd25aef0	-0.040450037
131	0xbdb50943	-0.08839657
132	0x3d45bc41	0.048275236
133	0xbe55a95d	-0.20865388
134	0x3db48ef1	0.088163264
135	0xbbdb9c28	-0.006701965
136	0x3d145710	0.03621584
137	0xbd2dbee5	-0.04241838
138	0x3d101d15	0.035183985
139	0xbde6deb9	-0.1127295
140	0x3d2d6ea9	0.042341862
141	0xbcac969a	-0.021067906
142	0x3d17d95b	0.03707252
143	0x3caeea97	0.021352096
144	0x3d66704f	0.05625945
145	0xbb40b039	-0.0029401912
146	0x3bb1fe64	0.005431937
147	0xbe03c3be	-0.12867638
148	0x3e54af07	0.20769893
149	0xbdf20317	-0.118169956
150	0x3d1e86af	0.038702663
151	0xbb9546c9	-0.0045555574
152	0x3cf62fa3	0.030052012
153	0x3eb2756e	0.34855217
154	0x3e1ff689	0.1562139
155	0x3eb48923	0.35260877
156	0x3c282e38	0.010264926
157	0x3dee7a7b	0.11644455
158	0x3dfc69c1	0.123248585
159	0x3e7954bc	0.2434873
160	0x3dbc5cb9	0.09197373
161	0x3ea3532f	0.31899402
162	0xbb081af6	-0.0020768023
163	0xbd9ec2a9	-0.07751972
164	0xbd6d9d8a	-0.05801157
165	0xbdc7f515	-0.097635426
166	0x3db4bae8	0.08824712
167	0xbdc2385d	-0.09483407
168	0xbdc61c2f	-0.09673344
169	0xbd796677	-0.060888734
170	0xbdbd982d	-0.09257541
171	0x3dc2a2ac	0.095036834
172	0x3e00707c	0.1254291
173	0x3d822992	0.06355585
174	0xbc86e48c	-0.016466402
175	0xbd8a022e	-0.06738697
176	0xbd303306	-0.04301741
177	0x3d2fd241	0.042925123
178	0x3d8fa7b1	0.070144065
179	0xbc6c0706	-0.014405971
180	0xbc5bc6b8	-0.013414077
181	0x3de10134	0.109865576
182	0xbd63a487	-0.055576827
183	0xbe14c28e	-0.14527342
184	0x3ddee4eb	0.108835064
185	0xbd8db1d6	-0.06918685
186	0xbd7ff33b	-0.062487822
187	0x3dc7310e	0.09726153
188	0xbdace169	-0.08441431
189	0xbdc42700	-0.09577751
190	0x3c9a76da	0.018855501
191	0xbde63ea5	-0.11242417
192	0x3dbe2d41	0.09285975
193	0xbd0211f7	-0.031755414
194	0x3e09a110	0.13440347
195	0xbe15e12d	-0.14636679
196	0xbd00eae9	-0.031474028
197	0xbe069faa	-0.13146845
198	0xbd71db73	-0.059047174
199	0x3918271e	0.00014510422
200	0x3d42face	0.047602467
201	0xbacc62c6	-0.0015593402
202	0x3db1b45d	0.0867698
203	0x3d495cc6	0.04916074
204	0x3ccaa21e	0.024735507
205	0xbd25af1e	-0.040450208
206	0x3d51201f	0.051056024
207	0x3b9b6cef	0.0047432105
208	0x3d0b4ce3	0.03400887
209	0xbc48e927	-0.012262619
210	0x3d95fef2	0.073240176
211	0x3d0a3a90	0.033747256
212	0x3d6a8798	0.05725822
213	0xbc9e0f9c	-0.019294553
214	0x3d96cb57	0.07363003
215	0x3d7900ae	0.060791664
216	0xbe360d78	-0.17778575
217	0xbaf58df8	-0.0018734327
218	0xbe75d45b	-0.24006788
219	0x3af47dd8	0.0018653227
220	0x3c896835	0.016773323
221	0x3d90c545	0.07068876
222	0xbe8d3307	-0.27577993
223	0xbcf97876	-0.030452948
224	0xbe872137	-0.26392528
225	0x3ce72e80	0.028220415
226	0x3db19657	0.08671253
227	0xbce7341f	-0.028223095
228	0xbd4fb572	-0.05071015
229	0xbdae917c	-0.08523843
230	0xbcf78771	-0.03021595
231	0xbace07a2	-0.0015718827
232	0xbd48a77e	-0.048987858
233	0xbc189d9f	-0.009314924
234	0x3e55bd8e	0.2087309
235	0x3e102d42	0.14079764
236	0x3df08fd2	0.117461815
237	0x3af2d951	0.00185279
238	0xbdc7b295	-0.09750859
239	0x3e29fcb2	0.16600302
240	0x3e302a07	0.17203532
241	0x3dc71570	0.09720886
242	0x3e1f3a3a	0.15549555
243	0x3d964883	0.07338049
244	0xbd40a570	-0.047032773
245	0x3e2235d9	0.15840854
246	0x3bc0396b	0.0058662198
247	0x3e435f8e	0.1907942
248	0x3c125d0c	0.008933317
249	0xbaa1622e	-0.0012312585
250	0xbd06b6b0	-0.032889068
251	0xbd75cc66	-0.060009383
252	0x3e8b7a06	0.27241534
253	0x3dd91c71	0.10601128
254	0x3e8df64c	0.27726972
255	0xbe139f3c	-0.14416212

conv4.bias f4 [64]
0	0xbd4a9864	-0.049461737
1	0xbc6017cb	-0.013677548
2	0xbcdc6286	-0.026902448
3	0xbcfd2645	-0.030902037
4	0x3d19fcfb	0.037594777
5	0x3dab624c	0.08368358
6	0xbbd2e11b	-0.006435526
7	0x3d2fff16	0.04296788
8	0x3d038305	0.03210737
9	0x3d47f0b3	0.048813533
10	0xbd3e448a	-0.046452083
11	0x3debe47a	0.11518188
12	0x3d0ea5aa	0.03482596
13	0xbc4825a2	-0.012216004
14	0x3d2c53d9	0.04207215
15	0x3bdd614a	0.0067559825
16	0xbc9b7d08	-0.018980518
17	0x3d0dd3e5	0.034625906
18	0xbd062cb8	-0.03275749
19	0xbd137de4	-0.03600873
20	0x3d3df178	0.04637286
21	0x3d014030	0.031555355
22	0xbc8cbe1c	-0.017180495
23	0x3c930f2f	0.017951576
24	0x3de91c56	0.11382358
25	0xbc9ff0b7	-0.019523961
26	0x3cebd492	0.028787885
27	0xbd0182e0	-0.031618953
28	0xbb89e5be	-0.0042082956
29	0x3cfa66d9	0.03056662
30	0xbd3e79d5	-0.046502907
31	0xbd628c34	-0.05530949
32	0xbc6c709a	-0.014431143
33	0xbb8b3dfb	-0.004249332
34	0xbcc865cd	-0.024462605
35	0x3d0ad058	0.0338901
36	0xbd10d09b	-0.03535519
37	0xbd3d1d9d	-0.04617082
38	0xbd10e110	-0.035370886
39	0xbd060cd8	-0.032727093
40	0xbd1701ce	-0.036866955
41	0x3db70a28	0.08937484
42	0x3cfdd58f	0.030985622
43	0xbc5ca451	-0.01346691
44	0x3d291a60	0.04128492
45	0x3d1fb7c7	0.038993623
46	0xba1d3a08	-0.0005997722
47	0x3cc836d9	0.024440216
48	0xbc74b7b3	-0.014936375
49	0x3d1c39b5	0.03814097
50	0xbdd7cad9	-0.10536737
51	0x3dacc312	0.08435644
52	0xbda196a5	-0.07890061
53	0x3d7f20f5	0.06228729
54	0xbbe31fb0	-0.0069312677
55	0xbd995801	-0.074874885
56	0x39c58954	0.00037677085
57	0xbb1d84fb	-0.0024035561
58	0x3da5a82b	0.08088716
59	0x3cf25739	0.029582607
60	0xbd3157a2	-0.043296464
61	0x3d37de38	0.04488966
62	0xbba48a61	-0.005021379
63	0x3ce76ab4	0.028249122

bn4.weight f4 [64]
0	0x40474cfa	3.1140733
1	0x402e691d	2.7251656
2	0x4024e8cd	2.576709
3	0x4032395e	2.7847514
4	0x402d57c6	2.7084823
5	0x4034579e	2.8178477
6	0x404469d9	3.0689604
7	0x402f7a33	2.7418334
8	0x4039c478	2.9026165
9	0x40494fee	3.1455035
10	0x40325a92	2.786778
11	0x405fc509	3.496401
12	0x40176c30	2.3659782
13	0x402e32cb	2.7218502
14	0x40353985	2.8316357
15	0x400f79c6	2.2418075
16	0x40432961	3.0494006
17	0x403f2590	2.9866676
18	0x404beaf1	3.1862147
19	0x40360a29	2.8443701
20	0x40366e1c	2.8504705
21	0x40297f14	2.6483812
22	0x401206bc	2.281661
23	0x403c5d8b	2.9432094
24	0x400fa1fa	2.2442613
25	0x4033e5eb	2.810908
26	0x403822fd	2.8771355
27	0x402c468d	2.691806
28	0x403722dc	2.8615026
29	0x403eb06c	2.979518
30	0x4024ee58	2.5770473
31	0x4046c797	3.105932
32	0x401514aa	2.3293862
33	0x4048097e	3.1255794
34	0x40159eed	2.337825
35	0x4014e2dc	2.3263464
36	0x401d4d8f	2.4578588
37	0x40381a3c	2.8766012
38	0x404c804a	3.1953301
39	0x40429e04	3.0408945
40	0x403853ef	2.880123
41	0x40187fbd	2.3827965
42	0x40337c72	2.8044705
43	0x40318412	2.773686
44	0x401a1c3e	2.4079738
45	0x401dd853	2.4663284
46	0x402dba22	2.7144856
47	0x4034173f	2.8139188
48	0x4026892b	2.602122
49	0x405010ff	3.2510374
50	0x402ad22a	2.6690774
51	0x402d8e6c	2.7118177
52	0x40436655	3.0531209
53	0x4036d70e	2.856876
54	0x4050e07b	3.2637012
55	0x40431698	3.048254
56	0x403e6593	2.9749496
57	0x403f5a3b	2.9898822
58	0x4040de03	3.0135505
59	0x4031dcf0	2.77911
60	0x4031a0ce	2.7754397
61	0x40169a56	2.35317
62	0x40378969	2.8677619
63	0x40308539	2.7581313

bn4.bias f4 [64]
0	0x3edf5e81	0.43626788
1	0x3efdbaba	0.49556524
2	0x3ea85db2	0.32883984
3	0x3edde247	0.43336698
4	0x3f36ece5	0.7145522
5	0x3f0c44f9	0.54792744
6	0x3ec2c90d	0.38044015
7	0x3ede2c72	0.43393284
8	0x3ec56e67	0.38560793
9	0x3eeb9b0e	0.46016735
10	0x3f2e30c2	0.6804315
11	0x3efef814	0.49798644
12	0x3f7c2a5b	0.9850213
13	0x3ea75e08	0.32688928
14	0x3ef444a9	0.47708634
15	0x3f4cec96	0.800485
16	0x3ecb990f	0.39765212
17	0x3ec40b87	0.38290045
18	0x3ef0b378	0.47011924
19	0x3ed70832	0.4199844
20	0x3f135d14	0.575639
21	0x3eff1b97	0.49825737
22	0x3f633373	0.8875038
23	0x3ebeebc0	0.37289238
24	0x3f335319	0.7004867
25	0x3eef1564	0.46696007
26	0x3f20d044	0.6281779
27	0x3ef3f04b	0.47644266
28	0x3f3291b6	0.6975359
29	0x3ea8cacb	0.3296722
30	0x3f4612f1	0.7737265
31	0x3ef6a16f	0.4817004
32	0x3f444a80	0.7667618
33	0x3ecf2fe1	0.40466216
34	0x3f4a1034	0.78930974
35	0x3f2033d9	0.62579113
36	0x3f45311d	0.77028066
37	0x3f027474	0.50958943
38	0x3efb8dd3	0.4913164
39	0x3eeaeac5	0.4588224
40	0x3f0bf40b	0.54669255
41	0x3f5cd1fb	0.86257905
42	0x3eab6aa0	0.33479786
43	0x3edb6b68	0.42855382
44	0x3f4be567	0.79646915
45	0x3f5cca4d	0.86246186
46	0x3f206016	0.62646616
47	0x3eaed61b	0.34147725
48	0x3ee46e5d	0.4461545
49	0x3f1b9c53	0.60785407
50	0x3f050296	0.5195707
51	0x3ee32ee1	0.44371703
52	0x3ea946f0	0.33061934
53	0x3ee5902e	0.44836563
54	0x3edda62c	0.43290842
55	0x3f0bc9f2	0.5460502
56	0x3ee903af	0.45510623
57	0x3edb1e70	0.4279666
58	0x3eb8418b	0.35987505
59	0x3f1b71f8	0.6072078
60	0x3ef635a0	0.48087788
61	0x3f4afcb4	0.79291844
62	0x3ed7208a	0.42017013
63	0x3f098cc6	0.5373043

bn4.running_mean f4 [64]
0	0x3ece58de	0.40302175
1	0x3efdd680	0.49577713
2	0xbd61834b	-0.05505685
3	0x3e826292	0.25465828
4	0x3e2955ff	0.16536711
5	0x3e9400de	0.28906912
6	0x3e09c8fd	0.13455577
7	0x3e5737b3	0.21017341
8	0x3cd85f24	0.026412554
9	0x3e8aa3bf	0.27078053
10	0xbe7fed14	-0.24992782
11	0x3efa29b9	0.48859957
12	0xbedefe63	-0.43553457
13	0x3e21f8a2	0.15817502
14	0x3f1b8d79	0.60762745
15	0xbdbbc2b6	-0.091679975
16	0x3f0f64a9	0.5601297
17	0xbc7b67e6	-0.015344596
18	0x3e532072	0.20617846
19	0x3e64841e	0.22316024
20	0x3e805652	0.25065857
21	0x3e71d299	0.23615493
22	0xbefb926d	-0.49135152
23	0x3ee485a7	0.4463322
24	0xbeb43583	-0.35197076
25	0x3eb43a7d	0.35200873
26	0x3ecbdde0	0.39817715
27	0x3e21f2e2	0.15815309
28	0x3ed7b43c	0.42129695
29	0x3e96cf3f	0.2945499
30	0xbe5466c8	-0.20742333
31	0x3e42e8fe	0.19034192
32	0xbefb5d88	-0.49094796
33	0x3e0aed2f	0.13567041
34	0xbebbaa12	-0.3665319
35	0x3db9edde	0.09078573
36	0xbeffe9cd	-0.49983063
37	0x3d8f5813	0.06999221
38	0xbe2bb3e6	-0.16767845
39	0x3e9e2c6d	0.3089327
40	0xbd71f84a	-0.059074678
41	0xbe2b2688	-0.16713917
42	0x3ec7cbdf	0.3902273
43	0x3d0aa12c	0.03384511
44	0xbeb684c2	-0.3564816
45	0xbf3f0557	-0.7461752
46	0x3d39b263	0.04533614
47	0x3cceb0b0	0.025230736
48	0x3f1d019b	0.61330575
49	0x3e8909b2	0.2676521
50	0x3e61f42f	0.22065805
51	0x3f02a246	0.5102886
52	0x3d185dd3	0.037198853
53	0x3f2ce13c	0.6753118
54	0x3e43a88e	0.19107267
55	0x3e0de5e3	0.13857226
56	0x3dde62fb	0.10858723
57	0x3e38b143	0.1803637
58	0x3e30c0c9	0.17261042
59	0xbdc10820	-0.09425378
60	0x3eeb6b8e	0.45980495
61	0xbf03fa6c	-0.5155399
62	0x3eb4ed81	0.3533745
63	0x3edd0413	0.4316717

bn4.running_var f4 [64]
0	0x3ede3c21	0.4340525
1	0x3e9515e5	0.29118267
2	0x3e9449a5	0.28962436
3	0x3ea57659	0.32316855
4	0x3eb5cccb	0.35507807
5	0x3e9054ce	0.281897
6	0x3e8c331e	0.2738275
7	0x3ec9a23e	0.39381593
8	0x3ee32fee	0.44372505
9	0x3ebf55af	0.3737006
10	0x3e8af819	0.27142408
11	0x3ec214bd	0.37906447
12	0x3e8a6d71	0.27036622
13	0x3ebce578	0.3689382
14	0x3ee88f22	0.45421702
15	0x3ebcbc27	0.368623
16	0x3eb2a5e5	0.34892192
17	0x3ec03a3e	0.37544435
18	0x3e96a30a	0.29421264
19	0x3eb74aea	0.35799342
20	0x3ea1ca2e	0.31599563
21	0x3e7924c8	0.24330437
22	0x3ea93033	0.33044586
23	0x3ecc57fc	0.39910877
24	0x3e8155cb	0.25260767
25	0x3e9f8f47	0.31164
26	0x3e8b856e	0.27250236
27	0x3ea23930	0.31684256
28	0x3ea2c8bc	0.31793773
29	0x3eb25e7d	0.34837714
30	0x3ed2fdab	0.41209158
31	0x3eb04f65	0.34435573
32	0x3ef34ef3	0.4752117
33	0x3ed6de28	0.41966367
34	0x3ebefdfb	0.37303147
35	0x3e97eab6	0.29671258
36	0x3ec8e941	0.3924046
37	0x3e9d9b60	0.30782604
38	0x3e931305	0.28725448
39	0x3e949a15	0.29023805
40	0x3e887475	0.2665135
41	0x3e96a75a	0.29424554
42	0x3ed9abea	0.42513973
43	0x3ea178fd	0.3153762
44	0x3e8e4f9d	0.27795115
45	0x3ee0aee9	0.43883446
46	0x3ea187c0	0.31548882
47	0x3ec27fb2	0.3798805
48	0x3eb7608c	0.35815847
49	0x3ee07291	0.43837407
50	0x3e819c2d	0.25314465
51	0x3ec1b520	0.378335
52	0x3eafb0ce	0.3431458
53	0x3e9bff03	0.30467996
54	0x3ecb42c6	0.39699382
55	0x3e7edeb9	0.2488965
56	0x3ec05cbc	0.3757075
57	0x3edc9a0d	0.4308628
58	0x3eb3d162	0.35120684
59	0x3eff8e74	0.4991337
60	0x3ea370b1	0.31921914
61	0x3ec1f1be	0.37879747
62	0x3ebeac50	0.3724084
63	0x3ea57e4a	0.32322913

lin.weight f4 [36, 64]
0	0x3ca28c61	0.019842329
1	0xbf4ce175	-0.8003152
2	0xbec9874d	-0.3936104
3	0xbb1e7e07	-0.0024184005
4	0xbe92c5c7	-0.28666517
5	0x3da252ed	0.07925973
6	0xbdc878d9	-0.09788675
7	0xbe030260	-0.12793875
8	0x3ccef70a	0.025264282
9	0xbebafe33	-0.36522064
10	0x3ee4a191	0.44654515
11	0xbece76ee	-0.4032511
12	0xbd8a3102	-0.06747629
13	0xbdb3beb7	-0.0877661
14	0xbe4e0dc2	-0.20122436
15	0xbc8d3726	-0.01723821
16	0xbf33ecc0	-0.70283127
17	0x3e7382fb	0.23780434
18	0xbe8e6c81	-0.27817157
19	0xbea2c7e9	-0.31793144
20	0xbef11f48	-0.47094178
21	0xbdd60c58	-0.10451573
22	0x3e0fff67	0.14062272
23	0xbe49a6ff	-0.1969261
24	0x3e6c89ce	0.23099443
25	0xbf32f2e0	-0.6990185
26	0xbec3c49e	-0.38235945
27	0x3e64326b	0.22284858
28	0xbe53af00	-0.20672226
29	0xbe3a100f	-0.18170188
30	0x3ea9be1e	0.3315286
31	0x3e8650ab	0.2623342
32	0xbd71271d	-0.058875192
33	0xbe32e2f6	-0.17469391
34	0xbe19b3b2	-0.15009955
35	0x3ecff4f8	0.40616584
36	0x3e6bf86a	0.23043981
37	0xbf077f10	-0.52928257
38	0x3e9453dc	0.2897023
39	0xba6f42e6	-0.0009127095
40	0xbdc0b76d	-0.09409986
41	0x3cb02d09	0.02150585
42	0xbf081976	-0.5316385
43	0xbed95fd5	-0.42455927
44	0x3ec04257	0.37550613
45	0x3edbe4c2	0.42947966
46	0x3e8cb287	0.27479956
47	0x3ce657fb	0.028118124
48	0xbe89edbf	-0.26939198
49	0x3eb2688a	0.34845382
50	0x3e7dae7b	0.2477359
51	0xbe6ac993	-0.22928457
52	0xbe3eed72	-0.18645266
53	0xbe8e3112	-0.27771813
54	0x3efa0ce3	0.48837957
55	0x3eb27c39	0.348604
56	0xbe9bf80a	-0.30462676
57	0xbeea2b3c	-0.4573611
58	0x3eabb620	0.33537388
59	0x3e5cd556	0.21565756
60	0xbec7e578	-0.39042258
61	0x3e3488e5	0.17630346
62	0xbe91bccf	-0.28464362
63	0xbe9006aa	-0.28130084
64	0xbdfe4c0a	-0.12416847
65	0xbe4e39ed	-0.20139284
66	0x3ecee03f	0.4040546
67	0x3e8a1f65	0.26977077
68	0xbec02df8	-0.3753507
69	0xbf3dded3	-0.7416813
70	0xbea3a6f3	-0.3196331
71	0x3ec977f3	0.39349326
72	0x3aa60aa5	0.0012667967
73	0xbd1bdf28	-0.038054615
74	0xbf09b6a1	-0.53794295
75	0x3e7ef919	0.2489971
76	0xbf11f52c	-0.5701473
77	0x3d826976	0.06367771
78	0xbed98bcc	-0.4248947
79	0xbee4455e	-0.44584173
80	0xbe2b2741	-0.16714193
81	0x3edfa1de	0.43678182
82	0x3f0910f2	0.5354148
83	0x3ecfa1f9	0.40553263
84	0x3e94640c	0.2898258
85	0xbe6b45e3	-0.22975878
86	0xbf135b9b	-0.57561654
87	0x3eecffe0	0.46288967
88	0x3d9cb684	0.076519996
89	0x3ea5a8f5	0.32355466
90	0xbd572a00	-0.05253029
91	0xbf0bcb19	-0.5460678
92	0xbf745c3b	-0.9545323
93	0x3f00a6ca	0.502545
94	0xbead1e17	-0.3381202
95	0xbcb7d871	-0.022442074
96	0xbea92f92	-0.33044106
97	0xbe77d002	-0.24200442
98	0xbed8712a	-0.42273837
99	0xbee29104	-0.44251263
100	0xbf0a654c	-0.54060817
101	0xbd4789f9	-0.048715565
102	0x3f00312f	0.5007505
103	0x3ed4e271	0.4157901
104	0x3de1e530	0.11030042
105	0xbf008120	-0.5019703
106	0x3e5bc617	0.21462284
107	0x3e8993e8	0.26870656
108	0xbf07cec1	-0.53049856
109	0xbf1857dd	-0.5950907
110	0xbf16275c	-0.5865381
111	0xbe46463d	-0.19362731
112	0xbecd6c56	-0.40121716
113	0x3ed7cf5c	0.4215039
114	0xbdab1bdf	-0.08354925
115	0xbd81fc4b	-0.06346949
116	0x3e1399ac	0.1441409
117	0x3d6f016f	0.058350977
118	0x3f21407d	0.62989026
119	0x3eaa02c3	0.33205232
120	0xbef52003	-0.47875986
121	0xbeeb4739	-0.45952776
122	0xbefef209	-0.49794033
123	0xbe9baa83	-0.30403528
124	0x3e413b8c	0.18870372
125	0xbea845d9	-0.3286579
126	0x3ea047b7	0.31304714
127	0x3eb59a11	0.35469106
128	0xbe21cf76	-0.15801796
129	0x3ddfe84a	0.109329775
130	0xbccedd40	-0.025251985
131	0xbe844d28	-0.25840116
132	0xbefd69d5	-0.49494806
133	0xbc3c6507	-0.011498696
134	0xbf923b31	-1.1424314
135	0x3e680b18	0.22660482
136	0xbf104f94	-0.56371427
137	0xbe65682b	-0.22403018
138	0xbf0da756	-0.5533346
139	0x3d83ba56	0.06432025
140	0xbef5f738	-0.48040175
141	0xbf01c78b	-0.50695103
142	0xbee3514e	-0.44397968
143	0x3d1bac92	0.038006373
144	0xbe29e6cb	-0.16591947
145	0x3ee3f414	0.44522154
146	0x3ed0e232	0.40797573
147	0x3f00d48f	0.5032434
148	0xbd104ea9	-0.035231266
149	0x3e83f8c1	0.25775722
150	0xbce66d29	-0.028128223
151	0xbdc128ea	-0.09431632
152	0xbd62c350	-0.055362046
153	0x3e847dad	0.25877133
154	0x3f06260b	0.524018
155	0xbe314373	-0.17310886
156	0x3eedf90a	0.46479064
157	0xbe690da0	-0.22759104
158	0xbf18a8c9	-0.59632546
159	0xbddf0462	-0.10889508
160	0xbeedfbfa	-0.46481305
161	0xbe62d7b5	-0.22152598
162	0xbea3ab92	-0.31966835
163	0xbe6b083e	-0.22952363
164	0xbe9fd376	-0.3121602
165	0xbe8bbd07	-0.27292654
166	0x3dfc3781	0.12315274
167	0x3d8c9449	0.06864221
168	0x3f02bd64	0.5107024
169	0xbebdddd9	-0.3708332
170	0x3ebb7b51	0.3661752
171	0x3ecb060e	0.39653057
172	0xbdf8135b	-0.12113067
173	0xbe16dd72	-0.14732912
174	0xbd65e1a2	-0.056123383
175	0xbe244560	-0.1604209
176	0xbe22ebf9	-0.15910329
177	0x3e109b28	0.14121687
178	0x3edfd620	0.43718052
179	0xbe2c9da0	-0.16857004
180	0xbecaa079	-0.39575556
181	0xbf144894	-0.57923245
182	0x3d8180fa	0.063234285
183	0x3e9538d4	0.2914492
184	0xbe8982ea	-0.26857692
185	0xbe921d22	-0.28537852
186	0xbe9bf1ab	-0.30457816
187	0xbf125f84	-0.57176995
188	0x3f17b0d7	0.5925421
189	0xbede4481	-0.4341164
190	0x3e07f14e	0.13275644
191	0x3f004393	0.5010311
192	0x3e104682	0.14089397
193	0x3e82ada5	0.25523105
194	0x3e2ca12c	0.16858357
195	0x3e4f321e	0.20233962
196	0xbe9c29aa	-0.30500537
197	0xbdb92884	-0.09040931
198	0xbedd4213	-0.43214473
199	0xbc9fd213	-0.01950935
200	0x3dd4a376	0.1038274
201	0xbdc127b8	-0.09431404
202	0xbf0e9a29	-0.5570398
203	0x3f02bf6f	0.51073354
204	0xbe05a348	-0.13050568
205	0x3eb58252	0.3545099
206	0xbeb8b5eb	-0.36076292
207	0x3ac4cd23	0.0015014749
208	0x3e1752ce	0.14777681
209	0xbe93b93e	-0.28852266
210	0x3e4e242e	0.20130989
211	0x3ebe5f65	0.37182155
212	0x3c8330eb	0.016014537
213	0x3e600a39	0.218789
214	0x3e1af282	0.15131572
215	0xbf188784	-0.5958178
216	0xbeb17ccc	-0.34665525
217	0x3e90c149	0.28272465
218	0x3e232135	0.15930636
219	0xbe1e507e	-0.15460393
220	0xbe9b73f9	-0.30361918
221	0xbec724b3	-0.38895187
222	0xbe9428e7	-0.28937456
223	0x3ef44614	0.47709715
224	0xbe7d7bf0	-0.2475431
225	0xbf00c4e9	-0.5030046
226	0xbd36a024	-0.044586316
227	0xbe109d91	-0.14122607
228	0x3dfffa4c	0.12498912
229	0xbe02cae3	-0.12772708
230	0x3d3904f9	0.045170758
231	0xbf2d292e	-0.6764096
232	0x3eab59f0	0.33467054
233	0xbb80cb17	-0.00393046
234	0xbec38c9d	-0.38193217
235	0xbdc825c3	-0.097728275
236	0xbf1cd901	-0.6126862
237	0xbe8a2d96	-0.26987904
238	0xbe91fbe7	-0.285125
239	0xbf2d25eb	-0.67635983
240	0xbe558f6b	-0.20855491
241	0xbc053b77	-0.008131853
242	0x3efec16d	0.49756947
243	0x3cfc0690	0.030764848
244	0x3e87d2f8	0.26528144
245	0xbe3c6e57	-0.18401466
246	0x3db3af3b	0.08773657
247	0xbec2341f	-0.3793039
248	0xbef3796e	-0.4755358
249	0xbe519b50	-0.20469403
250	0xbf1570d4	-0.5837529
251	0xbe00113b	-0.12506573
252	0x3c8d0ddc	0.017218523
253	0xbde6185f	-0.11235117
254	0x3ec84b6d	0.39120045
255	0x3ed54b7c	0.41659153

lin.bias f4 [36]
0	0x3d9534b8	0.07285446
1	0xbde6f6ad	-0.112775184
2	0xbdc5d791	-0.09660257
3	0xbd0d2b75	-0.034465272
4	0x3e4c1019	0.19928016
5	0x3d5ec421	0.05438626
6	0x3e21f5aa	0.1581637
7	0x3e56b9b8	0.20969284
8	0x3cef3bf0	0.029203385
9	0x3bda5a3c	0.006663589
10	0xbcbbe0bd	-0.022934312
11	0xbcde4e9f	-0.027137099
12	0xbd9baab4	-0.076009184
13	0xbd41d9ba	-0.04732678
14	0x3e16c7ce	0.14724657
15	0xbd0b7d44	-0.03405501
16	0x3d874403	0.06604769
17	0xbe431933	-0.19052581
18	0x3dd56b65	0.104208745
19	0x3e21bfbd	0.15795799
20	0x3dff5cc0	0.124688625
21	0xbd331842	-0.043724306
22	0xbda8dc6e	-0.082451686
23	0x3db52d8a	0.088465765
24	0x3e2cac5c	0.16862625
25	0x3d1c1f81	0.038115982
26	0xbdca1b3e	-0.09868477
27	0x3d67607a	0.05648849
28	0xbe0d8ef8	-0.1382407
29	0x3de6e75d	0.11274598
30	0x3e00f5fb	0.12593834
31	0xbe2e514c	-0.170232
32	0xbdabb8d5	-0.08384863
33	0xbb2970a4	-0.0025854493
34	0x3c385c5a	0.011252487
35	0xbd5a88fb	-0.05335329
